grporange/models/classifier/weights/vip_movement_medium_predictor.pth (torch, 91692 bytes, 13 tensors)

move_embedding.weight f4 [6, 8]
00000000: d793 e0bf a4bc 343e 8a36 e2bd aa3d 57bf
00000010: 9b9c 4fbf 0878 293e e93e 8ebf 78e7 2bbe
00000020: 4cd6 0640 18aa 9bbf ef2f 1b40 4737 13bf
00000030: ce91 783f 7587 863f e008 733f daee e7bf
00000040: eb6d 7abf cad8 b6be 833f 5ebe 77bc be3e
00000050: ad2c 2b40 9377 bb3e 3351 aebe 559b 2e40
00000060: a847 f43f 5d7c a13f 28cb 3fbf 8c5b 88bf
00000070: 9660 b2bf f548 a53f 8a39 953f 12e2 3640
00000080: 144b 87bf 625b 1a40 e256 e3bf dd76 fc3a
00000090: 1a15 55bd ee22 81bf 694a 0b40 8430 c3bf
000000a0: 6d37 91bd 1028 673e 184b 7f3f e306 1040
000000b0: 8dba 2cc0 b0bb ee3f f17a 57bf 576c 6cbe
-1.7545117 0.17650086 -0.11045559 -0.84078467 -0.81098336 0.16549695 -1.1112949 -0.16787517
2.1068296 -1.2161283 2.4248006 -0.5750622 0.9709748 1.0510088 0.9493542 -1.8119767
-0.9782397 -0.35712272 -0.21703915 0.37253162 2.6746018 0.36614665 -0.34046325 2.7282307
1.9084368 1.2616078 -0.74919367 -1.0652938 -1.3935726 1.291289 1.1658185 2.8575482
-1.0569787 2.4118276 -1.776089 0.0019261498 -0.052022077 -1.0088785 2.1764166 -1.5249181
-0.0709065 0.22573876 0.9972396 2.2504203 -2.6988862 1.8651028 -0.8417197 -0.23088203

lstm.weight_ih_l0 f4 [256, 8]
00000000: 2269 003e 9bf3 1bbe de16 223e aee7 653b
00000010: f77e d43d 31c8 b93e b9d1 ce3d 6819 fe3e
00000020: 10ba 513e 26db c43e b78a d93d 9bf3 c3be
00000030: 920c f7bc 27ac b03e 190f 0c3f ef6d 5dbe
00000040: 41b9 d23e 9324 a3bd f072 f73e ce1d 173e
00000050: 8408 a5bd 3fae 473f c4ee c13d ec14 f93d
00000060: f473 4b3d 45ed 9fbe ce7d a43e 5d60 503f
00000070: 2de0 ad3d 7f7c bc3e 8d0b 80be 126d 723d
00000080: b494 bfbc 051b d93d 4c62 2f3d 6698 b8bd
00000090: 2a63 e23e 8659 063d b58b 033f 52fd 24be
000000a0: 4d48 fc3d 8a1f 26bf e587 793f 4c3f 3d3f
000000b0: 8d27 8f3d f725 363f 73db d2be b82f 983e
000000c0: d1b8 e43d 0823 a43d 45c8 4f3e 0bcb a13e
000000d0: fb02 14be 5e80 ea3d 4497 d13d 8ebd 19be
000000e0: 0dd4 d2be 0fd1 473f bb52 03bf c0db e03d
000000f0: 8e8a d2be 47fb 5abd af41 c53d 2701 eb3e
00000100: 8570 a83e fbb5 4cbe 9a47 ed3e 8109 403d
00000110: 99a6 0bbe 1c72 1d3f 2162 063e be10 86be
00000120: 4bb6 c03c af20 b43e f7ea 88bd 28c1 75be
00000130: e26e 5bbe e8c1 e93e 5a9a fa3e 4175 953d
00000140: 5109 863e 66a7 56be dfe3 913e e13d ab3a
00000150: 5570 163e ef42 d43e 77f3 ceba 9b1d ce3e
00000160: 8b71 b03e e6f8 993d bdbd 233e 9630 32bd
00000170: 44c7 953d 1c16 6c3e 12b9 e33e 3b74 56bd
00000180: aea9 e23e e20b f03d d1c5 0d3f 81de a33c
00000190: 9cb4 d2be 2b69 1e3f 8cb1 d53e 6db0 48be
000001a0: 90b6 b03e f58d 8cbd 94fa bd3e ca57 b63e
000001b0: 56b7 34be ddca 1f3f 88ec 9e3c ea4d 6d3d
000001c0: 60e8 b0bd db02 5b3e 4884 21bd bc5e e43e
000001d0: e25b 3bbf 1eba b53e 7959 bdbd 651f 333d
000001e0: b30f 043f 49d6 bbbd c42e 743e 251f 5dbf
000001f0: f8fd 123f a61a a03e 2ecd 193e ed43 8b3e
00000200: a478 143f bd50 70bc 19b5 f13d a96c 26be
00000210: 61f8 6f3d 0184 9e3e dd67 453b d1af 8f3e
00000220: 8935 483e c82f 663e cf2b a6bd 4380 a03e
00000230: 67eb f9be b28c 513f 0c84 4abd fac1 273f
00000240: e08d e83d 2649 40be 0c25 813d ddab d1be
00000250: 9277 eb3d b914 ce3e 82ab c3bd 4022 d63e
00000260: 52a7 2f3e b144 733d 330f 0c3e 16f4 f13d
00000270: 1dcc 11be 3bb0 c83e e3c2 1dbd 17cc 8d3e
00000280: f179 53be 1e03 7b3d 99cf 50be 0b0f 85be
00000290: b681 463f 228e 85be 051e a23e 9ae3 873b
000002a0: 57a4 2cbd 7b1f 1c3f 89bc ffbe 4db6 6fbe
000002b0: d7c5 25be a535 ed3d 074c aa3e 068a 043e
000002c0: 04b9 823e d943 34be ef7c 063f 8d24 a03e
000002d0: 7e1a 003c 1f70 123f de2d 5b3d bab7 7fbe
000002e0: c9fd 1c3d 29f0 e23d 343d 083e 8331 723d
000002f0: f4ee e73e 31f8 873e d3ff 393e 100c 223d
00000300: 8755 8f3e b37d 843e e776 06bd aac4 5e3e
00000310: a345 e4be 2da8 fe3e 0260 203d 746f af3c
00000320: 2dd2 dd3e 81e7 5dbe 6752 8c3e ea46 d33e
00000330: 26e0 96be 6569 493f e610 2abe 524e 893d
00000340: 4991 033f 6407 cc3d f0b3 323e ef6f 253e
00000350: 7eea 25bf 07c7 f53e 66bb 673e d733 1bbd
00000360: 1788 083e 64f4 78bc cdd6 fa3d cefe 213f
00000370: 329a 37be 6350 ab3e b9e9 cf3c c649 4dbe
00000380: 46c9 67be 6f70 8d3e 6de7 4dbe 7cc3 3a3f
00000390: 0b1c 0bbe 5170 393e 4638 c1be 9fa0 883f
000003a0: ced8 b0bd 2159 20be 70cd 283e df53 d23e
000003b0: 9927 b13e 83f1 ad3e 94bf 80be 2edc b83e
000003c0: 0ad1 d33e 98dc e83e 76bf 1b3f 527b b43d
000003d0: 76f1 e0be d2ac 243f 23ad c83e 3cc1 dbbe
000003e0: 4cd1 e2be e9dd 0a3f 9dcd dfbe bbaf a3bc
000003f0: 82b9 b83d 9bbd a8be bcca cc3e b9a9 4d3e
0.12540105 -0.15229647 0.15829036 0.0035080719 0.10375779 0.36285546 0.10098595 0.49628758
0.20481133 0.38448447 0.10622161 -0.38271794 -0.030157361 0.34506342 0.5471054 -0.21623968
0.41156963 -0.0796596 0.48329878 0.14757463 -0.08058265 0.78000253 0.09469369 0.12162194
0.04967113 -0.3123571 0.3212723 0.8139704 0.08490024 0.36813733 -0.25008813 0.05918605
-0.023386337 0.10600857 0.042818353 -0.09013443 0.4421628 0.03280022 0.5138505 -0.16112259
0.12318478 -0.64891875 0.97472984 0.7392471 0.069899656 0.7115168 -0.4118305 0.29723907
0.111680634 0.08014494 0.2029124 0.31600222 -0.14454262 0.11450265 0.1023393 -0.15013716
-0.41177407 0.78053373 -0.5129811 0.10979414 -0.41121334 -0.053462293 0.09631669 0.45899317
0.32898346 -0.19991295 0.4634369 0.046884064 -0.1363777 0.6150224 0.1312337 -0.26184648
0.023524424 0.35181186 -0.06685441 -0.23999465 -0.21429017 0.4565575 0.48945886 0.07297755
0.26178983 -0.20962295 0.28494164 0.0013064706 0.14691289 0.41457316 -0.0015789111 0.40256962
0.34461626 0.07518177 0.15990348 -0.043503366 0.073133975 0.23055309 0.44477135 -0.05235694
0.4427008 0.117210165 0.5537997 0.020003559 -0.4115342 0.61879224 0.4173702 -0.19598551
0.34514284 -0.06863014 0.37105238 0.35613853 -0.17648062 0.6241892 0.019399896 0.057935633
-0.08638072 0.21387808 -0.039432794 0.44603527 -0.7318708 0.3549356 -0.09245581 0.043731112
0.51586455 -0.09171731 0.23845965 -0.8637565 0.57418776 0.3127033 0.15019676 0.2720026
0.57996583 -0.014667687 0.1180212 -0.16252388 0.058586482 0.30960086 0.0030121722 0.28063825
0.19551672 0.22479165 -0.081138246 0.31347856 -0.4881241 0.8185531 -0.049442336 0.6553036
0.113551855 -0.18777904 0.06305894 -0.40951434 0.114974156 0.40250185 -0.09554197 0.41823006
0.17153671 0.05939168 0.13677673 0.11814134 -0.1423802 0.39196953 -0.038515937 0.2769477
-0.20651986 0.06128227 -0.20391692 -0.2598804 0.77541673 -0.26085 0.31663528 0.0041470053
-0.042148914 0.60985535 -0.49948528 -0.23409386 -0.16188751 0.115824975 0.3326113 0.12943277
0.2553178 -0.17604007 0.52534384 0.31277886 0.007818816 0.57202333 0.05351054 -0.2497243
0.038327966 0.11080963 0.13304597 0.05912925 0.45299494 0.26556543 0.18163995 0.039562285
0.2799494 0.2587715 -0.032828238 0.21754709 -0.4458438 0.49737683 0.03915406 0.02141545
0.43324414 -0.21670343 0.27406618 0.4126504 -0.29467887 0.78676444 -0.16608009 0.067043915
0.5139356 0.09962347 0.17451453 0.1615598 -0.6481093 0.48003408 0.2263008 -0.037891235
0.13333164 -0.015194986 0.12248001 0.63279426 -0.17929915 0.33459768 0.025380002 -0.20047674
-0.22635373 0.27624843 -0.20107813 0.72954535 -0.13584916 0.18109252 -0.37738246 1.0674018
-0.08635102 -0.15659 0.16484618 0.41079614 0.34600523 0.3397332 -0.25146163 0.36105484
0.41370422 0.454808 0.6083902 0.08812584 -0.4393422 0.643262 0.39194593 -0.42920864
-0.44300306 0.5424486 -0.43711558 -0.019981256 0.09019758 -0.32957157 0.39998424 0.20084275

lstm.weight_hh_l0 f4 [256, 64]
00000000: f335 e63e 785b 0ebe fe09 eebd cbd5 673e
00000010: 1f63 79be 6b9e 51be fb37 0abe 1b07 5d3f
00000020: ce91 b4be 4d43 1e3f 5485 183c 4864 f7bd
00000030: b2fa 27bf 9a26 963e 0975 a33e 5502 ffbd
00000040: c591 51be 044a 553e cda9 8dbf 5db2 593e
00000050: 22ce 50bf 73bb a7bc 0ca6 46bf 263a 07bf
00000060: e46c 143e f911 9a3e f5c7 5fbf 290c 803f
00000070: 6a3d 3b3f b0a8 313f eb51 b03e 611b 8bbf
00000080: 9bb1 873e 9988 95be fab1 c83e 6967 803f
00000090: 5775 b83e 44b2 17bd 1055 193e 4694 20bf
000000a0: b5f2 ee3d 8bda 14bd 26bd 3f3c 70af c8be
000000b0: 65bf 793c ed7e 2abb ef46 0fbf bb65 2fbe
000000c0: 9d20 703e cf9c 553f 1432 e53d bad7 193e
000000d0: b4b0 8ebe a776 4f3e 914d 3c3f e354 02bf
000000e0: 9695 aa3e facb 25bf b8ea 73bf efe1 acbe
000000f0: 1e35 1e3f 47d4 bebe 4d42 993e cd8e 06bd
00000100: f79e 8a3e de31 f53d 8b91 bc3e de1c 843e
00000110: d768 13bf 8555 963e 2eb5 dbbe 707c 8bbd
00000120: 22c4 afbe 0c95 a63d 697d d2be 80aa bebc
00000130: 837c 1c3e 7d1f 173f 734a 3c3e 81f0 a7be
00000140: b17f b7be b076 123f 2f0c 16bf 6e24 26bd
00000150: 2451 6abe 1327 e7be 732e ecbe 5c58 a8bd
00000160: b41b a73e 8c25 353d 1582 1fbf 5ee2 023e
00000170: ac2d 473f 0452 963e 55e5 3a3f e3b0 a6be
00000180: 7866 01bf c4a1 d6be 3ddb 083f b91a 793e
00000190: 4249 e73e c8cf 4abc 4cd7 24be e668 8a3c
000001a0: c6d1 1a3f 9c01 08bf b318 7a3e 23ec 253f
000001b0: be3b 033e d74f 2a3f 6c20 9ebe ddbb 87be
000001c0: f484 61be 959b 1b3d f752 bcbc 79fe 6e3d
000001d0: 1dfb 5ebf e953 d33d 8425 cc3e a2e7 74be
000001e0: d0b3 bbbd 1ac2 dfbd c35f bb3e 1483 303e
000001f0: db78 00bf 38c5 92bd 30e9 c0bd 9c33 773e
00000200: f40e 10be 7da7 fb3e bc85 99be 85d6 6d3e
00000210: a29e 943e 1fc2 bbbd e622 d1be 9b86 823e
00000220: c2fa 8fbd fe4b 8abe efd4 b73e 018f debe
00000230: 9af9 20bf 9f1d 6ebd 400d 0dbe 19fd c43e
00000240: 2aeb 1d3c 10d0 603e 860f 813d 4eec f23e
00000250: 686a 9e3e 70c3 0ebf 8e44 d2bd db42 9ebe
00000260: 7a65 84be c7f2 223f 55d3 31be c76d 55bd
00000270: a0f7 2b3e a73e 61be 65bb b83d 2790 42be
00000280: 5790 1bbd abed 91be 7264 8cbe 122b e43e
00000290: 25a2 09bd 23c7 23be 0b7f f3be f3cf 013e
000002a0: 8674 f73e cdf8 4ebe 19cd 033f 4023 f1be
000002b0: 1af6 b23e ccba 5a3d 9925 bc3e 6607 883e
000002c0: dbf1 c2be ea55 d138 5cdb 15be 51c2 afbe
000002d0: bb33 f2be 3d93 8a3d f4e2 e0bd 3aaf e8be
000002e0: 1cdb bdbd 5f11 1f3e d69f 42bf 1c23 02bf
000002f0: 5e1f e8bd bbee 1e3f 7526 dbbe a4a9 07be
00000300: 03d7 1abe ff13 c1bb 4b3a e03e 1f80 123f
00000310: ea43 aebe dbbb a43e 832e 07bf 3ea3 c63b
00000320: 1c21 04bd e354 f43e 4eee 863b e725 fabc
00000330: aa74 bfbe a1a8 a73e fa52 a53e 6a02 14bf
00000340: b76b f5bc 4208 673d ef06 40bf 5251 953e
00000350: ba15 1f3e 492c 79be e618 2bbf 5540 d9be
00000360: cb17 803e 0e6f 3c3e ef8f 37bf 1f81 113f
00000370: 55c9 103f 6c8d f8bd 77ef 153f b2ae 94be
00000380: 3f43 71be 3193 333e dab4 e43e e5d5 6e3f
00000390: ea1b eb3e 4a15 5ebe ea4b b1be f0e3 b3bd
000003a0: 57f0 6c3e 7b45 2ebd 9c7d 78be 3ad4 4cbe
000003b0: b9a6 fc3c 01c6 4ebe 8727 f8bd c760 f7be
000003c0: 5e42 c9be 326c 183f 83e4 8b3d b4bf ffbd
000003d0: 8f77 fdbe 2d41 653d 8cbd 0d3e 1be2 173f
000003e0: 468c 71bd e028 fbbd e317 8cbe 51be d5bd
000003f0: 8d11 ddbc d64a 14bf ad2b d93e 82b8 d53e
0.44963035 -0.1390208 -0.116229996 0.2264015 -0.24354218 -0.20470588 -0.13497917 0.8633897
-0.3526749 0.6182144 0.009309132 -0.12079674 -0.65616906 0.29326326 0.31925228 -0.12451617
-0.20465763 0.20829016 -1.1067444 0.21259446 -0.81564534 -0.020475125 -0.7759712 -0.528231
0.14494663 0.30091837 -0.87414485 1.0003711 0.73140585 0.6939802 0.34437498 -1.086773
0.2650269 -0.29205778 0.39198285 1.0031558 0.36027023 -0.03703524 0.14973855 -0.6272625
0.116673864 -0.03634123 0.011702811 -0.39196348 0.015243386 -0.0026015595 -0.5596761 -0.17128651
0.23449941 0.83442396 0.11191192 0.150237 -0.2786919 0.20260106 0.73555857 -0.50910777
0.3331725 -0.6476437 -0.9528003 -0.33766124 0.617998 -0.3727133 0.29933396 -0.03285103
0.27074406 0.11972402 0.3682979 0.25803274 -0.5758185 0.2936212 -0.42911667 -0.06810844
-0.34329325 0.08133897 -0.41111305 -0.02327466 0.15281872 0.5903242 0.18387775 -0.32800677
-0.35839608 0.5721235 -0.5861234 -0.040562086 -0.22882515 -0.45147 -0.46129188 -0.08219978
0.32638323 0.04422526 -0.62307864 0.12781665 0.77804065 0.29359448 0.7300618 -0.3255683
-0.5054698 -0.41920292 0.5345953 0.243266 0.4517308 -0.0123786405 -0.16097754 0.016895723
0.6047634 -0.53127456 0.24423485 0.6481344 0.12815759 0.66528076 -0.3088411 -0.26510516
-0.22023374 0.03799017 -0.02298878 0.058348153 -0.8710192 0.10318739 0.39872372 -0.23916486
-0.09165156 -0.10925694 0.36596498 0.17237502 -0.5018441 -0.07166523 -0.09419477 0.24140781
-0.14068204 0.4915122 -0.29984844 0.23226364 0.29027277 -0.09167885 -0.40846938 0.2549332
-0.0703025 -0.27011102 0.35904643 -0.43468478 -0.6288086 -0.058133718 -0.13774586 0.38474348
0.009638587 0.2195437 0.06301789 0.4744591 0.30940557 -0.55766964 -0.10266982 -0.30910382
-0.2585867 0.636517 -0.17365773 -0.052106645 0.1679368 -0.21996556 0.09020118 -0.19000302
-0.03797945 -0.2850164 -0.27420384 0.4456411 -0.0336019 -0.15993933 -0.47557864 0.12676983
0.48331088 -0.20212097 0.5148483 -0.47097206 0.34953386 0.0534008 0.36747435 0.26568145
-0.38075146 9.981899e-05 -0.1463446 -0.3432794 -0.47305092 0.06766365 -0.10980788 -0.45446187
-0.092703074 0.1553397 -0.7602514 -0.5083482 -0.11334108 0.62083024 -0.42802778 -0.13248307
-0.15121083 -0.0058922763 0.43794474 0.5722675 -0.3403619 0.32174572 -0.52805346 0.0060619405
-0.032258138 0.47721013 0.0041177636 -0.030535651 -0.37393695 0.3274584 0.3228987 -0.57816184
-0.029958589 0.05640436 -0.7501058 0.29163605 0.15535632 -0.243333 -0.66834867 -0.42431894
0.25018153 0.18401739 -0.71704 0.5683765 0.5655721 -0.12136349 0.5856852 -0.29039532
-0.23560809 0.17536618 0.4466923 0.9329513 0.45919734 -0.21687809 -0.3462823 -0.0878371
0.23138557 -0.04254673 -0.24266666 -0.20002833 0.030841218 -0.2019272 -0.12116914 -0.48316023
-0.39308447 0.5954009 0.068306945 -0.12487736 -0.49505278 0.05597036 0.13841838 0.59329385
-0.058971666 -0.12263656 -0.27361974 -0.104366906 -0.026985908 -0.5792669 0.42416134 0.4174233

lstm.bias_ih_l0 f4 [256]
00000000: 7a8c b53e e4a4 113f 4b6d f53e e7c6 c53d
00000010: b25b f43e ba82 b43e 0759 4c3e 7483 123e
00000020: 3e38 a43d 213b 4a3f 1391 1f3e 0e7e 7b3e
00000030: 2b5e a83e 0703 c73e 7be7 943e 589c 863c
00000040: 17ef 413d cf99 d03e 06e0 623e a9f0 873e
00000050: 50b9 ed3e 39de 943e 9cac 963e 62c9 9d3e
00000060: 5423 9c3e 7486 153e 0d37 ba3e f8da 8e3e
00000070: 0752 c33e 3f4b 063e 9558 e53e 0e2c 2c3e
00000080: 33c4 763e cccf d83e a6d2 fe3e 6fd1 0e3f
00000090: e01f ad3e c624 1f3f 666f 043f dd85 903e
000000a0: 8b56 f73e bd16 c43e 6eaf 8d3d fdf3 913d
000000b0: 3eb0 8d3d 1959 373f 3d16 2d3f ce03 6b3e
000000c0: 484b d53e 8949 9a3e c2c0 033f a0c6 e73e
000000d0: dcea d73e fc68 e73e 2589 d6bc e32f 883c
000000e0: 308b d23e afb7 913d e58d b63e 8653 ba3e
000000f0: 61a9 a23e b9fe a53e 73f6 a73e 645b 643e
00000100: 24af 5dbe 4b02 1c3e 211d 863d e80c 093e
00000110: 9493 6f3e 34cb abbc 7007 2c3d 1dd9 61bd
00000120: 1879 bc3e b252 aebe 754d f13e 6d8e 0fbc
00000130: 8469 6dbd 5a46 913e 89ec 0c3e cbd2 4ebc
00000140: e26c 1a3e 7adc b93e def1 45be bd31 d33d
00000150: f3bf ac3d ac0d 5b3e 4b86 67be cc9b 323d
00000160: eb5a b73e 00c2 86bd 38ad 2ebe 12cb 01be
00000170: a71a cdbd 25a7 bdbd d398 dc3e 1f4f f7bd
00000180: 70ef cd3d 1741 1c3e 5b4e 373e f109 43be
00000190: 652b 853e 943b 1f3e 4860 f2be faeb 37be
000001a0: e12a 17be de45 4e3e e32e ec3a f08e 243d
000001b0: 8c8f cabd acf0 753e 92b5 853e dd8b 663d
000001c0: a59c 593d aa92 5c3e 1caf 723e 42bd 8b3e
000001d0: e014 3fbe 1e9d 4ebe f77c 01bd 8c09 9cbd
000001e0: d21d 0d3e 0c99 e03c 968f a5bd bfa3 ecbe
000001f0: 55e9 c53e 9e7e 48be 9d26 e53d cf40 e03d
00000200: 0d2d e8bc 3e1c 1d3e 6955 093e 68db 4c3e
00000210: 1809 a1be 2a6d 8f3e d686 0f3e 036e 38be
00000220: 781c 15bd 7edf bc3d 0089 56be 21ce 553c
00000230: bdb2 febd 1178 08bb 04b7 2d3d 2de7 3ebe
00000240: 142e e03c 8046 cb3e 12ec 2bbe 3b4d cabe
00000250: 5939 c8bd 1495 93be e075 bfbd 1d4d 513c
00000260: e622 53bb a7e8 d6bd 0b28 32bd c0c5 0bbe
00000270: f944 993e e81a 323e ad9b 613e 7a97 c1bd
00000280: c032 06be 9cc2 67be 0649 7d3e 6141 303e
00000290: 34ae d83d bb63 983e 247f f3bd 1d6f 933d
000002a0: b6a4 363e cd5a 9bbd 78af 173e a70b 983d
000002b0: 43f1 dcbd 5065 e53c 36ad 1abe 38c6 31be
000002c0: 9eb4 7fbd a243 253e 5b5c 943e d34c 9c3e
000002d0: 11da 043d c170 203e 07ee 2c3d 0193 0e3c
000002e0: 3a56 cebe a2b3 5f3c 4790 59bd b2c9 703d
000002f0: 8e94 18be 70d1 58be 55e1 7ebd 5960 dd3d
00000300: 3d06 133e 0ebd 093f 183b 893e 7c50 1d3f
00000310: 5525 833d 3a9c 3e3e 7fe6 fa3e 4f62 9e3e
00000320: 917f 9d3d 5621 363f 90f5 6b3c c48c ad3e
00000330: b4f3 3e3e c961 823e 9e8d a63e 2a4e 623e
00000340: 010a 8a3d e364 ab3e 25e2 2c3e a155 2a3d
00000350: 4552 ca3e 4713 b03d b059 b63e 4da8 0c3f
00000360: dc01 f73e b3b6 023f 98d3 283e 7a0e bc3e
00000370: 2a62 c73e eeb4 923e cd85 cdbc fbad 693e
00000380: 1be4 6b3e e84c aa3d 8130 013e 0395 343f
00000390: 5fcf 8e3e 5c10 8f3e 76b0 db3e 52a2 d03e
000003a0: c1e8 1b3f 9d79 883e 7a57 e13d 6382 003f
000003b0: 9fcc 7a3e d99c 573e c217 f03d 5dee 7a3e
000003c0: 6e7d b53d 6ad1 e23e 7374 953e b573 9c3e
000003d0: 562b 563e 9e25 0f3f cc8a 263f d775 093f
000003e0: 367c 083f ff62 f33e 2f14 dd3e c947 f93e
000003f0: 3fae ea3d 2c7b e33e bbc6 7c3e a197 ca3d
0.35458738 0.5689223 0.47934946 0.09657078 0.47726208 0.35255986 0.19955836 0.14307958
0.0801854 0.78996474 0.15582685 0.24559805 0.32884344 0.38869497 0.29082856 0.016431972
0.047347154 0.40742347 0.2215577 0.26550797 0.46430445 0.29075792 0.29428566 0.30817705
0.30495703 0.14602071 0.36370125 0.27901435 0.3814852 0.13114642 0.44794145 0.1681368
0.24098282 0.42346036 0.49770087 0.5578832 0.3381338 0.62165487 0.5173248 0.2822713
0.48308215 0.38298598 0.06918226 0.07126615 0.06918381 0.7162033 0.6761206 0.2295067
0.41658998 0.30134228 0.51466 0.45268726 0.4217137 0.45197284 -0.026188442 0.016624397
0.41121817 0.07115113 0.35655132 0.36391848 0.3176985 0.324209 0.32805213 0.22300488
-0.21648842 0.1523525 0.06548525 0.1338383 0.2339614 -0.020970918 0.04199928 -0.055138696
0.36811137 -0.34047467 0.47129408 -0.008761984 -0.057961956 0.28373986 0.13762106 -0.012623499
0.15080598 0.36301023 -0.19330546 0.10312221 0.08435049 0.21391934 -0.22609822 0.04360561
0.35811552 -0.06579971 -0.17058265 -0.12675121 -0.10014849 -0.09260396 0.43085346 -0.12075638
0.10055435 0.15259205 0.17900984 -0.19046761 0.2600967 0.15550071 -0.47339082 -0.17961112
-0.14762451 0.2014384 0.0018019344 0.04017538 -0.09890661 0.2401759 0.2611509 0.056285728
0.053127903 0.21540323 0.23699611 0.2729283 -0.18660307 -0.20177123 -0.031613316 -0.076190084
0.13780907 0.027416728 -0.080840275 -0.46218678 0.3865458 -0.1957955 0.111890055 0.10949861
-0.028341794 0.15342805 0.13411488 0.20005572 -0.3145225 0.28012973 0.1401628 -0.18010716
-0.036404103 0.09222315 -0.20950699 0.013049633 -0.12436435 -0.0020823518 0.042410865 -0.18642874
0.027365722 0.39702225 -0.16789272 -0.39512047 -0.09776563 -0.28824675 -0.09348655 0.012774733
-0.0032216846 -0.10493594 -0.04349522 -0.13649654 0.29935434 0.17393076 0.22032042 -0.0945272
-0.13105297 -0.22632831 0.24734887 0.1721244 0.105801016 0.29763588 -0.118894845 0.071989276
0.1783627 -0.07585678 0.1481303 0.074240975 -0.107882045 0.028002411 -0.15105137 -0.1736077
-0.06242811 0.16139081 0.28976712 0.30527362 0.032434527 0.15668012 0.042219188 0.008702041
-0.4030016 0.013653668 -0.05311611 0.0587861 -0.14900419 -0.21173644 -0.062226612 0.108093925
0.14357848 0.538041 0.26802897 0.61450934 0.06403605 0.18614283 0.4900398 0.30934379
0.07690347 0.71144617 0.014401808 0.33896458 0.18647653 0.2546523 0.3252992 0.2210013
0.06740189 0.33475408 0.16883142 0.04158557 0.39515892 0.08597427 0.356153 0.54944307
0.48243606 0.51060027 0.16486967 0.36729795 0.3894208 0.28653663 -0.025088215 0.22820275
0.23036234 0.0831545 0.12616159 0.70539874 0.27892587 0.2794217 0.42908067 0.4074884
0.6090203 0.26655284 0.11003013 0.50198954 0.24492119 0.21055926 0.117232814 0.24504991
0.088618144 0.44300395 0.29190406 0.30557027 0.20914969 0.55916774 0.6505554 0.53695434
0.5331453 0.47536466 0.4317946 0.4868758 0.11459016 0.4442991 0.24685185 0.09892202

lstm.bias_hh_l0 f4 [256]
00000000: 92d3 b93e 9f8b 053f fcc3 123f 55b1 323e
00000010: 0f75 7f3e c772 993e e2e2 0e3d d5fc 823e
00000020: 1618 a03e c526 373f 52c7 563e d285 b03e
00000030: e2e8 843e d5e9 d93e 1e06 8e3e 702b ab3d
00000040: ef93 f8bc 5ce2 113f c8bb 723e 0e78 3a3e
00000050: 6a4a 9d3e 00b5 133e baec 583e 09ce e13e
00000060: 9c14 ae3d c98c b13e c948 e23e efca b23e
00000070: 129f 233e 9f0d ee3d 780e cd3e 434d d13c
00000080: e1ea 893e 4bc3 c93e 6e38 153f 209d 3d3f
00000090: e6fa 593e 5685 373f 11eb 0e3f f826 5d3e
000000a0: 120f bc3e 6937 093f 83ce f6bc 635e 043e
000000b0: c75c d5bb 164f 613f 7aa7 213f 065b 573e
000000c0: 0ae0 903e 0a2c a33e 21cd c23e 98d7 c93e
000000d0: 1303 053f 670c cb3e 2206 b7bc 9bc5 f43d
000000e0: 169a b33e 58e2 583e bbe7 593e c583 ec3e
000000f0: c9d8 cc3e 2d32 953e b091 033e 795a 443e
00000100: 9226 8dbd 5996 a03d f37c d13d 201f 213e
00000110: e105 613e 2ae5 29be 38de a03d d425 013d
00000120: b10e d53e 6303 87be f2f0 203f 935e 25bc
00000130: 0021 033e 427d 7d3e ebe5 f23d 2259 5b3d
00000140: 8425 1c3e 666b 963e 128d 92bd cfe7 043e
00000150: ebc3 a13d 634f 933d ae97 9abb 43af fe3b
00000160: eb88 903e 96e8 c5bd e7f0 76be 4f45 7dbe
00000170: 4e28 b33d 2414 a8bd 92ec 983e 44b1 47be
00000180: 3ad2 1d3e 333b 7c3e f4fb 453e 5e2f 3ebe
00000190: db4a e63d 7fa8 cc3d 5e29 cbbe d2c6 fbbd
000001a0: 435e 38be cc11 053e 0c93 ba3d 9426 1abd
000001b0: 23cd 2dbe 4873 4a3e a66e a33e 1cd1 013e
000001c0: 8dde 3c3e 0154 613e f375 6c3e 5998 0e3e
000001d0: bd99 9cbe 2e42 7bbe 3dc9 2dbe 6501 063e
000001e0: 951f 223e 5fe5 c23d 686f 50be 944b 9abe
000001f0: b5ee 463e eea9 99bd 62e3 cebd 7f72 133e
00000200: 33ac 61be a97b 2e3e 77f3 6c3e f278 423e
00000210: 8c29 a5be 3875 443e adae f43c 4426 f83c
00000220: 2875 53be 21a9 4b3d 0087 b2be 64ab 41bd
00000230: 7379 40be 070b 53bd 16a4 3139 b888 d6bd
00000240: ec58 a5bd e7c0 a23e 9af6 28be 392c 8abe
00000250: cc0f 6bbe f54a 1fbe 649b 263b 8e21 3dbd
00000260: bd0a 153e 9e13 69be 1fe4 44be f858 b93d
00000270: df31 253e 737e 533e a923 513e 8ec0 16bd
00000280: 54ec 38bc 097e 8cbe 62af 773e e211 023e
00000290: 3a51 b1bc 04c8 9b3e 8f47 4dbd 86e6 40bd
000002a0: 4976 9b3e d67f 88bd 4b64 4c3e e91f e7bd
000002b0: 587a c1bb 10e6 b5bc 1074 83bc 59a6 8dbd
000002c0: 45ef 7b3d 8806 7b3e b08b b83e da63 823e
000002d0: b5a2 bcbd a185 f6ba fad8 72bd 7d4c d63c
000002e0: 0253 b8be 3831 debd e5f9 2ebe c021 1f3e
000002f0: f561 dabd 7e76 5bbe 1795 3a3d 29e7 fcbd
00000300: b770 623d f88d d23e a03a 5d3e 2d74 173f
00000310: 98f4 113e dd24 b03e 0917 013f 185a a43e
00000320: 05d6 3b3e 65b4 343f a046 563e fdb3 863e
00000330: d281 9c3e 2b58 593e 7f1c d33e 2f9d e13d
00000340: 55a4 593d 9a2e cd3e 1c40 b13e 7231 ac3d
00000350: fabc bf3e 6523 593e 48f9 be3e a76d a33e
00000360: 5954 e63e e2a5 d43e a602 103e d6a4 d33e
00000370: 51f3 a43e 3df7 b33e afa8 13bd 4383 c53d
00000380: 720f 0f3e b783 a93d 588e 993d 37a1 333f
00000390: f6e4 393e d54f b03e 217c ce3e 2504 f03e
000003a0: bb06 ee3e 744f e53d 1578 3d3e 28ec ff3e
000003b0: 941e 5d3e 2110 003e 89c4 d53c 8674 1f3e
000003c0: 98b2 6e3e 099d c93e b63d 993e 6d4f 923e
000003d0: ec3d be3e 7a64 b83e 5909 263f 5f5e ea3e
000003e0: a8b8 013f 3d3e f03e 0bd7 233f 25df e73e
000003f0: 9a1d 753e c737 f03e fb2e 3b3e e099 903d
0.36294228 0.5216617 0.573303 0.1745046 0.24946998 0.2997038 0.03488434 0.2558352
0.31268376 0.7154353 0.20974472 0.34477097 0.25958925 0.42561212 0.27739042 0.083578944
-0.030343978 0.5698602 0.23704445 0.1820986 0.30720836 0.14424515 0.21184054 0.44102505
0.08500025 0.34677723 0.44196156 0.3492045 0.1597865 0.11623692 0.400501 0.025549537
0.2693701 0.3940681 0.5828923 0.7406788 0.21287116 0.7168783 0.5582743 0.21596897
0.36730248 0.53600174 -0.03012777 0.1292663 -0.006511304 0.880113 0.63146174 0.21030816
0.28295928 0.31869537 0.38047126 0.39422297 0.51957816 0.396579 -0.022341792 0.11951753
0.35078496 0.21180093 0.21279804 0.46194282 0.40009144 0.29139844 0.12848544 0.19175138
-0.06892122 0.078411765 0.1022891 0.1573453 0.21974899 -0.16591325 0.07854885 0.031530216
0.4161277 -0.2636977 0.62867653 -0.010093349 0.12805557 0.24754813 0.118602596 0.0535518
0.15248686 0.29378814 -0.07155813 0.12979053 0.078986965 0.07192876 -0.0047177887 0.0077723577
0.2822946 -0.09663503 -0.24115334 -0.2473347 0.08747922 -0.082069665 0.2986799 -0.19501215
0.15412226 0.24631958 0.19334394 -0.18572757 0.11244746 0.099930756 -0.39679998 -0.12293781
-0.18004708 0.1299507 0.09110078 -0.037634447 -0.16972785 0.19770539 0.31920356 0.12677425
0.18444271 0.22004701 0.23091869 0.13925304 -0.30586043 -0.24536964 -0.16971298 0.1308647
0.1583236 0.09516405 -0.20354998 -0.30135787 0.19426997 -0.07503115 -0.101019636 0.14399146
-0.22038345 0.1703936 0.2313975 0.1899145 -0.3225826 0.1918534 0.029868448 0.030291684
-0.2065016 0.04972184 -0.34868622 -0.04728259 -0.18796329 -0.05152419 0.00016941162 -0.10475296
-0.08073601 0.31787798 -0.16500321 -0.26986864 -0.22955245 -0.15555938 0.002542221 -0.04617458
0.14554878 -0.2276139 -0.19227646 0.090501726 0.16132306 0.20653705 0.2042376 -0.03680473
-0.011286814 -0.27439907 0.24187997 0.12702134 -0.021645177 0.30426037 -0.05011707 -0.047094844
0.30363682 -0.06665008 0.19960134 -0.11285383 -0.005904477 -0.022204429 -0.016046554 -0.06916494
0.061507482 0.2451421 0.36044073 0.25466806 -0.092107214 -0.0018808135 -0.059288956 0.02615952
-0.3600083 -0.108492315 -0.17087515 0.15540218 -0.10663215 -0.2143192 0.04555234 -0.12348778
0.055283275 0.4112394 0.21604395 0.59161645 0.14253461 0.34403124 0.50425774 0.32099986
0.1834336 0.7058776 0.20925379 0.26309195 0.30567795 0.2122504 0.41232678 0.110163085
0.053135235 0.40074617 0.34619224 0.084078684 0.37448865 0.21204908 0.37299562 0.31919596
0.44986227 0.4153281 0.1406351 0.41336697 0.32216886 0.35149565 -0.03604954 0.09644177
0.13970736 0.08277076 0.07497853 0.7016787 0.18153748 0.34435907 0.40329078 0.46878162
0.4648951 0.11196795 0.18502839 0.4998486 0.21593696 0.12506153 0.026094692 0.15571794
0.23310316 0.3937762 0.29929894 0.28576222 0.37156618 0.36014158 0.64858013 0.45775124
0.5067239 0.46922484 0.64000005 0.45287433 0.23937073 0.46917555 0.1827964 0.07060599

env_fc1.weight f4 [16, 9]
00000000: 48f1 81be 9242 babf 0aba 4ebf 700a f13d
00000010: f044 98bd 6c3e 0d3f 2a71 a03e 5fca 133f
00000020: 89c5 90be e2f2 953e a89d f63e 4246 febe
00000030: f474 f0be b0aa ab3d 97de a63e 4e60 8d3b
00000040: 90ab bd3f d321 b23d 0de8 463e e435 dabe
00000050: 2d10 ff3e c2cc 92bf 3086 9abc 08d1 de3e
00000060: 7551 7e3f b3d9 0e3f 753a 34bd af06 30bf
00000070: 368a 8abf 4b0e 053f fdcd 123f 07f0 8a3e
00000080: c289 b53c 1350 45be d364 8a3f c8ac 673e
00000090: 7121 593f 5622 76be 14d1 573f 41f1 8c3e
000000a0: 7cc4 bd3d 7c3a 573e 8236 cb3e ad1e c5bd
000000b0: 7e28 103f 132d f63e c760 ff3e e2ef 8bbe
000000c0: 9cc8 a53f 73ac 61be e643 443e 597f e23e
000000d0: 0d32 0fbd da20 62be ff90 e63d f61b 163e
000000e0: f0b7 37bf e1ed fe3f fb3f 9e3e f640 153f
000000f0: 3f88 d5bf e6e5 29be a55e 82be d5fa 803e
00000100: fdee 20bf 7104 b43e b548 99be ec9b d53d
00000110: c33e 123f 056e 86be a24e d13e d790 373f
00000120: 48e1 b7bf 2de0 59bf 96d8 05bf bdbf 943e
00000130: a451 a3be 76c5 683f 4946 e53e 8346 74bf
00000140: fcec 53be 5c4d 073e 3714 033f 301d a53e
00000150: 1223 ffbe 3037 f73c 8b02 ae3f 9bbf 63be
00000160: 85f2 aabe 137d f83c 2693 993e 7699 5e3f
00000170: ba35 88be 5cd1 033e 0060 7eb8 0862 b4be
00000180: 99fd 913e e6eb 483f e531 9ebe 2499 9e3e
00000190: 4279 81bc d5eb 47be 4192 f83e de95 103e
000001a0: df3d 073f aefc abbe fcbd a63e e44f 953e
000001b0: aa43 393f 4302 04be 7607 b7be 1f40 cc3d
000001c0: f67c 88be c883 a73e 930e 37be f321 ea3f
000001d0: 5fb9 f3be 1e5e 4e3c 5b5b 72bf 1c07 193f
000001e0: c33a 2a3f 70f8 a5bd e604 c8bd e5ec 703e
000001f0: 8a44 ff3c 1ca9 883e cd9b 283e 9b7c 94bb
00000200: 44a3 42be aa1d 09bf 6617 aabe 7403 e13f
00000210: 5b05 d43e 8102 303b 0212 ddbe 24fa e73c
00000220: 35ce b5bf 4771 4a3e e10e bdbd b8e1 4b3d
00000230: 8563 473e 3b90 bc3e 621a f7be be7b aa3e
-0.25379395 -1.4551566 -0.80752623 0.11769569 -0.07435024 0.55173373 0.31336337 0.5773067
-0.28275707 0.29286867 0.48167157 -0.49662977 -0.46964228 0.083821654 0.32591698 0.004314459
1.4817982 0.08697858 0.19424458 -0.4261924 0.4981703 -1.1468737 -0.018862814 0.43518853
0.99343044 0.5580093 -0.04400106 -0.687602 -1.0823429 0.51974934 0.57345563 0.2713625
0.022160415 -0.19268827 1.0812019 0.22624505 0.8481665 -0.24036536 0.843034 0.27527812
0.09265992 0.21018404 0.39690024 -0.096249916 0.56311786 0.48081264 0.49878523 -0.27331454
1.2951846 -0.2203844 0.19166526 0.44237784 -0.03495984 -0.22082844 0.112581246 0.14659104
-0.7176504 1.9916345 0.30908188 0.5830225 -1.6682204 -0.16591606 -0.25462833 0.2519137
-0.6286467 0.3515964 -0.29938284 0.1043013 0.57127017 -0.26255813 0.40880305 0.71705383
-1.4365625 -0.8510769 -0.5228361 0.29052535 -0.31898224 0.909263 0.44780186 -0.9542009
-0.20695871 0.13213104 0.5120272 0.3224883 -0.49831444 0.030177683 1.3594526 -0.2224106
-0.33388153 0.030333078 0.29995078 0.8695291 -0.2660349 0.12872833 -6.0647726e-05 -0.35231042
0.28513792 0.7848495 -0.30897442 0.30976212 -0.01580489 -0.19523557 0.48549083 0.1411967
0.5282878 -0.33591217 0.32566822 0.29162514 0.7236887 -0.12891488 -0.3574788 0.09973168
-0.26657838 0.3271773 -0.17876653 1.829161 -0.47602364 0.0125956815 -0.9467065 0.59776473
0.66495913 -0.08104026 -0.09766559 0.23527868 0.031160612 0.2669152 0.16465683 -0.0045314557
-0.19007593 -0.5356089 -0.33220977 1.7579179 0.41410336 0.0026856961 -0.431778 0.028317519
-1.4203554 0.19769774 -0.092313536 0.04977581 0.19471557 0.3682879 -0.48262316 0.33297533

env_fc1.bias f4 [16]
00000000: ba6e 4e3f 8712 473e e1b6 f3be 54b5 2b3f
00000010: 0d02 19bf 91ff 44be 18a2 e73e 539a 033f
00000020: 7163 c33e de68 5d3e a58f ce3e b5bd c9bd
00000030: c12e 20bc 9c03 ca3e 9a92 043d 0bb5 283f
0.80637705 0.19440661 -0.47600463 0.6707356 -0.59768754 -0.19238116 0.45240855 0.51407355
0.38161805 0.21622035 0.40343967 -0.09850637 -0.009776772 0.3945588 0.032366373 0.6590125

env_fc2.weight f4 [8, 16]
00000000: e128 0f3d 6f97 a23f acaa f9bc 85b9 303f
00000010: 3123 f2be 9940 89be 3f8d 64bd 72a5 c33e
00000020: f6b5 50be 809f 673e e557 063f 4d1c 443e
00000030: 4547 9f3f e205 1fbe bf3e 9d3e 7504 3dbe
00000040: 22dc 973b b127 86be 5041 c1bd ad4c 45be
00000050: a3d0 2dbe f846 bdbc 71d1 d63d 5a3b 8dbe
00000060: 2789 7dbe 5e50 5f3e 8d32 36be c55b 0c3e
00000070: e7ed 28be a066 423e 4675 36be 673b 263e
00000080: 0759 a63f 2026 2fbe 3209 443f c508 81be
00000090: 7751 a43e d010 e53d c531 7bbe e043 413e
000000a0: e999 d63f 3686 483d e440 f3be a443 eb3d
000000b0: 0bad 2d3e 02be af3e 8104 903f 4e32 1c3f
000000c0: 5b67 89be 66e3 8cbe f8cf a43f e5c9 183f
000000d0: 9f8f b93f 7477 c93e fa54 c33f c51a e53e
000000e0: c07d 23be e190 2bbf 701b f5bd 4cd6 c3bb
000000f0: 548d 9fbd bae9 423f dfa8 24bf 9a17 0d3f
00000100: 8d87 883f 6aff d0bd 531f 01bf eb65 753f
00000110: fccf 12bf 44e6 1c3f a682 b33f 15a9 1c3d
00000120: 6328 a33f cd91 f8be 68e4 9ebd 55d5 b73d
00000130: a095 b93e 7503 423f e089 53be c4a2 083f
00000140: 105b b8bd a0c7 d93d 9675 2a3e bc33 d3bd
00000150: 4c29 8a3d d447 77be ee95 133e a02c 73bd
00000160: 2811 62be f028 c43c dc3d 69be 5232 28be
00000170: 4001 69bd 52b9 37be d84b c13d 0c59 023e
00000180: 0c77 373f 9d08 fbbd 7938 0f3f 0ce5 84be
00000190: cb9a ed3e c7b3 ac3e 4e45 c73e 0f4c f53e
000001a0: e5a7 e03f 917a 1b3f aaba 93be 8699 893e
000001b0: 7e19 15bf 7a70 5abe 2c20 4e3f a54f acbe
000001c0: 05ea 2e3b cb19 1ebe 9668 bc3f 0ccb 2abf
000001d0: 11a2 79be 8391 7e3f 6046 923f 128b b6be
000001e0: bff0 1cbe 69b9 ea3d fd3c 033f f61f bb3e
000001f0: 97a4 bc3e 68f0 0c3d b0f2 c33e 227a 29bf
0.034951095 1.2702464 -0.03047689 0.6903308 -0.47292474 -0.26807097 -0.055798765 0.38212162
-0.20381913 0.22619438 0.52477866 0.19151421 1.2443625 -0.15529588 0.30711934 -0.18458731
0.004634396 -0.26202157 -0.094362855 -0.1926753 -0.1697412 -0.02310513 0.104891665 -0.27584344
-0.2475935 0.21808001 -0.17792721 0.13706882 -0.16497003 0.18984461 -0.17818174 0.16233598
1.2995919 -0.17104387 0.7657653 -0.25202003 0.32093403 0.11184847 -0.24530704 0.18873549
1.676572 0.04895612 -0.47510445 0.11487511 0.16960542 0.34324652 1.1251374 0.6101426
-0.26836666 -0.2751724 1.2875967 0.59683067 1.4496955 0.39348948 1.5260308 0.44746986
-0.15965939 -0.6701794 -0.11968124 -0.005976474 -0.07790628 0.7613789 -0.64320177 0.5511414
1.0666367 -0.10204966 -0.5043842 0.9585864 -0.5734861 0.6128886 1.4024246 0.038247187
1.27467 -0.48548737 -0.07758409 0.08976237 0.36246967 0.75786525 -0.20658064 0.5337336
-0.09001744 0.106337786 0.16646418 -0.10312602 0.06746158 -0.24148494 0.14412662 -0.05936873
-0.22076857 0.023945302 -0.22777504 -0.16425446 -0.056885958 -0.17941788 0.09438294 0.12729281
0.71666026 -0.12257502 0.55945545 -0.25956 0.4640716 0.3373091 0.38920063 0.4790959
1.7551237 0.60733896 -0.2885335 0.26874942 -0.58242023 -0.21331969 0.8051784 -0.33654514
0.002668978 -0.15439527 1.4719417 -0.66716075 -0.2437823 0.99440783 1.1427727 -0.35652977
-0.15326212 0.114611454 0.51264936 0.36547822 0.36844322 0.034408957 0.38271093 -0.66201985

env_fc2.bias f4 [8]
00000000: 8d08 9b3e 2745 73be c0f8 283e c714 fd3d
00000010: 0ee5 90bd 7c0d 0dbe d612 7d3d 600a 7d3e
0.3027996 -0.23756848 0.1650114 0.123574786 -0.07074939 -0.13774675 0.06178554 0.24710989

fc_comb.weight f4 [32, 72]
00000000: 26cf 07bc fd43 683d 09d9 83bd c88d e9bd
00000010: 949c 963c 10a7 5e3d 359d 63bd 8d7f b73d
00000020: 9dfc b4bc 881c 603d 0e8a ed3b 7087 453b
00000030: 6075 bd3d 656b 023b 3f5f 89bc be8a 433e
00000040: 7559 523d c5f2 a0bb e753 173e a2ec 4abd
00000050: c80b a03d d4cc 45bd 5542 113d 5654 0b3e
00000060: 4c1b 1dbe 07a7 a43d 868b c53c 4034 a8ba
00000070: 2b85 183a f63c 78bc 66da 3a3c fafd cb3d
00000080: a336 a33d 9bf6 013e fce9 1abe 9bb1 6bbc
00000090: 63a3 1bbe ee9e dfbd 2b13 d1bc 6c82 0a3d
000000a0: e466 39bd 95d4 b33d e1de af3d e8fe 5e3c
000000b0: eba7 703d 00a6 e2bd f926 813b 4074 cf3c
000000c0: d1f7 4d3d 6e5a d5bc 860e 3f3c ddc8 17be
000000d0: 3fc6 163d 9e47 a6bb 301e ae3d 7d50 a23a
000000e0: 7138 073d 8e46 c4bd f449 723c 2b6c b63c
000000f0: 64d9 60bc ccb9 133e 52e9 6c3d 7a60 07be
00000100: c897 debd ac8f 1fbd 3e2f 09be f1e6 bbbd
00000110: 4975 d23c 7465 dd3c ba1b 533c 5d24 03be
00000120: 1f01 c43e 39ac debe f338 fd3e bb48 2fbd
00000130: 9c69 f1bd c6f2 51bf f1dd 96bc f870 453c
00000140: ebc2 7bbe 0258 243d 8d02 efbe e341 ce3e
00000150: 2f67 1bbe 11b9 b9bb 625b 4fbe 8029 4b3d
00000160: faf5 77be 025c 23be 7170 8dbe a93c afbe
00000170: 7b7c 85be 1d96 da3e ac23 7d3e 3074 8dbe
00000180: 385d 443e fe9d 46bf 3276 16bf 87d5 493f
00000190: 4e97 203d 9e77 9b3e b16e b13e 2ccb 5ebe
000001a0: f4e6 88be de7f 6e3e 9daf ddbd 85cb 85be
000001b0: af09 883e 8406 8b3e 08cc 853f 2a71 45be
000001c0: 8528 6abe 96be 0cbd 5351 45bf 097b 2bbe
000001d0: 73b6 f0bd 4dd3 e53e 183e 763e 5d7c dabe
000001e0: 9b91 a53c 520e 79be 07bc 20bd 1a6f b4bd
000001f0: c377 01bf e5ca 39bf 8840 3ebe afe5 e2bd
00000200: b03d 62bd e91c d6be b68b 213f 3158 033f
00000210: a4f2 2a3f 4b83 29be 467e 4a3f 895a 2e3e
00000220: 0467 063f 30fd 923b 4c59 c0bc a234 1fbf
00000230: 0e69 9cbe 0ac6 d2bd dda9 adbd befa 87bf
00000240: 6297 483e e90e 22be b70e babd cdbd dd3e
00000250: 53e9 b2be a94b 223d c696 4dbe da13 27be
00000260: 0644 3dbe ffc4 223e a835 ecbe 1344 f03c
00000270: eeea 20bf 04a8 11be e48c 763e c9ce f6be
00000280: 3206 30be 32bc 9d3e e60d 1dbd c597 d4bd
00000290: 1730 143f 2606 b53e 111e 94be aba0 153e
000002a0: 26a1 6c3e ca31 e83e f904 25bf 0935 b13e
000002b0: 1781 743e 7a4b ce3e ecca bc3e 266b acbe
000002c0: 2071 d4be 1868 a9be 2c58 b63e 73e9 043d
000002d0: 6f10 a03e f148 023e a8fa 253b cf27 9ebe
000002e0: 8cb7 4c3e 7291 963d 8cf5 b43e 211f b03e
000002f0: d1a9 f13e 61c8 2e3c a386 153f 981b 9bbe
00000300: b7e1 e33d 3e28 ee3d 062e 2d3e fd37 1e3e
00000310: eeef 20bf 71d5 163d 5bc8 09be dc17 05bc
00000320: f4c0 12bf f2fb 94be 4392 85bc 2412 553e
00000330: 0730 85be caa7 8ebd 1216 e3bd d057 b93d
00000340: 5402 583e fa12 0a3c 45b8 053e 5237 4cbe
00000350: 670a d4be 82e4 0c3d 23e0 983d d58a b23e
00000360: 40b2 0dbe 9c50 b0be c449 c73e ca7c bd3d
00000370: f17f 9e3d 000c 8c3e afa5 a03e 4031 0e3e
00000380: a087 05be e3f7 e03d 5728 063e f3df 613c
00000390: 6aa1 8f3e b05e a1bc c943 af3e e760 ecbd
000003a0: d8e9 31be f3b9 0e3e 04b0 583e bb79 1e3d
000003b0: 31d2 1cbd becc 923e 23b5 813d db59 8b3b
000003c0: d3d5 12bc 8162 adbe a099 ae3e 1a21 513e
000003d0: f80a e2bd b166 3d3d cb20 b23d 430f 8bbd
000003e0: d538 babd e222 c83c dd3f 703d 25c6 2ebe
000003f0: 8b3d 10bd 089a 00be 0e0a bcbe 7b8b 953e
-0.008289134 0.056705464 -0.064378805 -0.11403996 0.01838521 0.054358542 -0.055569846 0.08959875
-0.022093112 0.05471471 0.0072491234 0.0030140541 0.09250903 0.0019900438 -0.01676905 0.19095895
0.051354844 -0.004911753 0.147781 -0.049542077 0.07814747 -0.048291042 0.03546365 0.1360639
-0.15342444 0.080396704 0.024114382 -0.0012832955 0.00058181834 -0.015151253 0.011404609 0.099605516
0.079694055 0.12691729 -0.1512832 -0.014385606 -0.15199046 -0.10918985 -0.025521835 0.033815786
-0.04526414 0.08780781 0.08587433 0.013610579 0.05875389 -0.11066818 0.0039414135 0.025323987
0.050285164 -0.026044097 0.0116611775 -0.14822717 0.036810156 -0.0050744554 0.085018516 0.0012383607
0.03301281 -0.0958377 0.01478814 0.022268375 -0.013723705 0.14426345 0.0578397 -0.13220397
-0.10868794 -0.038955376 -0.13396928 -0.09174908 0.025690692 0.027025916 0.0128850285 -0.1280684
0.38282105 -0.4349077 0.4945751 -0.04279397 -0.117877215 -0.8201107 -0.018416377 0.01205086
-0.24586074 0.040122993 -0.46681634 0.40284643 -0.1517608 -0.0056678136 -0.20249704 0.049600124
-0.24214926 -0.15953067 -0.27624848 -0.34225968 -0.26071534 0.42692652 0.24720639 -0.27627707
0.19176185 -0.77584827 -0.587741 0.7884144 0.039206795 0.30364698 0.34654763 -0.21757191
-0.26738703 0.23290965 -0.10824511 -0.26131836 0.26569888 0.2715341 1.045289 -0.1928145
-0.2286702 -0.034361444 -0.77077216 -0.16746153 -0.117535494 0.44887772 0.24047124 -0.42673007
0.020211032 -0.24321869 -0.039241817 -0.088102534 -0.50573367 -0.7257522 -0.18579304 -0.11078965
-0.05523461 -0.41818932 0.63103807 0.51306444 0.6677649 -0.1655399 0.7909893 0.17026724
0.5250094 0.0044857487 -0.02348008 -0.62189686 -0.305489 -0.10291679 -0.084796645 -1.0623395
0.19588998 -0.15826 -0.09084838 0.4330887 -0.34943637 0.039622936 -0.20077047 -0.16316167
-0.1848298 0.1589546 -0.46134686 0.029329335 -0.62858474 -0.14224249 0.24077183 -0.4820464
-0.17189863 0.30807644 -0.038343333 -0.1038051 0.5788588 0.35356253 -0.2892919 0.14612071
0.23108348 0.45350486 -0.6446071 0.34610775 0.23877369 0.4029196 0.36873567 -0.33675498
-0.41492558 -0.3308723 0.35614145 0.032449197 0.31262538 0.12723137 0.0025326405 -0.30889747
0.19991893 0.0735196 0.35343587 0.3439875 0.47199872 0.010667891 0.58408564 -0.3029449
0.11127036 0.11628769 0.16912088 0.15451045 -0.62866104 0.036824647 -0.13455336 -0.008123364
-0.57325673 -0.2909847 -0.016305095 0.20807701 -0.26013204 -0.06965597 -0.11088194 0.09049952
0.21094638 0.008427376 0.13058574 -0.19942978 -0.41414186 0.03439761 0.07464626 0.34871545
-0.13837528 -0.344365 0.38923466 0.09252317 0.07739247 0.27352905 0.31376407 0.13885975
-0.13040018 0.10984781 0.13101326 0.013786304 0.28052837 -0.01969847 0.34231403 -0.1154192
-0.1737436 0.13938121 0.21160895 0.03869031 -0.03828639 0.2867183 0.06333377 0.004252655
-0.0089621125 -0.33864215 0.34101582 0.20422783 -0.110372484 0.046240512 0.08697661 -0.0679002
-0.09092871 0.024430696 0.058654655 -0.17067774 -0.035214942 -0.12558758 -0.3672642 0.29207978

fc_comb.bias f4 [32]
00000000: c7cc 3b3d 7927 683e 3360 923e d735 843d
00000010: c730 773e c7d6 0abe 8081 b5bd 4a85 63bd
00000020: 6339 e13e a209 5d3c 2c40 9c3e 2987 9bbc
00000030: 04f1 9fbc cc47 bbbc 5278 c0bd 0dae 45be
00000040: 07e7 63bd b4fc cdbc 290f 433d d9cd eb3e
00000050: 0e9d c9bd 3131 d43d 4553 82be d5df 603d
00000060: 3e26 10be 3742 d2bd 4ea8 4e3e 4e4f 7cbe
00000070: 9c0b 37bc a189 4d3d ad31 4b3e 22bc 6fbe
0.045849588 0.22671308 0.2858902 0.06455582 0.24139701 -0.13558494 -0.08862591 -0.055547036
0.43989095 0.013491066 0.3051771 -0.018985348 -0.019524105 -0.022861384 -0.09397949 -0.19304676
-0.055640247 -0.025144912 0.04762188 0.46055487 -0.09844409 0.10360945 -0.25454155 0.054900963
-0.14077088 -0.10266536 0.2018139 -0.24639627 -0.0111722015 0.05018008 0.19843169 -0.2341161

fc_out.weight f4 [6, 32]
00000000: e3d8 173e 50dc 993d 56e1 04bf e2a7 ebbe
00000010: afa1 8fbe 04cb c7bd 6cb9 073b 5556 e8bf
00000020: 9f1b 88bf 234d f0be da46 e9bf 25f1 0dbe
00000030: 4590 91c0 dd59 1cc0 38bf e8be 7fda 01bf
00000040: 1b0b 86bf 9797 d13d c755 e3be 6693 58bf
00000050: 1d8e 0bbf 1a64 4d3d 343d 2dbe b643 2a3d
00000060: 67cb 93be cb70 2dbe f79d 5abf 9ed4 0fbe
00000070: e7b1 92be 1f8e 5fbe c6e1 5bbf 9ef5 0dbf
00000080: 4178 013d 3f95 163f d1bf a33c 4657 283e
00000090: 48d3 d4bf d15d 5a3e d470 15be 835a adbd
000000a0: a968 c73e c640 4ebe 6bb2 5b3f 86ff bc3e
000000b0: faf6 163f 6686 6bbf fccc ac3d 1e92 10bf
000000c0: 4acd 9bbe 3780 ed3d fd82 1fbf 4827 6c3f
000000d0: 6666 7dbe cbe4 993e 38e7 a03e fe12 8cbc
000000e0: b864 b73e 3ae6 2f3f 25ce 04c0 019a 2dbf
000000f0: bd4d 863e 988d 033f e4eb 50be 8535 a0be
00000100: 08e5 d43d a5c2 0f3e 292b ac3e 68f6 db3c
00000110: 2e55 2c3f a484 1ec0 54df 8ebc 5da2 843e
00000120: a284 4a3b 030f ad3e 3212 42bf 699f 093e
00000130: bfe9 d1bd 2f3d 61be 31de c53e 40e9 c23d
00000140: fd2d ddbe 33a4 d83d ce22 963e 7901 15be
00000150: 346e 113f 97e6 01c0 abe7 29c0 42f8 fabb
00000160: e511 f0bc ea45 45bf fdd0 123f f571 e9be
00000170: ccd4 32bd cfc8 463d cdbb 413e 1b23 dc3e
00000180: 9f02 7bbd dcde 7cbd 3170 30bf 2812 3a3e
00000190: f707 35bf e606 1f3c 12a3 81bb e72f ecbe
000001a0: 13e9 a6be c75e 673e e32e 2ec0 17e4 733d
000001b0: cc4b 943d 66c1 e33e 588f 6b3e bd7c e43e
000001c0: 6649 963e 1e9a 113e ef01 903e 2249 91c0
000001d0: 4bd2 e83b dfdc bbbf e830 2e3e 9af6 a2bd
000001e0: 699f 3e3e 722a 863e 2cd4 1e3f 8e1e c13e
000001f0: ad8b 0abf bf58 c3bc 29b1 11bf bcc2 193e
00000200: dce1 a4bd 533b 85c0 a7ee 163e 9f23 f1be
00000210: f2d9 5a3f eb7c c5bd 969a dd3d b954 d13e
00000220: 9d48 10bf 8f97 143e b38f df3e b03b 07c0
00000230: 1f92 a13d f5c0 25bf 988c 26bf 7f56 ba3e
00000240: 3f74 f13e f380 cbbd bea4 183f 1b51 50be
00000250: 70c5 0f3e f71a 0d3f f2fc cabd c70d fcbd
00000260: ebc4 1b3e c4bb 3bbf b29d 9f3e d3a6 9fbd
00000270: 437c f13e cf57 673e 0991 c73e 7d34 823e
00000280: 122d 1e3d a593 b8c0 7e04 8f3e 12f2 813d
00000290: 05d1 1040 24cf 153f e6d9 88bd a564 f1be
000002a0: 9c74 803e 744f eebe 34ca c3c0 7c03 f23d
000002b0: db1b 43bf 6b42 233f f14e 70bb 8176 c6bd
000002c0: 1daf be3d dd98 1e3d 7fb8 443e 66a5 8bbd
000002d0: 9825 5a3d 412f e03f cfbe 8e3e a606 693d
000002e0: cb66 4abf 4d91 d0bd 5479 a73e e124 db3e
000002f0: 7918 363d 2c8c efbe 2bac c03e 9720 3ebf
0.1482883 0.075127244 -0.51906335 -0.46026522 -0.28053042 -0.09755519 0.0020709885 -1.8151346
-1.0633429 -0.4693385 -1.8224747 -0.1386152 -4.548861 -2.4429848 -0.45458388 -0.50724024
-1.0472139 0.102339916 -0.4440138 -0.8459991 -0.5451372 0.050144292 -0.16917878 0.04156848
-0.2886612 -0.16937558 -0.85397285 -0.14045951 -0.28651354 -0.21831559 -0.8589138 -0.5545291
0.031608824 0.5882148 0.019988926 0.16439542 -1.6626978 0.2132485 -0.14593822 -0.08464529
0.38947037 -0.20141897 0.8581912 0.369137 0.58970606 -0.9200195 0.08437535 -0.5647296
-0.3043006 0.11596721 -0.6230925 0.9224744 -0.24746093 0.30057368 0.31426406 -0.0170989
0.3581903 0.6871067 -2.075082 -0.67813116 0.26231185 0.5138793 -0.20402485 -0.31290832
0.10395247 0.14039095 0.3362668 0.026850894 0.67317474 -2.4768457 -0.017440476 0.25905123
0.003090181 0.33800516 -0.75809014 0.13439716 -0.10249662 -0.21995996 0.3864608 0.09517145
-0.4319915 0.105781935 0.2932343 -0.14551343 0.5680878 -2.029699 -2.654765 -0.007658989
-0.029305408 -0.77059805 0.5735014 -0.45594755 -0.04365997 0.04853135 0.18919297 0.42995533
-0.061281797 -0.061735973 -0.6892119 0.18170989 -0.7071528 0.009706235 -0.003956207 -0.46130297
-0.32599697 0.22594748 -2.7216117 0.059543695 0.072410196 0.4448349 0.230039 0.44626418
0.29352874 0.14218947 0.28126475 -4.5401773 0.007105147 -1.467678 0.17010844 -0.07957192
0.18615498 0.26204258 0.620425 0.37718624 -0.5411938 -0.023846028 -0.5691095 0.15015692
-0.08050892 -4.1634917 0.14739476 -0.4709749 0.8548881 -0.09642967 0.108205006 0.4088495
-0.563608 0.1451094 0.4366432 -2.113018 0.078891985 -0.64747554 -0.6505828 0.36394116
0.47159 -0.099367045 0.59626377 -0.2034344 0.1404016 0.5511927 -0.09911527 -0.12307315
0.15211837 -0.7333338 0.31175 -0.07795491 0.47165117 0.2259209 0.3897784 0.2543067
0.0386172 -5.768023 0.27933115 0.063449994 2.2627575 0.58519197 -0.06682186 -0.47147098
0.25088966 -0.46544993 -6.118433 0.11817071 -0.7621438 0.6377322 -0.0036668146 -0.096905716
0.09310744 0.03872 0.19211005 -0.068186566 0.05325851 1.7514421 0.2787995 0.056891106
-0.790631 -0.10183964 0.32709754 0.42801574 0.044456933 -0.4678663 0.37631354 -0.7426848

fc_out.bias f4 [6]
00000000: 8830 0fbd dc49 88bd 4762 aebc fc18 13be
00000010: 0105 e93d 032d 593e
-0.034958392 -0.066547126 -0.021287097 -0.14365 0.113779075 0.21208577
