grporange/models/classifier/weights/vip_movement_predictor.pth (torch, 91594 bytes, 13 tensors)

move_embedding.weight f4 [6, 8]
0	0xbf46c883	-0.77649707
1	0xbf4ddd0b	-0.8041541
2	0xbfe426fb	-1.7824396
3	0x3f717324	0.94316316
4	0x3f9278d8	1.1443129
5	0xc012f694	-2.2963
6	0x3e18b486	0.14912614
7	0x3e730d9b	0.23735659
8	0x3f2120a1	0.6294041
9	0x3e3f1e1c	0.1866383
10	0x3f75b937	0.9598574
11	0x3f8682c3	1.0508655
12	0xbf0770bf	-0.5290641
13	0xbca96f43	-0.020682937
14	0x400de0a6	2.2168365
15	0x3f4d3cad	0.8017071
16	0xbfaca63b	-1.348823
17	0xbfa0b686	-1.2555702
18	0xbf0fe9e4	-0.56216264
19	0xbfa617b8	-1.2975988
20	0x3ea1d7d5	0.3160998
21	0x3d955d4b	0.07293185
22	0x3f315dc1	0.6928368
23	0x3e9b9778	0.30389
24	0x403c1646	2.9388595
25	0x3dcef71a	0.10105725
26	0xbf946d5c	-1.1595874
27	0xbf8ce165	-1.1006285
28	0xbdb24e90	-0.08706391
29	0xbf1c1860	-0.60974693
30	0xbff25927	-1.8933457
31	0xbfc9187c	-1.5710597
32	0xbfb1fd29	-1.3905383
33	0x3ef65dfb	0.48118576
34	0x3f12f789	0.5740896
35	0x3d074855	0.033027966
36	0x4016c7d3	2.3559463
37	0x3f9490f4	1.1606736
38	0x3e1780b0	0.14795184
39	0xbd5100df	-0.05102622
40	0x3f901827	1.1257371
41	0xbf167efc	-0.5878751
42	0xbf5f0144	-0.87111306
43	0xbe449ca8	-0.19200385
44	0x3ef95e82	0.48704916
45	0xbe32a7be	-0.17446801
46	0xc039c537	-2.902662
47	0x3fd10afd	1.6331478

lstm.weight_ih_l0 f4 [256, 8]
0	0xbea3620b	-0.31910738
1	0xbeb2b21a	-0.34901506
2	0xbe282aac	-0.16422528
3	0xbc9bb8e1	-0.019009056
4	0x3dd1147b	0.102089845
5	0xbe1cd0ae	-0.1531398
6	0x3e1ff232	0.15619734
7	0x3dfe462b	0.12415727
8	0x3e178a8c	0.14798945
9	0xbdbc49fc	-0.09193799
10	0xbd9e0d31	-0.0771736
11	0x3c2b6be4	0.010462735
12	0xbd922980	-0.07136822
13	0xbc61f49c	-0.01379123
14	0x3dff39c0	0.12462187
15	0x3e371cb9	0.1788205
16	0xbd8b0902	-0.067888275
17	0xbe8e6750	-0.27813196
18	0xbdbdb6ce	-0.09263383
19	0xbe301310	-0.17194772
20	0x3e8cb24e	0.27479786
21	0x3d9fe8d1	0.07808078
22	0x3c519f37	0.012794307
23	0x3e542f0e	0.20721075
24	0xbcfc1e4e	-0.03077617
25	0xbe1c4a43	-0.15262704
26	0xbe9e161a	-0.30876237
27	0xbe9d93f5	-0.30776945
28	0x3d8279ec	0.06370911
29	0xbe595dce	-0.2122719
30	0xbe979765	-0.29607692
31	0xbcd062cb	-0.025437733
32	0xbe817306	-0.25283068
33	0xbdebec41	-0.11519671
34	0x3e1c01f9	0.15235128
35	0x3e16a0c5	0.14709766
36	0x3de87693	0.11350741
37	0x3d9dcc06	0.0770493
38	0x3ea5bb3b	0.32369408
39	0xbdbe34d2	-0.092874184
40	0xbe43216f	-0.19055723
41	0xbe8ad0cc	-0.27112424
42	0xbf0b23a4	-0.5435126
43	0xbf32d8ce	-0.6986207
44	0x3f34797b	0.70497864
45	0x3e79eae8	0.24406016
46	0xbedda407	-0.43289205
47	0xbcc43f18	-0.023955867
48	0xbd1d947a	-0.038471676
49	0xbd958fb6	-0.07302801
50	0xbda1f8da	-0.07908793
51	0x3ebba39f	0.3664827
52	0xbe0be34c	-0.13660926
53	0xbf088bfc	-0.533386
54	0x3ea68081	0.32519916
55	0xbceddeb2	-0.029036853
56	0x3e27d8e4	0.16391331
57	0xbe9d9f79	-0.3078573
58	0xbe25ff1c	-0.16210598
59	0xbe6abfea	-0.22924772
60	0xbe7ce011	-0.2469485
61	0xbebbe6f4	-0.3669964
62	0x3cee089f	0.029056845
63	0x3e404e44	0.18779856
64	0xbec804c8	-0.39066148
65	0xbf1c55bc	-0.6106832
66	0xbed6898c	-0.41901815
67	0xbecee391	-0.40407994
68	0x3f716b6a	0.94304526
69	0x3d03aa69	0.032144938
70	0xbe9b1996	-0.30292958
71	0xbda2fc7d	-0.079583146
72	0x3e77359b	0.24141543
73	0xbcfe4b41	-0.031041743
74	0xbdf7c7d6	-0.120986626
75	0xbe0f1f9f	-0.13976906
76	0x3de1acb4	0.11019269
77	0xbe17175c	-0.14755005
78	0x3e031770	0.1280191
79	0x3d9597b8	0.07304329
80	0x3dd56338	0.10419315
81	0x3e12dd1d	0.1434216
82	0xbd88b791	-0.066756375
83	0x3e0f373a	0.13985911
84	0x3d9b1f86	0.07574372
85	0xbd5ab9b7	-0.053399768
86	0x3c861830	0.016368955
87	0xbddab0c0	-0.10678244
88	0x3d8a96d6	0.06767051
89	0x3bda7157	0.006666343
90	0xbd8dd731	-0.0692581
91	0x3dc63006	0.096771285
92	0x3e328a5a	0.1743559
93	0x3da898bb	0.08232256
94	0xbd070540	-0.03296399
95	0xbdb65e91	-0.08904756
96	0x3e71be8c	0.23607844
97	0xbd90fe20	-0.070797205
98	0xbe1fd0e6	-0.15607032
99	0xbe455fbb	-0.192748
100	0xbbcac308	-0.0061878003
101	0xbe694690	-0.22780824
102	0xbdd382c0	-0.10327673
103	0xbe66b1f5	-0.22528823
104	0xbe6a8019	-0.22900428
105	0xbe97a34e	-0.2961678
106	0xbd129616	-0.035787664
107	0xbd00d5f1	-0.03145403
108	0x3df882d7	0.12134331
109	0x3c9949c5	0.018711934
110	0xbd1cad64	-0.038251296
111	0x3ebfa8b4	0.37433398
112	0x3b20270b	0.0024437334
113	0x3e779ec2	0.24181655
114	0x3e97c656	0.29643506
115	0x3e984cb6	0.29746026
116	0x3e14cb18	0.14530599
117	0x3e61c366	0.22047195
118	0x3ba0caa1	0.0049069677
119	0x3e208836	0.1567696
120	0xbe8c3034	-0.27380526
121	0xbef3fa2d	-0.47651806
122	0xbf4647ad	-0.7745312
123	0xbf7e7852	-0.99402344
124	0x3f862930	1.048132
125	0x3eba9460	0.36441326
126	0xbf26d5c9	-0.6516996
127	0xbeed3584	-0.46329892
128	0xbccdfc9f	-0.025144873
129	0xbe6d3306	-0.23163995
130	0x3d572fca	0.05253581
131	0xbde1b7b9	-0.110213704
132	0x3df52589	0.1197005
133	0x3e4ca874	0.19986135
134	0x3e107440	0.14106846
135	0x3e8052cf	0.25063178
136	0xbe73816a	-0.23779836
137	0xbecd7660	-0.40129375
138	0xbde45651	-0.11149276
139	0x3c3d529a	0.011555338
140	0x3eb0988b	0.3449138
141	0x3e263201	0.16230012
142	0xbd4dfdca	-0.05029086
143	0x3ea64482	0.32474142
144	0xbde77e9e	-0.11303447
145	0xbdac2bbd	-0.0840678
146	0x3dbc1af2	0.09184827
147	0xbd069fb8	-0.032867163
148	0x3eb6f82d	0.35736218
149	0x3ed4db4a	0.41573554
150	0xbe13bb78	-0.14426982
151	0x3e8d8dfd	0.2764739
152	0xbd870ccf	-0.0659424
153	0x3c0b9a79	0.008520716
154	0x3ddbb390	0.10727608
155	0x3e4eca81	0.20194437
156	0x3e231ab5	0.15928157
157	0x3b2da1ac	0.002649407
158	0x3d59f25f	0.05320966
159	0x3ec680d3	0.3877016
160	0xbd30e244	-0.043184534
161	0xbe3db71b	-0.1852688
162	0xbe4410b9	-0.19147004
163	0x3cbba246	0.022904526
164	0x3ec3d540	0.38248634
165	0xbe340d14	-0.17583114
166	0xbdbc694c	-0.09199771
167	0x3e6bad2b	0.23015277
168	0x3ef5191e	0.47870725
169	0xbd769897	-0.060204115
170	0xbe3f1027	-0.18658505
171	0x3e299411	0.16560389
172	0xbdcfa54a	-0.10138948
173	0xbec1f705	-0.37883773
174	0xbe29ecf0	-0.1659429
175	0x3db09033	0.08621254
176	0xbd20a714	-0.039221838
177	0xbe04e519	-0.12978019
178	0x3e412eae	0.18865463
179	0xbde2eb70	-0.110800624
180	0x3daca8ff	0.08430671
181	0x3e8adf55	0.27123514
182	0x3d20ce01	0.03925896
183	0x3e2033e6	0.15644798
184	0x3ed123d9	0.40847662
185	0xbece5bc4	-0.40304387
186	0xbed6d2e9	-0.41957787
187	0xbe9735cc	-0.2953323
188	0xbeb241de	-0.34815878
189	0xbf0c1d74	-0.5473244
190	0xbe88501a	-0.26623613
191	0x3c8abfea	0.016937215
192	0xbe5ce34f	-0.21571086
193	0xbb84342d	-0.00403454
194	0xbcd62056	-0.026138466
195	0xbddbc7ad	-0.107314445
196	0x3e63bf7a	0.22241011
197	0x3e6af3aa	0.22944513
198	0x3c9327b4	0.017963268
199	0x3e0aaaaa	0.13541666
200	0xbcb12aee	-0.021626916
201	0x3cbc1255	0.02295796
202	0x3dec432d	0.1153625
203	0x3e3cf15a	0.18451443
204	0x3e58c2ea	0.21168104
205	0x3e19d2f3	0.15021877
206	0x3d26db95	0.040736753
207	0xbd45ca8e	-0.048288874
208	0x3de22a32	0.11043204
209	0x3db8c862	0.09022595
210	0xbd3a66c5	-0.045508165
211	0xbcaa3a68	-0.020779803
212	0x3c8281f6	0.01593111
213	0xbe095ffa	-0.13415518
214	0xbded30e0	-0.11581588
215	0x3e47fe56	0.19530615
216	0x3c8ce02a	0.017196734
217	0x3dc12690	0.09431183
218	0x3d99daa7	0.07512408
219	0x3e0fc1c6	0.14038762
220	0x3de5c72e	0.11219631
221	0xbc803bf6	-0.015653592
222	0x3e59ca3e	0.21268556
223	0x3d90de0b	0.07073601
224	0xbd49b79a	-0.04924736
225	0xbe501a99	-0.20322646
226	0x3d67d47f	0.056599136
227	0xbe1ec355	-0.15504201
228	0x3de9220d	0.11383448
229	0x3d6adb25	0.0573379
230	0xbcae4825	-0.021274636
231	0x3db8d240	0.09024477
232	0x3d9d4bad	0.0768045
233	0xbe9491a1	-0.29017356
234	0xbe42a4d4	-0.1900819
235	0x3d52da19	0.051477525
236	0x3d2e1588	0.042501003
237	0xbea69219	-0.3253334
238	0x3e5a720e	0.21332571
239	0x3ea1b553	0.31583652
240	0x3e1f02e4	0.15528446
241	0x3d02a1d5	0.031892616
242	0x3b4b6cf9	0.0031040295
243	0xbe8af3ce	-0.27139133
244	0x3eb31984	0.34980404
245	0x3eae871c	0.34087455
246	0xbe6f2537	-0.2335404
247	0xbc537069	-0.012905219
248	0xbd02a023	-0.031891
249	0x3e1cedf7	0.15325151
250	0x3e53e41c	0.20692486
251	0x3e821e63	0.25413808
252	0x3eebfd5e	0.4609174
253	0x3dc7953c	0.09745261
254	0xba921699	-0.0011145651
255	0x3ecfc2cd	0.4057831

lstm.weight_hh_l0 f4 [256, 64]
0	0x3e6aa854	0.22915775
1	0xbddb6e1e	-0.107143626
2	0xbcb17972	-0.021664355
3	0x3defc75f	0.11707949
4	0xbd49a6c2	-0.0492313
5	0xbef80930	-0.4844451
6	0x3c4e4845	0.012590473
7	0xbeaddde5	-0.33958355
8	0xbe9282ca	-0.2861541
9	0xbe7ed770	-0.2488687
10	0xbe2ecbd2	-0.17069939
11	0xbe09c0b6	-0.1345242
12	0x3df38e74	0.11892405
13	0x3eeade37	0.4587266
14	0xbeff1385	-0.4981958
15	0xbf1fe6d2	-0.6246158
16	0xbe05c103	-0.1306191
17	0x3e9e600b	0.3093265
18	0xbe9440c4	-0.28955662
19	0x3c63e1fb	0.013908858
20	0xbea2622a	-0.31715518
21	0x3e96c43b	0.29446587
22	0x3ed9b133	0.42518005
23	0x3ed22520	0.4104395
24	0x3dd06a35	0.101765074
25	0xbf39df13	-0.7260601
26	0x3e7e9f81	0.24865533
27	0xbec9a32b	-0.393823
28	0xbecd1ec9	-0.4006255
29	0x3cfeb936	0.031094175
30	0xbe0c0a04	-0.13675696
31	0x3e8cc7b4	0.2749611
32	0x3dc6e51a	0.097116664
33	0xbebf077c	-0.37310398
34	0x3e6ebdab	0.2331454
35	0x3ee95b31	0.45577386
36	0x3ed794c1	0.42105678
37	0xbec33c8c	-0.3813213
38	0x3ea93e1a	0.33055192
39	0x3f4c2364	0.797415
40	0xbea3afdf	-0.31970116
41	0xbebb8f62	-0.3663283
42	0x3e3bc753	0.18337755
43	0xbe9f8521	-0.31156257
44	0xbda8b7d1	-0.08238185
45	0x3e70d385	0.23518188
46	0x3e6731ca	0.22577587
47	0xbdd49d71	-0.10381592
48	0xbe20a8fe	-0.15689465
49	0xbe83fdfc	-0.25779712
50	0xbf266a58	-0.6500602
51	0xbf07cb31	-0.5304442
52	0xbe847c88	-0.2587626
53	0xbc8cbe2e	-0.017180528
54	0x3db9049b	0.090340815
55	0x3e98916a	0.29798442
56	0x3f0b7c31	0.54486376
57	0xbda5875f	-0.080824606
58	0x3dc1845c	0.09449074
59	0xbf215add	-0.6302927
60	0xbe0e837d	-0.13917346
61	0x3e0ae6fa	0.13564673
62	0x3e9ddc0c	0.30831945
63	0xbdbe65d7	-0.09296768
64	0xbcdef5e6	-0.027216863
65	0xbdff19f7	-0.12456124
66	0x3eb29c80	0.34885025
67	0x3de07ed2	0.10961689
68	0x3d3a9a77	0.045557465
69	0x3e11c2fd	0.14234538
70	0x3e8083a5	0.25100437
71	0xbd18bcd6	-0.037289463
72	0x3e516d69	0.20451893
73	0x3d21e41d	0.039524186
74	0x3e60baa1	0.21946193
75	0xbc5d6a77	-0.013514153
76	0x3ddca863	0.10774305
77	0xbda6a436	-0.081367895
78	0xbd9cc720	-0.076551676
79	0x3e65d32c	0.22443837
80	0x3cdc8ec9	0.026923554
81	0xbdd14906	-0.10219006
82	0xbe077208	-0.13227093
83	0xbd6a9bf1	-0.057277624
84	0xbe0092d7	-0.12556015
85	0xbda88ddc	-0.082301825
86	0x3dd43a99	0.10362739
87	0xbd7cadf0	-0.061689317
88	0xbd63a1c4	-0.055574194
89	0xbe8da45c	-0.2766446
90	0x3dafa1be	0.08575772
91	0xbf068448	-0.52545595
92	0xbdc096a7	-0.09403735
93	0xbc05a624	-0.008157287
94	0x3ebf84cb	0.37406
95	0x3d95bc39	0.07311291
96	0x3e80787a	0.25091916
97	0xbd30a37d	-0.043124665
98	0x3b467731	0.0030283446
99	0x3c6cb217	0.014446757
100	0x3e88ce8c	0.26720083
101	0xbde6ba38	-0.11265987
102	0x3c1bfc8b	0.00952066
103	0x3e2abb4b	0.16673009
104	0xbe1d63d6	-0.15370116
105	0xbe48564f	-0.19564174
106	0xbe42415d	-0.18970247
107	0xbdf1e347	-0.11810928
108	0x3e2cb07c	0.16864198
109	0x3dc7bb9c	0.097525805
110	0x3e7d0b60	0.2471137
111	0x3e2e202b	0.17004459
112	0x3e153248	0.14569962
113	0xbe1159e6	-0.1419445
114	0xbd0acd01	-0.033886913
115	0x3d3e4a86	0.04645779
116	0x3d299790	0.041404307
117	0xbe0ca078	-0.13733089
118	0xbd93e143	-0.072207
119	0x3e900060	0.28125286
120	0x3d58560a	0.05281643
121	0xbc674359	-0.014115178
122	0x3dbdf33f	0.09274911
123	0xbe0a2a4f	-0.13492702
124	0x3b90ee89	0.004422967
125	0x3ead41ec	0.33839357
126	0xbe02a26f	-0.12757276
127	0xbcb9ac78	-0.022665247
128	0xbec138c0	-0.3773861
129	0xbeeab5a2	-0.458417
130	0x3eb7e887	0.35919592
131	0x3e2eef10	0.17083383
132	0x3e9808dd	0.29694262
133	0xbe97eea2	-0.2967425
134	0x3ecbf785	0.3983728
135	0x3c0a7a20	0.008451968
136	0x3dab8fdc	0.083770484
137	0xbd719db0	-0.058988273
138	0x3f0bbe40	0.54587173
139	0x3e804b0c	0.25057256
140	0x3e0337ca	0.1281425
141	0xbf0fe6bc	-0.5621145
142	0xbf1ba0b4	-0.6079209
143	0xbe0aec44	-0.1356669
144	0x3e8d4124	0.2758876
145	0x3d879962	0.06621052
146	0xbd593b44	-0.053035036
147	0xbe694cb1	-0.22783162
148	0xbe929115	-0.28626314
149	0xbcd2e4ef	-0.02574393
150	0x3ed504d7	0.41605255
151	0x3e81dd2a	0.25364047
152	0xbe7037ba	-0.23458758
153	0xbc1fa2f5	-0.009743442
154	0x3e6fd546	0.23421201
155	0x3dcc0ab0	0.09962976
156	0xbe047ab7	-0.12937437
157	0xbccb613d	-0.02482664
158	0x3e72ae65	0.23699339
159	0xbeb876de	-0.36028188
160	0xbde97a54	-0.11400285
161	0x3acbcd20	0.0015548803
162	0x3e071857	0.13192879
163	0x3e2a7344	0.16645533
164	0x3e4311c2	0.19049743
165	0x3cfd5353	0.030923521
166	0xbb81429c	-0.003944708
167	0xbdf15edb	-0.1178567
168	0xbe418b75	-0.18900855
169	0xbd02b9d2	-0.031915493
170	0x3ed09155	0.4073588
171	0xbd4c12b0	-0.04982251
172	0xbf1cdc8c	-0.6127403
173	0x3ea0ada9	0.31382492
174	0x3e25453c	0.16139692
175	0x3e296ad7	0.16544662
176	0x3e86f29f	0.2635698
177	0xbe1e6eed	-0.15472002
178	0xbe69af7a	-0.22820845
179	0xbe4b2c1c	-0.19841045
180	0x3e5d80ee	0.21631214
181	0xbe68a707	-0.22719966
182	0xbdab265d	-0.083569266
183	0x3dc292e0	0.095006704
184	0xbd3158f5	-0.043297727
185	0xbe807f09	-0.2509692
186	0xbef56c86	-0.4793436
187	0xbdbce009	-0.09222419
188	0xbed70e9d	-0.42003337
189	0xbeb0e196	-0.34547108
190	0xbe890574	-0.26761973
191	0xbe0221d0	-0.12708211
192	0x3d50351f	0.05083191
193	0xbdfd8d3b	-0.12380453
194	0x3e205300	0.15656662
195	0x3ede64f7	0.43436405
196	0x3df32103	0.11871531
197	0xbda159c4	-0.078784496
198	0x3e98cc73	0.29843482
199	0xbe544d95	-0.2073272
200	0x3ee45db3	0.44602737
201	0xbeede433	-0.46463165
202	0x3ea761e5	0.32691875
203	0x3e0fad61	0.14030983
204	0x3e9f254a	0.31083137
205	0xbda51fca	-0.08062704
206	0x3da7b93f	0.0818963
207	0x3e946c53	0.28988895
208	0x3e306a5f	0.17228077
209	0x3dab41ef	0.08362185
210	0xbe20ac3c	-0.15690702
211	0xbe2fc66a	-0.17165533
212	0xbd6a6243	-0.057222616
213	0x3ed2bcfe	0.41159815
214	0x3e07121d	0.13190503
215	0x3de4f197	0.11178892
216	0x3ceba009	0.028762834
217	0x3e52bc14	0.20579559
218	0x3ed5829a	0.41701204
219	0x3db8b3f3	0.090186976
220	0xbd891741	-0.066938885
221	0xbf22ace3	-0.63545054
222	0x3d85b498	0.06528586
223	0x3d487995	0.048944075
224	0x3e21985e	0.1578078
225	0x3d1cf3b6	0.03831836
226	0xbe532cba	-0.2062253
227	0xbe652053	-0.22375612
228	0x3e5147de	0.20437571
229	0xbdd4554e	-0.10367833
230	0xbea5f3a1	-0.32412437
231	0xbea1b0b9	-0.3158014
232	0xbe9eeba6	-0.3103916
233	0xbedebe67	-0.4350464
234	0x3d4cd150	0.050004303
235	0x3e324788	0.174101
236	0x3e45a375	0.19300635
237	0x3e692981	0.22769739
238	0x3d59224a	0.053011216
239	0x3e87e56e	0.26542228
240	0x3ebe44ef	0.37161967
241	0xbe1b7595	-0.15181573
242	0xbc41a10b	-0.011818181
243	0x3e15afbd	0.1461782
244	0x3db4eded	0.08834443
245	0xbecbb39a	-0.39785463
246	0x3dc06afa	0.09395404
247	0x3d7e9c48	0.06216076
248	0xbe5dbd19	-0.21654166
249	0xbe6739de	-0.22580668
250	0xbeea4347	-0.45754454
251	0xbe8700c7	-0.2636778
252	0x3d4e65c8	0.050390035
253	0xbd5eda05	-0.05440714
254	0xbf071222	-0.52762043
255	0xbe2b9e67	-0.16759644

lstm.bias_ih_l0 f4 [256]
0	0x3e0b36d9	0.13595141
1	0x3e5bfa60	0.21482229
2	0x3ebe5982	0.37177664
3	0x3e746f94	0.23870689
4	0x3e8a8252	0.27052552
5	0x3e08c6c1	0.13357069
6	0x3e40b662	0.18819574
7	0x3e306873	0.17227344
8	0x3dc94899	0.098283
9	0x3ed3f017	0.41394112
10	0x3e5dafa0	0.21649027
11	0x3e365bf5	0.17808516
12	0x3e279b1c	0.16367763
13	0x3ee80d30	0.4532256
14	0x3e21962a	0.1577994
15	0x3eb9244d	0.36160508
16	0x3e4cd0ae	0.2000148
17	0x3e52466a	0.20534673
18	0x3e6bf999	0.23044433
19	0x3e155c44	0.14585978
20	0x3eb90e88	0.361439
21	0x3dca4406	0.09876256
22	0x3db5877f	0.088637345
23	0x3ddaa08e	0.106751546
24	0x3e726e99	0.23675002
25	0x3ec790a9	0.38977554
26	0x3deb5823	0.1149142
27	0x3e7297a1	0.23690654
28	0x3e9aaff4	0.30212367
29	0x3ee463aa	0.44607288
30	0x3efe0a10	0.49617052
31	0x3f07b5b9	0.5301166
32	0x3eb26b1a	0.34847337
33	0x3eaead44	0.34116566
34	0x3eb5dc99	0.35519865
35	0x3d850a62	0.06496121
36	0x3dc97888	0.09837443
37	0x3ea5b289	0.32362774
38	0x3efdcf09	0.49572018
39	0x3e5cfa9a	0.21579972
40	0x3dd4d157	0.10391491
41	0x3e17e908	0.14834988
42	0x3ebeab86	0.37240237
43	0x3d851674	0.06498423
44	0x3e39b1f8	0.18134296
45	0x3e878207	0.2646639
46	0x3ecf3602	0.40470892
47	0x3e5af073	0.21380787
48	0x3dbf9f7e	0.093565926
49	0x3df791ac	0.120883316
50	0xbb4e362b	-0.0031465392
51	0x3e7a081b	0.24417154
52	0x3ec9218d	0.3928341
53	0x3e9c4647	0.30522367
54	0x3dc6bdfe	0.09704207
55	0x3e1c6b04	0.15275198
56	0x3e727851	0.2367871
57	0x3d49542c	0.04915254
58	0x3e9f3223	0.3109294
59	0x3e2568a4	0.16153198
60	0x3e657db7	0.22411238
61	0x3e356d50	0.1771748
62	0x3e1d91e1	0.1538768
63	0x3db28572	0.08716859
64	0x3da327fd	0.079666115
65	0x3db354e3	0.08756425
66	0x3d683651	0.056692425
67	0x3e998995	0.2998778
68	0x3d6d2399	0.057895277
69	0xbd793851	-0.060844723
70	0x3da993ea	0.082801655
71	0x3cae5a36	0.02128325
72	0xbe648836	-0.22317585
73	0x3e902ace	0.28157657
74	0x3d894227	0.06702071
75	0xbd4ae588	-0.049535304
76	0x3d818842	0.06324817
77	0x3eb51a34	0.35371554
78	0x3e00d8ad	0.12582655
79	0xbeb09a67	-0.344928
80	0xbae62066	-0.0017557263
81	0x398e98e1	0.00027198254
82	0xbd036650	-0.032079995
83	0x3a207940	0.0006121583
84	0x3d4e3dd0	0.050351918
85	0x3dcb1755	0.099165596
86	0x3e5dc57c	0.21657366
87	0xbcff5d9e	-0.03117257
88	0x3ddd8567	0.1081646
89	0x3e31ee80	0.17376137
90	0x3e8b77b0	0.27239752
91	0xbdb97749	-0.09055955
92	0x3ccf1fd9	0.02528374
93	0x3e4b0406	0.19825754
94	0xbd8334dc	-0.064065665
95	0xbe4bb6ed	-0.19894
96	0xbdd7e8b0	-0.105424285
97	0x3c238f25	0.009982859
98	0xbdb9af42	-0.09066631
99	0xbe169a1b	-0.14707224
100	0x3d70e666	0.058813475
101	0xbe3b40ae	-0.18286392
102	0x3d110afe	0.035410874
103	0x3dec7357	0.11545437
104	0xbd8aef09	-0.067838736
105	0x3eaba818	0.33526683
106	0x3c0269b7	0.007959775
107	0x3e07f799	0.13278045
108	0xbaa74324	-0.0012761098
109	0x3e16e002	0.1473389
110	0x3d198119	0.037476633
111	0x3e24f8ac	0.16110486
112	0x3e28b065	0.16473539
113	0x3dcde890	0.100541234
114	0x3e13dc68	0.14439547
115	0x3d52fb2f	0.05150908
116	0x3d8eda41	0.069752224
117	0x3d31b342	0.043383844
118	0x3d834860	0.06410289
119	0xbd8d8ee4	-0.0691202
120	0x3c8f7f12	0.017516647
121	0x3e7e6afa	0.24845496
122	0xbdcd5ad6	-0.10027091
123	0x3e55830c	0.20850772
124	0x3e3dcd8b	0.1853544
125	0xbd3863f2	-0.04501719
126	0x3b2964a9	0.0025847352
127	0x3cb62189	0.022232788
128	0x3ddaedf5	0.10689918
129	0xbe1e1a11	-0.15439631
130	0x3dba8cbd	0.09108875
131	0x3dcccdd7	0.10000198
132	0x3da32a16	0.07967012
133	0xbdc8800f	-0.0979005
134	0x3deff531	0.117166884
135	0xbe0b28c6	-0.13589773
136	0x3b0bbf6e	0.0021323818
137	0xbd5a7fa3	-0.05334438
138	0xbcca384c	-0.024685048
139	0x3d8007c0	0.06251478
140	0x3cc909d1	0.024540814
141	0xbc9f37fc	-0.019435875
142	0xbe167d23	-0.14696173
143	0xbdf16e07	-0.11788564
144	0x3e040879	0.12893857
145	0x3e52f41d	0.20600934
146	0xbe0bde89	-0.13659109
147	0x3d6425e8	0.055700213
148	0xbe3fc1c8	-0.18726265
149	0xbccfc68d	-0.025363231
150	0x3e33983a	0.17538539
151	0x3d265da1	0.040616635
152	0xbd03c4a8	-0.032169968
153	0xbe26e0ed	-0.1629674
154	0x3e8eb1ef	0.27870128
155	0xbdd71ba2	-0.105033174
156	0xbe181926	-0.14853343
157	0xbe21e383	-0.15809445
158	0x3db4bedd	0.08825467
159	0x3d86dabb	0.06584688
160	0x3e24cbfb	0.16093437
161	0xbd94bfa0	-0.07263112
162	0x3dd10cae	0.102074966
163	0xbd203421	-0.039112214
164	0x3dc22ddf	0.094814055
165	0xbdf902da	-0.12158747
166	0x3d8b8d60	0.068140745
167	0x3e2c6d63	0.16838603
168	0xbe12336d	-0.1427743
169	0xbde003bf	-0.109382145
170	0x3da600b1	0.081056006
171	0x3d9c1369	0.0762089
172	0xbe1191d4	-0.14215785
173	0x3e06d5a1	0.1316743
174	0x3db2aee8	0.08724767
175	0x3d2f63b2	0.042819686
176	0x3d07d773	0.033164453
177	0xbdf97671	-0.12180794
178	0xbd9d7f1b	-0.07690259
179	0xbdbd9476	-0.09256832
180	0xbd940df2	-0.07229222
181	0xbe49bc88	-0.19700825
182	0xbd7be4d3	-0.06149752
183	0x3e39ea95	0.18155892
184	0xbd326e18	-0.043562025
185	0xbd2bf3c1	-0.04198051
186	0xbd2b0412	-0.04175193
187	0xbe3d6b58	-0.1849798
188	0xbe5f297b	-0.21793167
189	0xbd8d95e8	-0.06913358
190	0xbe8ae9cf	-0.27131507
191	0x3ddbb4c2	0.10727836
192	0x3eb68e3b	0.35655388
193	0x3d50fb86	0.05102112
194	0x3e001279	0.12507047
195	0x3e4c3462	0.19941857
196	0x3e626c3e	0.22111604
197	0x3e924090	0.28564882
198	0x3e800df7	0.25010654
199	0x3e070d76	0.13188729
200	0x3e4cbda9	0.19994225
201	0x3e815c4b	0.25265726
202	0x3e7c4094	0.2463401
203	0x3e69f923	0.22848944
204	0x3e29eece	0.16595003
205	0x3e08b9ce	0.13352129
206	0x3e4eedcd	0.20207901
207	0x3ed2f815	0.41204897
208	0x3ea77a8c	0.32710683
209	0x3ee93e69	0.45555428
210	0x3e0c557a	0.13704482
211	0x3d8039a5	0.06260995
212	0x3e85d92e	0.26142257
213	0x3e71251c	0.23549312
214	0xba50aaa7	-0.00079599995
215	0x3df5a54c	0.119944185
216	0x3e6f3caa	0.23362985
217	0x3e8091bf	0.25111195
218	0x3e195bd4	0.14976436
219	0x3e95c30c	0.2925037
220	0x3e3a48a4	0.18191773
221	0x3ea187c7	0.31548902
222	0x3eb40b85	0.3516504
223	0x3f05c2ad	0.52250177
224	0x3e455bc6	0.1927329
225	0x3bc5ef82	0.0060405144
226	0x3eac32c9	0.33632496
227	0x3df4c6cd	0.11951981
228	0x3d9ad735	0.07560579
229	0x3e48e17b	0.19617264
230	0x3e48695e	0.19571444
231	0x3ebe4a9b	0.37166294
232	0x3e018362	0.12647775
233	0x3d51c670	0.051214635
234	0x3da80123	0.08203342
235	0x3dd16350	0.102240205
236	0x3e3f11bf	0.18659113
237	0x3e7ff486	0.24995622
238	0x3e15ade0	0.1461711
239	0x3db0259a	0.08600922
240	0x3e42db36	0.19028935
241	0x3e48216d	0.19544001
242	0x3ed00f9e	0.40636915
243	0x3ed3e699	0.4138687
244	0x3efc0cca	0.49228507
245	0x3e8fad87	0.28062078
246	0x3de1ef21	0.11031938
247	0x3df46440	0.11933184
248	0x3e9472bb	0.28993782
249	0x3dba47fb	0.090957604
250	0x3eded0a9	0.4351857
251	0x3e1631b2	0.14667395
252	0xbd098600	-0.033575058
253	0x3e961713	0.2931448
254	0x3e136a83	0.143961
255	0x3ddd3bab	0.108023964

lstm.bias_hh_l0 f4 [256]
0	0x3d21076c	0.03931372
1	0x3e045261	0.1292205
2	0x3ea161b0	0.31519842
3	0x3e0436f8	0.12911594
4	0x3e3b5112	0.18292645
5	0x3e96b6e5	0.29436412
6	0x3e42f3a9	0.19038261
7	0x3e443378	0.19160259
8	0x3e99a4b6	0.30008477
9	0x3efbc4fe	0.4917373
10	0x3e5a438a	0.21314827
11	0x3e7bedce	0.24602434
12	0x3e56c1d1	0.20972373
13	0x3eb4a5a8	0.35282636
14	0x3df2dcaa	0.118584946
15	0x3e85913b	0.26087365
16	0x3e319457	0.17341743
17	0x3ec80841	0.39068797
18	0x3ea29d9e	0.31760877
19	0x3e8df962	0.27729326
20	0x3ec21454	0.37906134
21	0x3e3a08dc	0.18167442
22	0x3d96a1aa	0.07355054
23	0x3d3fb4e4	0.04680337
24	0x3e835b2a	0.2565549
25	0x3eae5c65	0.34054866
26	0x3e5f4fc7	0.21807776
27	0x3e68a437	0.22718893
28	0x3e7f9787	0.24960147
29	0x3f12c89b	0.5733735
30	0x3f01bad6	0.50675714
31	0x3ee16160	0.44019604
32	0x3e4f9ed2	0.20275429
33	0x3e4e3f5d	0.20141359
34	0x3ed86d29	0.42270783
35	0x3e256cc7	0.16154777
36	0x3e5a8859	0.21341075
37	0x3df9e60e	0.122020826
38	0x3f013195	0.5046628
39	0x3e91029a	0.28322297
40	0x3d324457	0.043522205
41	0x3e8bbdea	0.2729333
42	0x3e85de7d	0.26146308
43	0xbc97cadc	-0.018529348
44	0x3d898451	0.067146905
45	0x3e37aba4	0.1793657
46	0x3e6c7cd7	0.23094498
47	0x3eadc2bd	0.33937636
48	0x3e462b79	0.19352521
49	0x3e154a83	0.14579205
50	0x3dfd3dba	0.12365289
51	0x3e96fff1	0.29492143
52	0x3e7191a0	0.23590708
53	0x3e9d02a5	0.3066608
54	0x3e3d188a	0.18466392
55	0x3e0aaab5	0.13541682
56	0x3e9ac280	0.30226517
57	0x3d91e63c	0.07123992
58	0x3ec4cc68	0.384372
59	0x3e8f8381	0.28030017
60	0x3d778887	0.060432937
61	0x3ec32e16	0.38121098
62	0x3e767f80	0.24072075
63	0x3c974b76	0.0184686
64	0x3e14a37a	0.14515486
65	0x3d9cce30	0.07656515
66	0xbde690a4	-0.11258057
67	0x3de0a4d1	0.10968936
68	0x3e2e82c3	0.17042069
69	0xbda12fd3	-0.0787045
70	0x3d9151e8	0.070957005
71	0x3e55c50e	0.20875952
72	0xbcdf010a	-0.027222175
73	0x3e5253c4	0.20539767
74	0x3e26cc08	0.16288769
75	0x3d8de3aa	0.06928189
76	0x3d825f17	0.06365793
77	0x3ed38899	0.41315153
78	0x3cad881c	0.021183066
79	0xbec24a24	-0.3794719
80	0x3e073b31	0.13206173
81	0x3e25c870	0.16189742
82	0x3d3921ec	0.045198366
83	0xbd687ad0	-0.056757748
84	0x3e4a51c3	0.19757752
85	0x3e0bd8af	0.13656877
86	0x3e805fab	0.2507299
87	0xbd99a3af	-0.07501923
88	0xbc6a6ebd	-0.014308629
89	0x3da83338	0.08212894
90	0x3d96ee7b	0.07369705
91	0xbe1e1693	-0.15438299
92	0x3d468fe4	0.04847707
93	0x3e92e716	0.2869193
94	0x3e115c83	0.14195447
95	0xbdf6ccd9	-0.1205079
96	0xbd31baf1	-0.04339117
97	0xbd9f1d0f	-0.07769214
98	0xbd721bfc	-0.05910872
99	0xbe083d45	-0.13304622
100	0x3d3eaf47	0.046553876
101	0xbd4461f1	-0.047944967
102	0x3d43af5d	0.04777466
103	0xbdbf0809	-0.093277045
104	0x3ddae1e3	0.10687616
105	0x3eb486e8	0.35259175
106	0x3e34e34d	0.17664833
107	0x3da3fffa	0.08007808
108	0xbd74f3e4	-0.059802905
109	0x3e8c2875	0.27374616
110	0x3c2d4951	0.010576562
111	0x3e6797ff	0.22616576
112	0x3e862be6	0.26205367
113	0x3e128488	0.14308369
114	0x3df9d195	0.12198178
115	0x3d791d68	0.06081906
116	0x3d684a74	0.05671163
117	0x3d947130	0.07248151
118	0x3e1bed8a	0.15227333
119	0x3e1a9f2c	0.15099782
120	0x3de3e163	0.111269735
121	0x3e23a22e	0.15979835
122	0xbdf93419	-0.1216814
123	0x3e47b56d	0.19502802
124	0x3d989278	0.07449812
125	0x3c978ebd	0.01850068
126	0x3d9ed436	0.0775532
127	0xbd442924	-0.047890797
128	0x3e013e3b	0.12621395
129	0xbe21795f	-0.15768956
130	0x39dca918	0.00042087655
131	0x3c78b7c0	0.015180528
132	0x3e17c31c	0.14820522
133	0xbd82ec06	-0.06392674
134	0x3dbaba6e	0.0911759
135	0xbe1ed7bb	-0.15511982
136	0xbd44b8d4	-0.04802783
137	0xbe46e33b	-0.19422619
138	0x3dc21812	0.09477247
139	0x3e0742f2	0.13209131
140	0x3d4628ea	0.048378862
141	0x3d82f80d	0.06394968
142	0xbd853716	-0.065046474
143	0xbe0ce1c7	-0.13758002
144	0x3de23b05	0.11046413
145	0x3d888ac4	0.066670924
146	0xbd03c6a3	-0.032171857
147	0xbe273dea	-0.16332212
148	0xbe80c59a	-0.25150758
149	0x3daea1bd	0.08526943
150	0x3e4c2c33	0.19938736
151	0x3d8efc36	0.06981699
152	0xbcc297f4	-0.023754098
153	0x3cb5e694	0.022204675
154	0x3e7a5860	0.24447775
155	0xbd5fd34d	-0.05464487
156	0xbd812590	-0.063059926
157	0x3ca235d0	0.01980105
158	0xbd9b4751	-0.07581962
159	0x3c02cc54	0.007983286
160	0x3d824922	0.06361605
161	0x3b04793b	0.002021386
162	0xbd0be066	-0.03414955
163	0xbd313477	-0.043262925
164	0xbda17db8	-0.07885307
165	0xbdfbd8db	-0.12297221
166	0xbcc27603	-0.023737913
167	0x3e30bcab	0.17259471
168	0xbdf3414e	-0.1187769
169	0xbdb36efe	-0.087614045
170	0x3e205760	0.15658331
171	0xbdc35717	-0.095380954
172	0xbd1af2c9	-0.037829194
173	0x3d40b306	0.04704573
174	0x3e060ac8	0.1309005
175	0x3dc64d3f	0.09682702
176	0x3ce77c34	0.028257467
177	0x3d1163b2	0.035495467
178	0xbe2ca7fe	-0.16860959
179	0xbd7590b3	-0.05995245
180	0x3e1dd26f	0.15412305
181	0xbe058738	-0.13039863
182	0xbd1c7fdf	-0.038207885
183	0x3dfa6b41	0.12227488
184	0xbe1abe63	-0.1511169
185	0xbe3c6b6c	-0.18400353
186	0xbd98c4c3	-0.07459404
187	0xbd52b619	-0.051443193
188	0xbd921d01	-0.07134438
189	0x3d83946e	0.06424795
190	0xbe1ec407	-0.15504466
191	0xbd0ce1ed	-0.034395147
192	0x3eb46e20	0.3524027
193	0xbc366a63	-0.011133763
194	0x3cc4b75f	0.02401322
195	0x3e4185c6	0.18898687
196	0x3e6a60a7	0.22888432
197	0x3e9bd8a0	0.3043871
198	0x3ead02a5	0.3379108
199	0x3e2a79fa	0.16648093
200	0x3ecef4c7	0.40421125
201	0x3e85b177	0.26111957
202	0x3e5e6054	0.21716434
203	0x3d6814ed	0.05666058
204	0x3e5b4ab4	0.21415216
205	0x3e7af038	0.24505699
206	0x3e0c8e24	0.13726097
207	0x3ea17fc6	0.31542796
208	0x3ea45507	0.3209612
209	0x3ec7e47a	0.390415
210	0x3e6262c9	0.22107996
211	0x3e3ba789	0.18325628
212	0x3eaeead8	0.34163547
213	0x3eafd26e	0.34340233
214	0x3d509689	0.05092481
215	0x3ea7b485	0.32754913
216	0x3e2aa9ba	0.16666308
217	0x3e36772c	0.17818898
218	0x3d5927f2	0.05301661
219	0x3e9cabfe	0.3059997
220	0xbc56c2f7	-0.013108007
221	0x3e281d1e	0.16417357
222	0x3f053d56	0.52046716
223	0x3ef18ec7	0.47179243
224	0x3e9a87ca	0.30181724
225	0x3d95f01e	0.07321189
226	0x3e8f117c	0.27943027
227	0x3eaa176e	0.33221
228	0x3e5cb120	0.21551943
229	0x3e5143cf	0.20436023
230	0x3d2b5ba5	0.041835446
231	0x3eb27dba	0.34861547
232	0x3d8a0d02	0.06740762
233	0x3cc68393	0.024232661
234	0x3e02c313	0.12769727
235	0x3e2b9314	0.16755325
236	0x3e5b9bd8	0.21446168
237	0x3e0a2e86	0.1349431
238	0x3e2baefc	0.1676597
239	0x3d8e9535	0.06962053
240	0x3e28f634	0.16500169
241	0x3e582570	0.21108031
242	0x3eacddd2	0.33762985
243	0x3ebd6ab3	0.36995468
244	0x3ef7d7ed	0.48406926
245	0x3e9c2953	0.30500278
246	0x3e1601b5	0.14649089
247	0x3decebce	0.11568414
248	0x3e1e98ed	0.15488024
249	0x3e410944	0.18851191
250	0x3f184a08	0.5948796
251	0x3b4bb817	0.0031085068
252	0x3e17263b	0.14760678
253	0x3ec79a50	0.3898492
254	0x3e0d498e	0.1379759
255	0x3e0970f0	0.13421988

env_fc1.weight f4 [16, 9]
0	0xbe223d13	-0.1584361
1	0x3f4c375c	0.7977197
2	0xbf1c6250	-0.6108751
3	0x3e5939e4	0.2121349
4	0x3d8f7d3c	0.070063084
5	0xbe33059a	-0.17482606
6	0xbdf85d17	-0.121271305
7	0x3da4667c	0.0802736
8	0x3ea6eec7	0.32604048
9	0xbe964f59	-0.29357412
10	0x3e646581	0.22304346
11	0xbd0c4419	-0.03424463
12	0x3eacef9e	0.33776563
13	0x3e3c61aa	0.18396631
14	0xbee7fb37	-0.4530885
15	0x3ca7d031	0.020485016
16	0x3f528de5	0.82247764
17	0xbe9c1d38	-0.30491042
18	0x3f1898e4	0.5960829
19	0x3f8a9a7f	1.0828398
20	0x3e89202e	0.26782364
21	0xbe2e7769	-0.17037739
22	0xbe7f3d93	-0.24925832
23	0x3e7ee0b8	0.24890411
24	0x3f01aa00	0.50650024
25	0xbf479599	-0.7796264
26	0x3cea01f7	0.02856539
27	0xbcf20c5d	-0.02954691
28	0x3fa99f92	1.3251822
29	0x3e1d664f	0.15371059
30	0x3ec9360a	0.3929904
31	0x3e1f6226	0.15564784
32	0xbf010816	-0.50402963
33	0xbe844928	-0.25837064
34	0xbcdf16f7	-0.02723263
35	0x3da3af7d	0.07992456
36	0xbdabc030	-0.08386266
37	0x3f8cb391	1.0992299
38	0xbed4900d	-0.41516152
39	0xbd0b7126	-0.034043454
40	0xbe2d5af3	-0.16929226
41	0xbf77191b	-0.9652268
42	0x3c601bb1	0.013678477
43	0x3e9375e8	0.28800893
44	0xbf69037b	-0.91020936
45	0xbef099bb	-0.46992287
46	0xbf025b86	-0.50920904
47	0xbe885eca	-0.26634818
48	0x3e44dc9d	0.19224782
49	0xbe912a30	-0.283525
50	0xbea2b3ac	-0.31777704
51	0xbed29ac5	-0.41133705
52	0xbf01c87b	-0.50696534
53	0xbcaed036	-0.021339517
54	0x3e9278da	0.28607827
55	0xbe0fbf02	-0.14037707
56	0x3df9d557	0.121988945
57	0x3e1ceb6d	0.15324183
58	0x3e874e01	0.264267
59	0xbe99e9d8	-0.3006122
60	0x3d9ecba1	0.07753683
61	0x3f891691	1.0710012
62	0x3ec94306	0.39308947
63	0xbe492626	-0.19643459
64	0xbea3836c	-0.31936204
65	0xbd91d0d9	-0.07119913
66	0x3f350195	0.7070554
67	0x3d77b1c8	0.06047228
68	0x3e69d621	0.2283559
69	0x3e17e516	0.14833483
70	0xbda28022	-0.07934596
71	0x3e011a23	0.12607627
72	0xbd8f2655	-0.06989733
73	0x3e5c25cf	0.21498798
74	0xbdeba45d	-0.11505959
75	0xbe573773	-0.21017246
76	0xbe966f0c	-0.29381597
77	0xbdf70eb0	-0.12063348
78	0x3dbec250	0.09314406
79	0xbdac4c8f	-0.0841304
80	0xbe5ae673	-0.21376972
81	0xbea4cb93	-0.32186565
82	0x3f078e2e	0.52951324
83	0xbd0e61ab	-0.034761112
84	0x3f1e389c	0.6180513
85	0x3e90e05d	0.28296176
86	0x3f439f51	0.7641497
87	0xbe9ae09e	-0.30249494
88	0x3d7a7b6f	0.06115287
89	0xbe9d2dc7	-0.30698988
90	0xbe3eb350	-0.1862309
91	0xbeb43ceb	-0.35202727
92	0x3e8a900d	0.27063027
93	0x3fa6a3ab	1.3018698
94	0xbe4b4ce3	-0.19853549
95	0xbe8a4dfc	-0.27012622
96	0x3eae3e01	0.3403168
97	0x3ef44066	0.47705382
98	0xbd8e995c	-0.06962845
99	0xbc2754e5	-0.0102131115
100	0xbe9c2fe1	-0.3050528
101	0xbecac582	-0.39603812
102	0x3f380883	0.7188799
103	0xbe3d2e18	-0.18474615
104	0x3e3ac165	0.18237837
105	0xbefd88be	-0.49518389
106	0xbe6c7620	-0.23091936
107	0x3e256e58	0.16155374
108	0xbe0da973	-0.13834171
109	0x3df96c98	0.12178916
110	0x3e5c7c38	0.2153176
111	0x3f2e3862	0.68054783
112	0xbe8f0743	-0.27935228
113	0x3eb4866b	0.35258803
114	0x3e9970bb	0.2996882
115	0x3e954d27	0.29160425
116	0xbe8ee2ab	-0.2790731
117	0x3e50345b	0.20332472
118	0x3e8ae64f	0.27128837
119	0xbe94709b	-0.2899216
120	0x3f8976d4	1.0739388
121	0x3e9a32b7	0.30116817
122	0xbe87ceaf	-0.26524875
123	0x3e5bd466	0.21467742
124	0xbedd5a43	-0.43232927
125	0x3e1812ea	0.14850965
126	0x3e31e2de	0.17371699
127	0xbf51d08a	-0.8195883
128	0xbf35f78c	-0.7108085
129	0x3ea5316a	0.32264262
130	0x3df58b04	0.11989406
131	0x3f8e3dec	1.1112647
132	0x3dba0525	0.090830125
133	0x3eb81c80	0.35959244
134	0xbd487175	-0.048936326
135	0xbe0e1bd0	-0.13877797
136	0xbf1b7aed	-0.60734445
137	0x3e6435d0	0.22286153
138	0x3f6daf89	0.9284597
139	0xbe8ac826	-0.27105826
140	0xbe9dab92	-0.3079496
141	0x3eb077aa	0.34466296
142	0x3f37296a	0.7154757
143	0x3e317025	0.17327936

env_fc1.bias f4 [16]
0	0x3e3a73ed	0.18208285
1	0x3e9e1e48	0.30882478
2	0x3e8eed16	0.27915257
3	0x3e9ca3a5	0.305936
4	0x3ea03b7e	0.3129539
5	0x3efb0665	0.49028316
6	0x3e823d80	0.25437546
7	0x3eccabd9	0.3997486
8	0xbead0f75	-0.33800855
9	0x3dcdee07	0.10055166
10	0x3f155967	0.5833954
11	0x3ebf3315	0.3734366
12	0x3e143e86	0.14476976
13	0x3e08a463	0.13343959
14	0x3e91fa42	0.28511244
15	0x3d3d2a14	0.046182707

env_fc2.weight f4 [8, 16]
0	0xbe36313a	-0.17792216
1	0x3bb7d3f0	0.0056099817
2	0x3e0ef417	0.139603
3	0x3dd6802e	0.10473667
4	0xbeafac36	-0.34311074
5	0x3f0d88f9	0.5528713
6	0xbe95b329	-0.2923825
7	0x3ed52a9a	0.41634065
8	0x3e13d327	0.14436017
9	0x3f6b6f78	0.9196696
10	0x3e979d1b	0.2961205
11	0x3f127641	0.5721169
12	0x3eb929f3	0.36164817
13	0x3eb37678	0.35051322
14	0x3f4c406e	0.7978581
15	0xbecd4084	-0.40088284
16	0x3f44f80f	0.7694101
17	0x3f42ea5b	0.7613885
18	0xbf307477	-0.6892771
19	0x3de7c251	0.1131636
20	0x3e5007ad	0.20315428
21	0xbe6d64e6	-0.23183021
22	0x3f17fa50	0.5936632
23	0xbc3de90e	-0.011591209
24	0x3c154af5	0.009112109
25	0xbda25592	-0.079264775
26	0x3ea63fe6	0.32470626
27	0xbf56aca1	-0.8385716
28	0x3d798044	0.06091334
29	0xbedda595	-0.43290392
30	0x3d672be0	0.056438327
31	0x3f070522	0.5274221
32	0xbe2ad636	-0.16683277
33	0xbe7493f6	-0.23884568
34	0xbd43a8f0	-0.047768533
35	0xbd7704f0	-0.060307443
36	0x3e5c8684	0.21535689
37	0x3d01d640	0.031698465
38	0xbd208578	-0.039189786
39	0xbd90b0e0	-0.07064986
40	0x3c2c0520	0.010499269
41	0x3da34490	0.07972062
42	0xbb663880	-0.0035128891
43	0xbd237110	-0.039902747
44	0x3c476980	0.012171149
45	0x3d59dc28	0.053188473
46	0xbe4c21da	-0.19934788
47	0x3e7040a2	0.23462155
48	0x3f46a5a3	0.7759649
49	0x3e7ead05	0.24870689
50	0x3ea03df3	0.31297264
51	0x3f8bad0f	1.0912188
52	0x3f92f108	1.1479807
53	0xbec3da39	-0.38252428
54	0x3b07098c	0.0020605056
55	0xbe487f34	-0.19579774
56	0x3e011f6d	0.12609644
57	0x3de77258	0.11301106
58	0x3d18ac9a	0.03727398
59	0xbdb088f1	-0.086198695
60	0x3dddaea7	0.10824328
61	0x3f2230db	0.633558
62	0xbefb11ea	-0.49037105
63	0xbdbf3472	-0.09336175
64	0xbe7490bc	-0.23883337
65	0x3a8aee37	0.0010599558
66	0xbf40595c	-0.7513635
67	0xbe83974d	-0.2570137
68	0xbe98a0c2	-0.29810148
69	0x3f3465b2	0.70467675
70	0xbdbdffd0	-0.09277308
71	0x3f02dccf	0.5111818
72	0x3dbcb0ea	0.09213431
73	0x3f30276f	0.6881017
74	0x3f29adfa	0.6628109
75	0x3f0b24d2	0.5435306
76	0x3ede5431	0.43423608
77	0x3f0fca19	0.5616775
78	0xbed61615	-0.41813722
79	0x3f14ec4c	0.5817306
80	0xbdb3f229	-0.08786423
81	0xbdc9da80	-0.09856129
82	0xbd3d9a45	-0.0462897
83	0xbe2103dd	-0.1572413
84	0xbf15a3d8	-0.5845313
85	0x3f3ad9e9	0.72988755
86	0x3d74a43d	0.059726942
87	0x3f069159	0.5256553
88	0x3e0b36da	0.13595143
89	0x3e684b2c	0.22684926
90	0x3ebb3d5e	0.36570257
91	0x3eb8e22d	0.36110058
92	0x3f0093a4	0.5022528
93	0x3f679594	0.90462613
94	0xbe5de365	-0.21668775
95	0x3edbdb82	0.4294091
96	0x3de08aed	0.10963998
97	0x3b9fc27b	0.004875479
98	0x3d19ebbb	0.037578326
99	0xbe7dd834	-0.24789506
100	0xbe0e7171	-0.13910462
101	0x3e23cb7e	0.15995595
102	0xbe51e0f8	-0.20495975
103	0xbe9f6595	-0.31132188
104	0xbe5c485d	-0.2151198
105	0x3e4db417	0.2008823
106	0xbdd4c5b9	-0.10389275
107	0xbdcae2c1	-0.09906531
108	0xbe2ebd65	-0.17064436
109	0xbddcf62f	-0.10789143
110	0x3cf7f808	0.030269638
111	0xbe09a69b	-0.13442461
112	0xbe74ceb6	-0.23906979
113	0xbef8e60f	-0.4861302
114	0x3e6768e4	0.22598606
115	0x3ea04c2d	0.31308118
116	0xbf6086b4	-0.8770554
117	0xbe885409	-0.26626614
118	0xbecddb40	-0.40206337
119	0x3cf6aa42	0.030110482
120	0xbe3fb818	-0.1872257
121	0x3fa3f810	1.2810078
122	0xbea6aef2	-0.32555348
123	0x3d37d19f	0.044877645
124	0x3eff9397	0.4991729
125	0xbb4f7783	-0.0031656928
126	0x3d6c1dd2	0.057645626
127	0xbeea1dfa	-0.45725995

env_fc2.bias f4 [8]
0	0x3e23dcfc	0.16002268
1	0x3e66fdc3	0.2255774
2	0xbe6de69a	-0.23232499
3	0xbd915d0d	-0.07097826
4	0x3ec12e1a	0.37730485
5	0x3ae54421	0.0017491617
6	0x3d8f61de	0.070010886
7	0x3e6c59de	0.23081157

fc_comb.weight f4 [32, 72]
0	0xbe91cecb	-0.28478083
1	0x3e47ace8	0.19499552
2	0x3e512d78	0.20427501
3	0xbe40785d	-0.18795915
4	0x3ce5337d	0.027978653
5	0x3c2dd100	0.0106089115
6	0x3e7ae98b	0.24503152
7	0x3d042d9b	0.032270055
8	0x3f230646	0.6368145
9	0xbda943e0	-0.08264899
10	0x3de386fa	0.11109729
11	0xbdea2921	-0.11433626
12	0x3d48039b	0.048831563
13	0xbc2f6e6d	-0.01070748
14	0x3e9c14b8	0.30484557
15	0x3e2a9bf2	0.16661051
16	0xbdf55e97	-0.11980932
17	0x3dd289fa	0.10280223
18	0x3e826e58	0.2547481
19	0xbc7230d9	-0.014782154
20	0x3edbade0	0.42906094
21	0x3e4fd081	0.20294382
22	0xbe74c6e8	-0.23904002
23	0xbe86f134	-0.26355898
24	0x3e41bc1f	0.18919419
25	0x3e4d5784	0.20052916
26	0xbc0e9922	-0.008703502
27	0x3d9675ec	0.073467106
28	0xbd087b25	-0.033320565
29	0x3d03dd8a	0.032193698
30	0x3b40fece	0.002944875
31	0xbd9980d1	-0.07495273
32	0xbe6f0342	-0.23341087
33	0x3e8f50a0	0.279912
34	0xbe9fda1a	-0.31221086
35	0xbf1b86b2	-0.60752404
36	0xbe157686	-0.14595994
37	0xbe4278b7	-0.18991362
38	0xbe04ea76	-0.12980065
39	0xbf3c9309	-0.7366186
40	0xbe0d638c	-0.13807505
41	0xbd84cfd9	-0.06484956
42	0x3d99dbf0	0.07512653
43	0x3da145cd	0.078746416
44	0x3ea83126	0.32849997
45	0xbd8ce2a4	-0.06879166
46	0xbcb575ef	-0.022150962
47	0xbd8485cb	-0.064708315
48	0xbe056673	-0.13027363
49	0xbd325959	-0.04354224
50	0x3df87396	0.12131421
51	0x3f1cea09	0.6129461
52	0x3ee299ea	0.44258052
53	0xbe6da88e	-0.2320883
54	0x3d31aa5e	0.043375365
55	0x3d9e0f13	0.07717719
56	0xbe1e015d	-0.15430208
57	0x3e36b7c3	0.17843537
58	0xbeb60672	-0.35551792
59	0x3d1ad81d	0.037803758
60	0x3e645b1c	0.2230038
61	0xbe3c26a2	-0.18374112
62	0xbea1d82b	-0.31610236
63	0xbefb5068	-0.49084783
64	0x3ebe0e00	0.37120056
65	0xbe4e93d1	-0.20173575
66	0xbc7625a8	-0.015023626
67	0xbe8c96b0	-0.27458715
68	0x3e94f9ba	0.29096776
69	0x3ea99268	0.33119512
70	0x3e42a15e	0.19006869
71	0x3f047186	0.51735723
72	0x3e1abd12	0.15111187
73	0x3d38693d	0.045022238
74	0x3eca4522	0.3950587
75	0x3c99a32b	0.018754562
76	0xbe74840d	-0.23878498
77	0xbe0b5ded	-0.13610049
78	0xbe5319b3	-0.20615272
79	0x3cb38b00	0.021916866
80	0xbeacdf34	-0.3376404
81	0xbdcc5817	-0.09977739
82	0x3e9e0bd4	0.308684
83	0x3e3f77d1	0.1869805
84	0x3d97ca54	0.07411638
85	0xbe2d0ff5	-0.16900618
86	0xbed10291	-0.4082227
87	0xbee9faed	-0.45699254
88	0xbdc403c5	-0.095710315
89	0xbd1c32fa	-0.038134553
90	0xbc2870a2	-0.01028076
91	0xbe07cd25	-0.1326185
92	0xbebbd8f2	-0.36688954
93	0xbd1cd043	-0.03828455
94	0x3d641dce	0.055692486
95	0xbe69a8c1	-0.22818281
96	0xbdd3cf70	-0.103423
97	0xbe05c04f	-0.13061641
98	0x3d8cc34e	0.06873189
99	0xbede8e64	-0.4346801
100	0xbd0e88a0	-0.034798265
101	0xbd02b502	-0.031910904
102	0x3e8cff81	0.27538684
103	0x3e1bafb8	0.1520375
104	0x3eac0fd4	0.33605826
105	0x3e6e6e82	0.23284343
106	0x3debd488	0.115151465
107	0x3da37996	0.07982175
108	0xbdbc1290	-0.09183228
109	0xbec5687c	-0.38556278
110	0x3bf41bdd	0.0074496106
111	0x3da45dcb	0.08025702
112	0xbe143269	-0.14472355
113	0xbde06f27	-0.109587006
114	0xbdddffc2	-0.108397976
115	0x3e283eb3	0.16430168
116	0x3cadcf5a	0.021217037
117	0x3d9c8d40	0.07644129
118	0x3e06c9ec	0.13162965
119	0xbd6f0f19	-0.058364008
120	0xbd5f8a01	-0.05457497
121	0x3db6a94b	0.08919009
122	0x3d57d175	0.05268999
123	0xbe71b27b	-0.23603241
124	0xbd578ea1	-0.052626256
125	0xbd93616d	-0.07196317
126	0x3dee898c	0.11647329
127	0x3df418e9	0.11918814
128	0xbdcb60bc	-0.0993056
129	0xbd74ae59	-0.059736583
130	0x3e864f04	0.2623216
131	0x3da7c093	0.081910275
132	0xbd48f7d1	-0.04906446
133	0x3e89585c	0.26825225
134	0xbc07e087	-0.008293278
135	0xbe817f77	-0.2529256
136	0xbe89853c	-0.26859462
137	0x3f07323c	0.52811027
138	0xbc6afe68	-0.014342882
139	0x3e88d214	0.26722777
140	0xbe6079d4	-0.21921474
141	0x3d28f472	0.041248746
142	0x3d17fc46	0.03710582
143	0xbf120ecc	-0.5705383
144	0x3e8db8e4	0.27680123
145	0x3c376154	0.011192638
146	0x3d98c6c3	0.07459786
147	0x3e0d82c4	0.13819414
148	0x3e0a114d	0.13483162
149	0xbbb9a978	-0.005665954
150	0xbed495c6	-0.41520518
151	0xbded4435	-0.11585275
152	0xbda7061c	-0.08155462
153	0xbde4c43f	-0.111702435
154	0xbd32dec1	-0.043669466
155	0xbc99f8cb	-0.018795392
156	0x3e4a3285	0.19745834
157	0xbd7cfd5d	-0.061765064
158	0x3d8f7c46	0.07006125
159	0x3e0329e1	0.12808944
160	0x3e0519fd	0.12998195
161	0xbe1e58c8	-0.15463555
162	0xbcce800d	-0.025207544
163	0x3bccbb3a	0.006247905
164	0xbdb1acf3	-0.086755656
165	0x3cdb32e3	0.026757663
166	0x3d21dcf5	0.03951736
167	0xbeb15b1d	-0.34639826
168	0xbe86c5d5	-0.2632281
169	0xbde49761	-0.11161686
170	0x3dec17e7	0.115279965
171	0xbc3540b5	-0.011062791
172	0xbe0b3bf0	-0.13597083
173	0x3d91935d	0.071081854
174	0x3ed5a342	0.41726118
175	0x3d958895	0.073014416
176	0x3eb7c25d	0.35890475
177	0x3d80c738	0.06287998
178	0x3e196e53	0.14983492
179	0x3d343d5a	0.044003822
180	0x3e3bb0e6	0.183292
181	0x3d448157	0.04797491
182	0x3d3d7aca	0.04625968
183	0x3c4e84f6	0.012604943
184	0xbe5895b0	-0.21150851
185	0xbdd5db86	-0.104422614
186	0x3a77ffbf	0.00094604114
187	0xbe6b09e2	-0.22952989
188	0x3e6f9f33	0.23400573
189	0xbca4a7cb	-0.020099541
190	0x3eb1f5ec	0.34757936
191	0x3e0d5a7c	0.13804048
192	0x3d296488	0.04135564
193	0xbdf38a65	-0.11891631
194	0x3d920125	0.071291246
195	0xbce445b4	-0.027865268
196	0xbea7e675	-0.32793012
197	0xbd80da8f	-0.06291687
198	0xbdb6d070	-0.08926475
199	0x3dd2ded5	0.10296408
200	0x3e8a74a6	0.2704212
201	0xbd8f3d28	-0.069940865
202	0x3ea00797	0.3125579
203	0x3cefdee4	0.029281087
204	0xbd766367	-0.06015339
205	0x3ea31ddb	0.31858715
206	0x3c881619	0.0166121
207	0x3dcdb1e9	0.10043699
208	0xbe35b82a	-0.17746034
209	0x3ea9385c	0.3305081
210	0xbce49630	-0.027903646
211	0xbe9493ba	-0.29018956
212	0x3e1b3153	0.15155534
213	0x3d975d5e	0.07390855
214	0x3d97037a	0.0737371
215	0xbe84df1f	-0.25951478
216	0xbc86fc96	-0.016477864
217	0x3d279c79	0.04092071
218	0x3d73354a	0.059376992
219	0xbe17f6b6	-0.14840207
220	0xbe009272	-0.12555864
221	0x3de31f86	0.11089997
222	0x3ddcecfd	0.107873894
223	0x3cab9261	0.020943822
224	0x3d851c46	0.06499533
225	0x3c1c306f	0.009533032
226	0xbdb5f070	-0.088837504
227	0xba208818	-0.0006123795
228	0xbd71e51a	-0.05905638
229	0xbdec4982	-0.11537458
230	0x3c847b5c	0.016172104
231	0x3d3d30ab	0.04618899
232	0x3de350a7	0.110993676
233	0xbb9ddbea	-0.0048174756
234	0xbdc21cf1	-0.094781764
235	0xbd79921e	-0.060930364
236	0x3c422e7d	0.011851904
237	0x3db30ff3	0.087432764
238	0xbd5e465a	-0.05426631
239	0xbd806107	-0.062685065
240	0x3c800aca	0.015630145
241	0x3dc4cf59	0.09609861
242	0xbcfa9d3a	-0.03059255
243	0xbcf52f5b	-0.029929807
244	0x3d68696a	0.056741156
245	0x3dc15557	0.094401054
246	0x3da1b109	0.07895095
247	0x3dc420b7	0.09576552
248	0xbc90c54a	-0.0176722
249	0x3d87b7f5	0.06626884
250	0xbd8ac621	-0.06776071
251	0xbd46cdda	-0.04853616
252	0xbe111b9d	-0.1417069
253	0xbe1de351	-0.15418746
254	0x3c6cddfe	0.014457224
255	0xbc0a3e41	-0.008437694

fc_comb.bias f4 [32]
0	0xbe0c4551	-0.13698317
1	0x3e12f6bc	0.14351934
2	0x3e036299	0.12830581
3	0xbe1afad4	-0.15134746
4	0x3cf1b9ac	0.02950748
5	0x3e36c9d2	0.17850426
6	0xbd78353d	-0.060597647
7	0x3e11d5a1	0.14241649
8	0xbdf207f8	-0.11817926
9	0x3ddf361c	0.108989924
10	0xbcd09c09	-0.025465028
11	0xbd046c88	-0.032330066
12	0x3e09f9c0	0.13474178
13	0x3e25ede1	0.16204025
14	0xbcd99e38	-0.026564702
15	0xbda77456	-0.08176486
16	0xbd88dcfe	-0.06682776
17	0x3e2435b2	0.16036108
18	0x3e1030b5	0.1408108
19	0xbc0059cf	-0.007833912
20	0x3e36a529	0.17836441
21	0xbe0ba18b	-0.13635843
22	0xbc18786e	-0.009306056
23	0x3d022a66	0.031778716
24	0x3c7ddfac	0.015495222
25	0x3e4c1046	0.19928083
26	0x3da33fc9	0.079711504
27	0x3e43a377	0.19105326
28	0x3e5bf1a7	0.21478902
29	0xbdcaacd0	-0.098962426
30	0x3e946044	0.28979695
31	0x3dabbef2	0.08386029

fc_out.weight f4 [6, 32]
0	0xbfa307a4	-1.2736707
1	0xbdf0f14d	-0.117647745
2	0xbe97bf9f	-0.29638383
3	0xbd6973b6	-0.056995116
4	0xc0051725	-2.0795376
5	0xbdf842a8	-0.12122089
6	0xbd5e5b05	-0.05428602
7	0xbe1fb581	-0.15596582
8	0x3db07dc5	0.08617739
9	0xbe84eb19	-0.25960615
10	0xbe9849cc	-0.29743803
11	0xbe2d27c8	-0.16909707
12	0xbe95b819	-0.29242018
13	0xbde2a5c8	-0.110667765
14	0xbec08ac5	-0.37605873
15	0xbfe40140	-1.7812881
16	0xbe039e70	-0.12853408
17	0xbd8f879d	-0.07008288
18	0xbe7d5052	-0.24737671
19	0xbda80ee6	-0.08205967
20	0xbea33ea5	-0.3188373
21	0x3dfb56c1	0.12272406
22	0xbeb3a4da	-0.3508671
23	0xbe55d5f5	-0.208824
24	0xbe5064ca	-0.20350948
25	0xbdaee9d4	-0.08540693
26	0xbf23d778	-0.64000654
27	0xbdfb8f8e	-0.1228324
28	0xbe46526f	-0.19367383
29	0xbf8204b7	-1.0157689
30	0xbdfe091b	-0.124040805
31	0xbf016b54	-0.50554395
32	0x3f593a87	0.8485493
33	0x3e97a0e7	0.29614946
34	0x3e09b286	0.13447008
35	0x3d4893a0	0.04896891
36	0xbf5ac358	-0.8545432
37	0x3e3d9ff9	0.18518056
38	0x3e070d81	0.13188745
39	0x3e615034	0.22003251
40	0xbd38c3c8	-0.045108587
41	0xbe0b78ac	-0.13620251
42	0x3d1615d1	0.0366419
43	0x3e5cc81b	0.21560709
44	0x3e05f33a	0.13081065
45	0xbd6f4b11	-0.0584212
46	0x3e855d3a	0.2604769
47	0x3f227dfc	0.63473487
48	0x3e6ba34c	0.23011512
49	0x3dce192d	0.10063396
50	0x3ea60d16	0.3243186
51	0x3eb1085c	0.3457669
52	0xbeb4eff4	-0.3533932
53	0xbe6532c8	-0.22382653
54	0x3c73cbf7	0.014880172
55	0x3e9485de	0.29008383
56	0xbdc58e7d	-0.09646318
57	0xbd06e149	-0.032929692
58	0xbf99d40d	-1.2017838
59	0x3bee04f2	0.007263773
60	0x3da6e9c2	0.081500545
61	0xbfacd89d	-1.3503605
62	0xbe655033	-0.22393875
63	0xbd95605d	-0.072937705
64	0xbf19937e	-0.5999068
65	0x3d89c48e	0.06726943
66	0xbe744694	-0.23855048
67	0xbb1c7616	-0.0023874096
68	0x3e0f9d37	0.14024816
69	0x3e1b8dc6	0.15190801
70	0xbd985426	-0.07437925
71	0x3cd6a074	0.026199557
72	0x3d900228	0.07031661
73	0xbe0c1102	-0.13678363
74	0xbcd792fd	-0.026315207
75	0xbe513e6f	-0.20433973
76	0x3e0d2d76	0.13786873
77	0x3a9f8dc3	0.0012172986
78	0xbd943964	-0.07237509
79	0xbd6a0e62	-0.057142623
80	0xbf253197	-0.64528793
81	0xbf68b42e	-0.9089993
82	0x3e355c19	0.17710914
83	0x3d60a1d1	0.05484182
84	0x3dfd0fe2	0.12356545
85	0xbdc2a06b	-0.095032535
86	0x3c8283ce	0.01593199
87	0xbe344c70	-0.17607284
88	0xbf3bf089	-0.734139
89	0x3eafc954	0.3433329
90	0x3e9c1854	0.3048731
91	0x3ec983e6	0.39358443
92	0x3cb697f7	0.02228926
93	0x3d4106c5	0.047125597
94	0x3ec4d2ee	0.38442177
95	0x3e93cad5	0.28865686
96	0xbed02cd5	-0.40659204
97	0xbf12d210	-0.5735178
98	0x3e834626	0.25639457
99	0x3dbd89d9	0.09254808
100	0xbe7f0210	-0.2490313
101	0x3e26dd04	0.16295248
102	0xbde776b9	-0.113019414
103	0xbf23bd3f	-0.6396064
104	0xbe0ea8fe	-0.13931653
105	0x3d1027f9	0.03519437
106	0x3b9e20fe	0.0048257103
107	0x3d83a061	0.06427074
108	0xbe9e94a5	-0.30972782
109	0x3e342172	0.17590883
110	0x3ee66c4e	0.45004505
111	0xbf34a4dc	-0.70564055
112	0xbe8960ee	-0.26831764
113	0x3d385e99	0.04501209
114	0x3e50f98e	0.20407698
115	0x3e8362f8	0.25661445
116	0x3e340229	0.17578949
117	0x3d51e3a2	0.05124248
118	0xbe10e99c	-0.14151615
119	0xbefc6306	-0.492943
120	0x3e4acd97	0.19804989
121	0xbea8ad0c	-0.32944524
122	0x3ed024fc	0.40653217
123	0xbf24385f	-0.64148515
124	0x3eac41c3	0.33643922
125	0x3ed64d0a	0.4185565
126	0xbd92bfa8	-0.07165462
127	0x3d311d01	0.04324055
128	0xbebcddd4	-0.3688799
129	0x3e758d27	0.23979627
130	0x3d001ad8	0.0312756
131	0xbde21881	-0.1103983
132	0x3da35fa8	0.07977229
133	0x3e8ee8e4	0.27912056
134	0xbd95ad4b	-0.07308444
135	0x3e7344ff	0.23756789
136	0xbdc7e4c2	-0.09760429
137	0xbe2ba5a4	-0.16762406
138	0x3e601f1b	0.21886866
139	0xbed32137	-0.41236278
140	0x3dd74e87	0.10513025
141	0x3e952568	0.291301
142	0xbc8ecad9	-0.01743071
143	0xbefb7247	-0.49110624
144	0x3ebc3b52	0.36764008
145	0x3ebf9c19	0.3742378
146	0xbe95f42c	-0.2928785
147	0xbfbaa489	-1.4581462
148	0x3e5b35d1	0.21407248
149	0x3bce51c2	0.0062963674
150	0xbd15e375	-0.036593873
151	0x3ded35fd	0.11582563
152	0x3e76b4eb	0.24092452
153	0x3e7710f1	0.24127556
154	0xbdb6464b	-0.08900126
155	0xbd6a051b	-0.057133775
156	0xbefab9d9	-0.48969916
157	0x3d967c4c	0.073479265
158	0x3dc19d03	0.09453776
159	0xbeec7538	-0.4618318
160	0xbf3a1c9a	-0.7269989
161	0xbf493a19	-0.78604275
162	0xbe8a115e	-0.26966375
163	0xbdccad6e	-0.099940166
164	0x3f23aa84	0.6393206
165	0xbf7a3179	-0.9773174
166	0xbdb486eb	-0.08814796
167	0x3e7ed718	0.24886739
168	0x3b31d812	0.0027136845
169	0x3e815f7d	0.25268164
170	0x3dd95597	0.10612028
171	0x3ea029be	0.31281847
172	0xbe562e09	-0.20915999
173	0xbf48b9f0	-0.7840872
174	0xbee154f5	-0.4401013
175	0xbd44ed77	-0.048078027
176	0x3d740377	0.059573617
177	0x3c3a8368	0.011383869
178	0xbfbf8a08	-1.4963999
179	0x3e04454d	0.12917061
180	0x3d9125fc	0.07087323
181	0x3d996d3c	0.07491538
182	0x3eb3a776	0.350887
183	0x3ddc9b02	0.10771753
184	0x3e622402	0.22084048
185	0xbb7730d1	-0.0037718306
186	0x3e9bf392	0.30459267
187	0x3e0fb03d	0.14032073
188	0xbdc78901	-0.09742928
189	0x3f175292	0.5911037
190	0x3e31022b	0.17285983
191	0x3e6eac1e	0.23307845

fc_out.bias f4 [6]
0	0xbe3a5116	-0.18194994
1	0xbd831972	-0.06401338
2	0x3de04729	0.10951073
3	0x3e1deb5b	0.15421812
4	0xbaa6639b	-0.001269448
5	0x3aed64e2	0.001811173
