grporange/models/classifier/weights/vip_movement_large_predictor.pth (torch, 91678 bytes, 13 tensors)

move_embedding.weight f4 [6, 8]
0	0x3f6a5312	0.91533005
1	0xbf3a7ee1	-0.7284985
2	0x3f7c811e	0.9863452
3	0xbe9ccfd5	-0.30627313
4	0xbed7d87a	-0.42157346
5	0xbed1ed0b	-0.41001162
6	0xbf9c1c23	-1.2196087
7	0xbde43ea4	-0.1114476
8	0x3fd0f698	1.6325254
9	0x3fddc2ba	1.7325051
10	0xbfd43410	-1.6578388
11	0xc0325539	-2.7864516
12	0xbf05916e	-0.52175033
13	0xc05df5b1	-3.4681208
14	0xbe459612	-0.19295529
15	0x3fb388ac	1.4026084
16	0x3dd5a4df	0.10431837
17	0xc075d67b	-3.8412158
18	0xbe54a862	-0.20767358
19	0x3f35f3a8	0.71074915
20	0xc0002149	-2.0020316
21	0xbeb75383	-0.35805902
22	0x3f8efcee	1.1170938
23	0x3f791c36	0.9730867
24	0xbf894fea	-1.0727513
25	0xbf882346	-1.0635765
26	0xc04bc9a3	-3.184182
27	0x3ed0b057	0.40759537
28	0x3edb6e35	0.4285752
29	0x3fbe787d	1.488052
30	0xbf9d968b	-1.2311567
31	0xbf62d0f8	-0.8860011
32	0xc040fe50	-3.015522
33	0x3de842c7	0.11340862
34	0xbe4699f8	-0.19394672
35	0x3daee906	0.085405394
36	0x400fd414	2.2473192
37	0x3ed891bb	0.42298684
38	0xbf39a72c	-0.7252071
39	0x4011f419	2.2805235
40	0x3ec172b0	0.37782812
41	0x3ddf0893	0.10890307
42	0xbf9d9db0	-1.2313747
43	0xc041dcd9	-3.0291045
44	0xbfdfc9a4	-1.7483411
45	0x3f988179	1.1914512
46	0xbf9433c2	-1.1578295
47	0xc042b609	-3.0423605

lstm.weight_ih_l0 f4 [256, 8]
0	0x3eab08ff	0.334053
1	0x3e50a836	0.20376667
2	0xbf21f7b9	-0.6326862
3	0xbe8a8d3e	-0.27060884
4	0x3cb157bd	0.021648282
5	0x3de929f5	0.11384956
6	0xbeb7aa21	-0.35871986
7	0xbea9bb0a	-0.33150512
8	0xbe24eaa6	-0.16105136
9	0xbe74e95d	-0.23917146
10	0xbeaebc69	-0.3412812
11	0xbe10fd2a	-0.14159074
12	0xbd3b7dc3	-0.045774233
13	0x3e05f49f	0.13081597
14	0x3dd2bc6e	0.10289846
15	0x3ceb2b37	0.02870713
16	0x3e8c83a1	0.27444175
17	0xbed1a10a	-0.40943176
18	0xbee65196	-0.4498412
19	0xbeab00a9	-0.3339894
20	0xbeceb3a4	-0.4037143
21	0xbca6e928	-0.02037485
22	0x3d94e0e5	0.07269458
23	0xbe23030f	-0.15919136
24	0xbd9c8024	-0.076416284
25	0xbec5ab36	-0.38607186
26	0xbf0f6e02	-0.56027234
27	0x3d0047cc	0.03131847
28	0xbe53c6be	-0.20681283
29	0x3eea82d6	0.45802945
30	0xbe9d367d	-0.30705634
31	0xbec4f520	-0.38468266
32	0xbf24d9fc	-0.6439512
33	0xbf2afa3e	-0.6678809
34	0xbe0ef3cf	-0.13960193
35	0x3e6718e8	0.22568095
36	0x3de70ae4	0.11281374
37	0x3efc91ab	0.49329886
38	0xbdc839da	-0.09776659
39	0xbe1c2be6	-0.15251121
40	0xbe46561c	-0.19368786
41	0xbefb48aa	-0.49078876
42	0xbce8d875	-0.028423527
43	0x3e1b68d8	0.15176713
44	0xbea34b89	-0.31893566
45	0x3f4cf30f	0.8005838
46	0xbe9acc02	-0.3023377
47	0xbf2de1b8	-0.67922544
48	0xbeea4902	-0.45758826
49	0xbedcfe6d	-0.4316286
50	0xbe97217d	-0.29517737
51	0x3d83c82e	0.064346656
52	0x3e2fbd51	0.17162062
53	0x3ec07504	0.37589276
54	0xbec2cb98	-0.38045955
55	0xbec0d9f1	-0.37666276
56	0xbe7c70f2	-0.2465246
57	0xbea0f5a7	-0.31437418
58	0xbddcf448	-0.107887805
59	0x3e7420e3	0.2384067
60	0x3e9d5ff7	0.30737278
61	0xbf03e177	-0.5151591
62	0x3e70a83e	0.2350168
63	0x3f1f8885	0.6231769
64	0xbd17b107	-0.03703406
65	0xbebf0c6b	-0.37314162
66	0xbf5fcbc1	-0.8742028
67	0xbe630f8b	-0.22173898
68	0xbe7ca32e	-0.24671623
69	0x3e03c77b	0.12869065
70	0xbedf67ce	-0.43633884
71	0xbeb494db	-0.35269818
72	0xbe434df2	-0.19072703
73	0x3e1872b9	0.14887513
74	0xbec6a106	-0.38794726
75	0xbea91a0b	-0.33027682
76	0x3e6866e4	0.226955
77	0x3e71d21f	0.23615311
78	0xbe8da19f	-0.2766237
79	0xbdb25438	-0.0870747
80	0xbe137c4d	-0.14402886
81	0x3e93ae2c	0.2884382
82	0xbe5633a3	-0.20918135
83	0x3cda3a7b	0.026639214
84	0x3ed9beae	0.4252829
85	0x3e0cb204	0.13739783
86	0xbe89308c	-0.2679485
87	0xbd8b0e0c	-0.067897886
88	0xbd98f3d4	-0.074683815
89	0x3dea6f0e	0.11446963
90	0xbf145285	-0.57938415
91	0xbe7ead06	-0.2487069
92	0x3d59b690	0.05315262
93	0xbdd27f4b	-0.102781855
94	0xbe356fe9	-0.17718472
95	0x3e820ac4	0.2539884
96	0xbdbb9afa	-0.09160419
97	0x3e5cb3a5	0.21552904
98	0xbe632f0d	-0.22185917
99	0xbed27261	-0.4110289
100	0x3d1728d6	0.03690418
101	0xbec954f5	-0.3932263
102	0xbdf273a0	-0.1183846
103	0x3e5cfa62	0.21579888
104	0x3d7f0444	0.062259927
105	0x3f5236f5	0.8211511
106	0x3daee88e	0.0854045
107	0xbe99adcd	-0.30015412
108	0x3e8f7e44	0.2802602
109	0xbeaac0b1	-0.33350137
110	0xbf0a99a3	-0.5414068
111	0x3dfb7784	0.12278655
112	0x3edd102c	0.431764
113	0xbd6a4c0a	-0.057201423
114	0xbe3d54b9	-0.1848935
115	0xbefe0752	-0.4961496
116	0xbf0bcc4b	-0.546086
117	0xbee8a8aa	-0.4544118
118	0xbc45640a	-0.012047777
119	0xbe677424	-0.22602898
120	0xbea710d4	-0.32630026
121	0xbf276a41	-0.65396506
122	0xbe3598d2	-0.17734078
123	0x3e8c3a2e	0.27388138
124	0x3e9a77d6	0.30169553
125	0xbea8d4d9	-0.3297489
126	0x3eb2dbab	0.34933218
127	0x3f24843e	0.64264286
128	0x3e845d70	0.25852537
129	0xbece5083	-0.402958
130	0xbf42c33f	-0.7607917
131	0xbe41af77	-0.18914591
132	0xbe515082	-0.20440868
133	0x3eba330f	0.3636708
134	0xbf095cf5	-0.53657466
135	0xbf0c7ec5	-0.54880935
136	0xbda85cb8	-0.0822081
137	0xbd61d8d7	-0.055138435
138	0xbf4bc0e8	-0.79591227
139	0xbe72a83d	-0.2369699
140	0x3ccd888a	0.025089521
141	0x3ec692ba	0.38783818
142	0xbf2d4d87	-0.6769642
143	0xbf186880	-0.59534454
144	0x3e87f1a2	0.2655154
145	0xbeaeecc6	-0.3416502
146	0xbea04780	-0.3130455
147	0xbe21ac45	-0.15788372
148	0xbef9a73f	-0.4876041
149	0x3e2520c4	0.1612578
150	0x3c92edbf	0.017935632
151	0xbea9bc37	-0.3315141
152	0xbf1c4252	-0.61038697
153	0xbf05a6e9	-0.5220781
154	0xbe127028	-0.14300597
155	0xbc59454d	-0.0132611515
156	0x3de770b5	0.11300794
157	0x3ee96309	0.4558337
158	0xbe2b7cf8	-0.1674689
159	0x3dac863b	0.0842404
160	0x3eb3be5c	0.3510617
161	0x3eeea2b8	0.4660852
162	0xbe672057	-0.2257093
163	0xbf6b2ee6	-0.91868436
164	0x3de6aa09	0.112629004
165	0xbd3314d7	-0.043721046
166	0xbf068f65	-0.5256255
167	0xbefa5f95	-0.48901048
168	0xbe3ebd9f	-0.18627022
169	0xbf087180	-0.5329819
170	0xbfa3cc77	-1.2796773
171	0xbe249bcf	-0.16075061
172	0x3bb0d5e1	0.00539659
173	0xbf036a33	-0.5133392
174	0xbdd3aea3	-0.10336044
175	0x3ed439c4	0.41450322
176	0xbf34fdb0	-0.70699596
177	0xbe3e9146	-0.18610105
178	0xbeea7719	-0.4579399
179	0xbe0402bd	-0.1289167
180	0xbd236f40	-0.03990102
181	0x3efcfc56	0.49411267
182	0xbe0a963c	-0.13533872
183	0xbd9271ca	-0.0715061
184	0x3e69aac5	0.2281905
185	0xbcebd108	-0.028786197
186	0xbf00e51f	-0.5034961
187	0x3c6e399b	0.014540101
188	0xbc8288b0	-0.015934318
189	0xbe032efe	-0.12810895
190	0xbce1eba1	-0.027578177
191	0xbe2607b5	-0.16213877
192	0x3c2058fc	0.0097868405
193	0x3ed85bda	0.42257577
194	0xbf02d216	-0.51101816
195	0xbe6858db	-0.22690146
196	0x3ec0d710	0.3766408
197	0x3de761de	0.112979636
198	0xbf265f41	-0.64989096
199	0xbeaa7dcd	-0.33299103
200	0x3e38d911	0.18051554
201	0xbdc5e1d6	-0.096622154
202	0x3d859021	0.06521631
203	0xbece10af	-0.40247104
204	0xbdd3afdd	-0.10336278
205	0xbec6dde8	-0.38841176
206	0xbc41cdea	-0.011828879
207	0x3d7d5796	0.061851107
208	0xbd6c92af	-0.057757076
209	0xbe1d84ae	-0.15382645
210	0xbe6f1db9	-0.23351182
211	0xbecfb2a6	-0.40565985
212	0xbe2be276	-0.16785607
213	0x3ea8fc4c	0.33004987
214	0xbe87f048	-0.26550508
215	0xbe1cee5c	-0.15325302
216	0x3c7548fe	0.014971016
217	0xbf1f39b3	-0.6219742
218	0xbe5abae6	-0.21360359
219	0xbe636c0e	-0.22209188
220	0xbed22f0d	-0.41051522
221	0x3dae04c1	0.084970005
222	0xbb0e1450	-0.0021679588
223	0xbe85be34	-0.26121676
224	0xbe61e7e4	-0.22061116
225	0xbe211d96	-0.15733942
226	0x3e154085	0.14575393
227	0x3ea47906	0.32123584
228	0x3dba31f8	0.09091562
229	0x3d8e488b	0.0694743
230	0x3dbd0a89	0.09230525
231	0x3e9699c5	0.29414192
232	0xbf0837c1	-0.53210074
233	0x3ceaefcf	0.028678803
234	0xbdc73724	-0.09727314
235	0xbe131324	-0.1436277
236	0x3e72e281	0.23719217
237	0x3e6813cf	0.22663806
238	0xbf1a15b5	-0.6018937
239	0xbd8b9708	-0.06815916
240	0x3c9b322c	0.018944822
241	0x3d0dd5be	0.03462767
242	0xbf60bfc4	-0.8779261
243	0xbea3c47e	-0.3198585
244	0x3d991203	0.074741386
245	0x3e2f96b8	0.17147338
246	0xbf15802a	-0.5839869
247	0xb9af269c	-0.00033407367
248	0x3e95d584	0.29264462
249	0xbdc42185	-0.09576706
250	0x3d4c7446	0.049915574
251	0xbeecc13a	-0.4624117
252	0xbf05778f	-0.52135557
253	0xbefb3353	-0.49062595
254	0x3d2c8738	0.042121142
255	0x3dee26e5	0.11628512

lstm.weight_hh_l0 f4 [256, 64]
0	0x3f31a304	0.6938937
1	0xbe1faa62	-0.1559234
2	0x3e02260c	0.12709826
3	0xbe813698	-0.25236964
4	0xbcf22bdb	-0.029561928
5	0xbf6a3e09	-0.9150091
6	0xbead4cc0	-0.33847618
7	0x3eb038a6	0.3441822
8	0x3e285536	0.16438755
9	0xbe544fb9	-0.20733537
10	0x3e89c6c6	0.26909465
11	0xbdf27de2	-0.118404165
12	0xbe16453f	-0.14674853
13	0x3e6e7ed9	0.23290576
14	0xbe9ecaac	-0.31014
15	0xbe2d6154	-0.16931659
16	0xbe002e76	-0.12517723
17	0x3dfd9bf8	0.12383264
18	0xbe148888	-0.14505208
19	0xbe0890b2	-0.13336447
20	0x3e54fad4	0.20798808
21	0x3dda965c	0.1067321
22	0x3eca75b8	0.39542937
23	0xbe31abbe	-0.1735067
24	0x3e477714	0.19479018
25	0xbed71098	-0.42004848
26	0x3f193652	0.5984851
27	0xbd0aabbf	-0.033855196
28	0xbd177667	-0.03697815
29	0xbc656b1a	-0.014002586
30	0x3c30275f	0.010751574
31	0x3ec81624	0.39079392
32	0x3dbe0494	0.09278217
33	0xbd9732f6	-0.07382767
34	0xbecfdd16	-0.40598363
35	0xbe8c790b	-0.27436098
36	0x3b5dd05f	0.0033846123
37	0xbe33f135	-0.17572482
38	0xbe0226d0	-0.12710118
39	0x3f09f762	0.538931
40	0xbec1d5b8	-0.37858367
41	0xbf73dcb0	-0.9525862
42	0x3d45cfc1	0.048293833
43	0x3dbf7dcf	0.09350168
44	0x3f28161a	0.65658724
45	0x3ef74b71	0.48299745
46	0xbdc71c79	-0.097222276
47	0x3eee6e8f	0.46568725
48	0x3e40ae9f	0.18816613
49	0xbde11a40	-0.10991335
50	0x3e4735c7	0.19454108
51	0x3e4cef04	0.20013052
52	0xbe33f7df	-0.17575024
53	0x3e7e3cd2	0.24827889
54	0x3e21b76f	0.1579263
55	0x3f4208c3	0.7579462
56	0x3e9921f0	0.29908705
57	0x3ec0bca5	0.37643924
58	0x3eee494a	0.4654029
59	0xbd787680	-0.060659885
60	0xbd83e8c0	-0.06440878
61	0xbec4493a	-0.38337117
62	0xbe9a50b9	-0.30139711
63	0x3de78fd9	0.11306734
64	0x3f3c57a0	0.73571205
65	0xbe9d0ce4	-0.30673897
66	0x3e408a71	0.18802811
67	0xbe970b26	-0.29500693
68	0xbe3a707c	-0.18206972
69	0xbed23136	-0.4105317
70	0x3bb2542c	0.005442163
71	0xbe94320c	-0.28944433
72	0x3e9968b1	0.29962686
73	0x3e9dd1a9	0.3082402
74	0x3ea2c039	0.3178728
75	0x3e33b16b	0.17548148
76	0xbdbb6de8	-0.09151822
77	0x3e9b1fa2	0.3029757
78	0x3f115d1f	0.56782717
79	0x3d285b79	0.04110286
80	0xbed10538	-0.40824294
81	0x3f50072b	0.8126094
82	0x3ef6e2dc	0.48219955
83	0xbe032367	-0.12806474
84	0x3f2098dd	0.6273325
85	0x3f29b39f	0.66289705
86	0xbe8362f4	-0.25661433
87	0xbe93aac2	-0.28841215
88	0xbe7af74a	-0.24508396
89	0xbeb31619	-0.34977797
90	0x3ef73fec	0.48290956
91	0x3df694cc	0.120400995
92	0xbceadfdb	-0.028671196
93	0xbee9c04e	-0.4565453
94	0xbf002e96	-0.50071084
95	0xbe171595	-0.14754327
96	0x3e5d6517	0.21620594
97	0xbe0798d8	-0.13241899
98	0xbf4e107a	-0.8049389
99	0x3e6c3d86	0.23070344
100	0x3ec9c899	0.39410856
101	0xbe8012c4	-0.25014317
102	0xbebdf37b	-0.37099823
103	0x3edbf227	0.42958185
104	0x3d060337	0.03271791
105	0x3d78e1c8	0.060762197
106	0xbe97dd07	-0.29660818
107	0x3e357544	0.17720515
108	0x3d47cd42	0.048779733
109	0x3e050356	0.12989554
110	0xbe80a7ad	-0.25127926
111	0x3e2f6198	0.17127073
112	0x3e5dfa45	0.21677501
113	0x3dc00afd	0.09377096
114	0xbea66a39	-0.32502916
115	0x3e631dde	0.22179362
116	0xbf496af3	-0.78678817
117	0x3da7ec55	0.08199374
118	0x3f1586ec	0.58409
119	0x3e7b2e61	0.24529411
120	0xbd354cee	-0.04426282
121	0xbe91e43a	-0.28494436
122	0xbe1d1d01	-0.15343095
123	0x3d9683fe	0.07349394
124	0x3edb0ff0	0.42785597
125	0xbf1cc867	-0.6124329
126	0x3cd9c514	0.026583232
127	0x3f03cf58	0.51488256
128	0x3f1e76e2	0.6190015
129	0xbf0b73f4	-0.54473805
130	0x3f2b6779	0.6695476
131	0xbeb2dc1b	-0.34933552
132	0xbdbc6925	-0.09199742
133	0xbf26c76e	-0.65148056
134	0x3e1cc08c	0.15307826
135	0x3e8b02ce	0.27150577
136	0x3dc34db1	0.09536303
137	0x3eb4145d	0.35171786
138	0x3f238989	0.63881737
139	0x3ec053cb	0.3756393
140	0x3ed0dd9f	0.40794083
141	0xbcbcf678	-0.023066744
142	0x3ec6e026	0.38842887
143	0x3e72bacc	0.2370407
144	0xbe0fd351	-0.14045455
145	0x3ecdac18	0.4017036
146	0x3e02418d	0.12720318
147	0xbedba568	-0.42899632
148	0x3ea613ec	0.32437074
149	0x3e56e260	0.20984793
150	0x3f2047ba	0.62609446
151	0x3e39af50	0.18133283
152	0xbed856c4	-0.42253697
153	0xbcdf569d	-0.02726298
154	0x3d958f99	0.0730278
155	0xbafcd3f8	-0.0019289246
156	0x3ddb5020	0.10708642
157	0xbee11165	-0.43958583
158	0xbea5ed9f	-0.32407853
159	0xbee90a5b	-0.45515713
160	0x3f451f33	0.7700073
161	0x3e7f029e	0.24903342
162	0xbf022f73	-0.5085365
163	0xbdbeeb8b	-0.0932227
164	0x3eeb7a8c	0.45991933
165	0xbe970e42	-0.29503065
166	0x3f773e70	0.9657965
167	0x3ec2835c	0.37990844
168	0xbdb7c5e7	-0.08973294
169	0xbdd1326b	-0.102146946
170	0xbd7f9974	-0.062402204
171	0x3ed6c446	0.4194662
172	0x3e9a5ba6	0.30148047
173	0xbdec476c	-0.1153706
174	0xbd1f9036	-0.03895589
175	0x3d2559f8	0.040369004
176	0x3cbffb7f	0.023435352
177	0xbe1200e5	-0.14258154
178	0x3d76a362	0.060214408
179	0x3ece0f9f	0.40246293
180	0xbf168390	-0.587945
181	0xbe28811b	-0.164555
182	0xbe19ddf3	-0.15026073
183	0x3c6b9d1f	0.014380722
184	0x3efb6f31	0.4910827
185	0x3e731493	0.23738317
186	0xbec27b93	-0.37984905
187	0x3e6af55f	0.22945164
188	0x3d66d8f8	0.05635926
189	0xbd836533	-0.064157866
190	0xbed864cf	-0.4226441
191	0x3f0fbe81	0.5615006
192	0x3e241dc6	0.16026983
193	0xbecd0605	-0.40043655
194	0x3ec76d94	0.3895079
195	0xbf3d49ef	-0.7394094
196	0x3eab769a	0.33488923
197	0xbf605a60	-0.876379
198	0xbc27539a	-0.010212803
199	0x3d363a65	0.044489283
200	0x3dd361d7	0.10321396
201	0x3c90bc3e	0.017667886
202	0x3f34a60f	0.70565885
203	0x3f2a97ed	0.6663807
204	0x3e0622e5	0.13099249
205	0xbebb685d	-0.3660306
206	0xbebd9f4a	-0.3703559
207	0xbdce4c67	-0.10073166
208	0xbe15fc83	-0.14647107
209	0x3e9f014b	0.31055674
210	0x3d960e10	0.07326901
211	0xbd149f5f	-0.0362848
212	0xbd399168	-0.045304686
213	0x3ed91bba	0.42403966
214	0x3f37d987	0.71816295
215	0xbde6fca5	-0.11278657
216	0xbe325edd	-0.17419
217	0xbe8d86bd	-0.2764186
218	0x3ed39202	0.41322333
219	0xbdd15e73	-0.10223093
220	0xbe29d1e7	-0.16583978
221	0xbe4db36d	-0.20087977
222	0xbeac5a07	-0.33662435
223	0x3dabd5e2	0.08390404
224	0x3e74a0f3	0.23889522
225	0x3ee2f4f3	0.44327506
226	0xbee3cb2d	-0.44490948
227	0xbe1fa2f4	-0.15589505
228	0x3f009a36	0.5023531
229	0xbe4bb12c	-0.19891804
230	0x3dd2a8b2	0.10286082
231	0x3e3cc77d	0.18435474
232	0xbf0298a5	-0.5101417
233	0xbe4e572e	-0.20150444
234	0xbe8b1128	-0.27161527
235	0xbe9be064	-0.30444634
236	0x3f02bc75	0.5106881
237	0x3d9b8144	0.07593015
238	0xbf0938fb	-0.5360257
239	0x3e8e7f94	0.2783171
240	0x3edc0ca8	0.42978406
241	0xbe1a1e84	-0.15050703
242	0xbeb69129	-0.35657623
243	0x3eed1294	0.46303236
244	0xbedc0af3	-0.42977104
245	0xbd32bc9e	-0.04363691
246	0xbe5750c0	-0.21026897
247	0x3eb990db	0.36243328
248	0x3c9f5684	0.019450434
249	0x3f035bb7	0.5131182
250	0xbd3bef5d	-0.04588257
251	0x3e93b56e	0.28849357
252	0xbdb8695d	-0.090044715
253	0xbe0970ab	-0.13421886
254	0xbf0aed25	-0.54268104
255	0x3e8f19e1	0.27949432

lstm.bias_ih_l0 f4 [256]
0	0x3e11f6c7	0.14254294
1	0x3e823434	0.25430453
2	0x3e889a6d	0.26680318
3	0x3ead68ff	0.33869168
4	0x3ea86198	0.32886958
5	0x3e55818f	0.20850204
6	0x3e0c6ebc	0.13714117
7	0x3e7afb87	0.24510013
8	0x3eece06d	0.46264973
9	0x3e9e5a66	0.30928344
10	0xbe244b59	-0.16044368
11	0x3eaab74f	0.33342978
12	0x3e9f715d	0.31141177
13	0xbb8f1481	-0.004366458
14	0x3e3156d6	0.17318282
15	0x3e5e7a01	0.21726228
16	0x3e89a32e	0.2688231
17	0x3e567256	0.20942053
18	0x3e2df6d9	0.16988696
19	0x3e81b7f8	0.2533567
20	0x3d8a70d3	0.06759801
21	0x3f450327	0.76957935
22	0x3eb46d22	0.35239512
23	0xbc31542a	-0.010823289
24	0xbe93c7dc	-0.28863418
25	0x3ede68b4	0.43439257
26	0x3ed02736	0.40654916
27	0x3f0c5401	0.5481568
28	0x3dd75196	0.10513608
29	0x3e8001fc	0.25001514
30	0x3ec66b31	0.38753656
31	0x3e8c712b	0.2743009
32	0x3eb4d31a	0.35317308
33	0x3e923b5b	0.2856091
34	0x3e9e4559	0.30912283
35	0x3ea897f8	0.32928443
36	0x3d4371f5	0.0477161
37	0x3e7fd9ea	0.24985471
38	0x3e09edc4	0.13469607
39	0x3e888750	0.26665735
40	0x3e889067	0.2667267
41	0x3c848b9e	0.016179856
42	0x3e18fdc3	0.14940552
43	0x3ed7808d	0.42090264
44	0x3eb71c34	0.35763705
45	0x3d05799a	0.03258667
46	0x3eacc94f	0.33747336
47	0x3e366131	0.17810513
48	0x3ee63f1d	0.44970027
49	0x3e7f0d37	0.24907385
50	0x3e495bc1	0.19663908
51	0x3f0665d7	0.52499145
52	0x3e2ce881	0.16885568
53	0x3e8a46b2	0.2700706
54	0x3db0b2fc	0.086278886
55	0x3db88556	0.09009807
56	0x3ec04fb6	0.37560815
57	0x3e91aba7	0.28451273
58	0x3e4a012c	0.1972701
59	0x3b0186fc	0.0019764295
60	0x3e3bcda9	0.18340172
61	0x3c8a9045	0.016914496
62	0x3f1173ba	0.5681721
63	0x3f139a8b	0.5765769
64	0x3e2a7a43	0.16648202
65	0x3d46c7f2	0.048530526
66	0x3ec89928	0.3917935
67	0x3ed5603a	0.41674978
68	0x3de0a85b	0.10969611
69	0x3e6aa831	0.22915722
70	0xbce051ca	-0.02738275
71	0xbd9a6159	-0.07538099
72	0xbcae32a4	-0.021264382
73	0x3d822aae	0.06355797
74	0x3e9489f5	0.29011503
75	0xbdb36395	-0.08759228
76	0x3d3619e2	0.044458278
77	0x3e9477be	0.28997606
78	0x3dc624ef	0.09675013
79	0x3d9f06e2	0.07764985
80	0xbcdeccd8	-0.027197286
81	0xbdbff18b	-0.093722425
82	0xbebad847	-0.36493132
83	0x3c304199	0.010757827
84	0x3d6de5e7	0.05808058
85	0x3da8773d	0.08225868
86	0xbe2b54fd	-0.16731639
87	0xbd54ef9d	-0.051986326
88	0x3d8eccea	0.06972678
89	0xbc281aba	-0.010260278
90	0x3ba155ab	0.0049235425
91	0xbcd012a8	-0.025399521
92	0x3daf2f29	0.08553917
93	0x3ba66b7f	0.0050787325
94	0x3ec5189a	0.38495332
95	0x3da1d604	0.07902148
96	0x3eafa304	0.3430406
97	0xbced7f61	-0.028991403
98	0x3dee5c70	0.11638725
99	0x3c201184	0.009769801
100	0x3dd475cb	0.1037403
101	0x3d437d05	0.04772665
102	0x3d4bec2d	0.04978578
103	0x3d812f7d	0.06307886
104	0x3de5b989	0.11217029
105	0xbeb97790	-0.3622403
106	0x3d646af4	0.05576606
107	0x3e0587e5	0.13040121
108	0x3dbfb5e0	0.09360862
109	0x3e9721d4	0.29517996
110	0xbe0167a8	-0.12637198
111	0xbe35a5b5	-0.17738993
112	0x3e504470	0.20338607
113	0x3f01288b	0.5045249
114	0xbde79dee	-0.113094196
115	0x3ebafb8d	0.36520043
116	0x3ed9e69b	0.4255875
117	0x3c642f2d	0.013927263
118	0xbe1b7c9b	-0.15184252
119	0xbe17f28b	-0.14838617
120	0x3dbf6026	0.09344511
121	0x3daed004	0.085357696
122	0xbda3d57f	-0.079997055
123	0xbd25e0a0	-0.040497422
124	0xbeb6c764	-0.35698998
125	0x3d96bbe8	0.07360059
126	0xbe02006b	-0.12695472
127	0x3e8a191e	0.26972288
128	0xbc1a665f	-0.009423821
129	0xbe0f202a	-0.13977113
130	0xbd61a9f9	-0.05509374
131	0xbea2549c	-0.31705177
132	0xbe115bb5	-0.1419514
133	0xbe8ad25e	-0.27113622
134	0x3c9199ed	0.017773593
135	0x3d26dc50	0.04073745
136	0x3d61153e	0.0549519
137	0x3e40e893	0.1883872
138	0x3d6c6a50	0.057718575
139	0x3e854f70	0.26037169
140	0x3e8369eb	0.25666746
141	0xbddc4df5	-0.107570566
142	0x3e1b5cda	0.15172139
143	0xbca3238b	-0.01991441
144	0xbe09fb8d	-0.13474865
145	0x3db64799	0.08900375
146	0x3e3557cd	0.17709275
147	0xbe1c693e	-0.15274522
148	0x3e8663dc	0.26248062
149	0xbdab110b	-0.0835286
150	0x3e352437	0.17689596
151	0x3de66853	0.11250367
152	0xbdb92a39	-0.090412565
153	0xbdfb51d5	-0.122714676
154	0x3d4603ac	0.048343346
155	0x3e49c857	0.1970533
156	0x3c62fe78	0.013854615
157	0x3dc31c92	0.09526934
158	0xbdbf54e6	-0.09342365
159	0x3d38d389	0.04512361
160	0x3e14bad4	0.14524394
161	0xbd99b60b	-0.07505425
162	0xbe51e68f	-0.20498107
163	0x3be20106	0.0068970947
164	0x3e321bef	0.17393468
165	0xbedff84c	-0.43744123
166	0x3da00bd7	0.07814758
167	0x3e3abd48	0.18236268
168	0xbd5a0b01	-0.05323315
169	0xbd099a7a	-0.033594586
170	0xbe62bc08	-0.2214204
171	0x3d320db2	0.043470092
172	0xbc0576d1	-0.008146004
173	0xbe0a406b	-0.13501136
174	0xbe04062c	-0.1289298
175	0x3e6d35ee	0.23165104
176	0x3e0e1072	0.13873461
177	0xbe643dd7	-0.22289215
178	0x3dea1af5	0.11430923
179	0x3db4be0d	0.08825312
180	0xbdefa90c	-0.11702165
181	0x3d832a70	0.06404579
182	0x3db7623a	0.08954282
183	0x3e482127	0.19543897
184	0x3c7054f8	0.014668696
185	0x3e9a11df	0.3009176
186	0xbe281767	-0.16415177
187	0x3c228e6b	0.00992165
188	0x3d6bf098	0.057602495
189	0xbe470dfd	-0.1943893
190	0xbc71ed80	-0.014766097
191	0xbd533009	-0.05155948
192	0x3e944bea	0.28964168
193	0x3e468efe	0.19390485
194	0x3ee2e266	0.44313353
195	0x3e0a1614	0.13484985
196	0x3e0f2a15	0.13980897
197	0x3ea4bd39	0.32175615
198	0x3ddd9bd4	0.108207375
199	0x3e870725	0.26372638
200	0xbc66705e	-0.014064876
201	0x3ed2731c	0.41103446
202	0x3e227f43	0.15868859
203	0x3ec4b3b7	0.38418362
204	0x3e5f4f94	0.218077
205	0x3e9639b0	0.29340887
206	0x3f22273e	0.6334113
207	0x3eb87a71	0.36030915
208	0x3e2ffbe9	0.1718594
209	0x3e9ee897	0.31036827
210	0x3e1cd0e3	0.15314059
211	0x3eb6ec82	0.35727316
212	0x3e9d2b01	0.30696872
213	0x3d7a84a5	0.061161656
214	0x3e16ed88	0.14739048
215	0x3e2e6b73	0.17033176
216	0x3e71c7b5	0.23611338
217	0x3ec327db	0.38116345
218	0x3e93ceb1	0.2886863
219	0x3eca0456	0.39456433
220	0x3e2d7824	0.16940361
221	0x3eb585f4	0.3545376
222	0x3d4b44e9	0.049626265
223	0x3d2e8615	0.04260834
224	0x3e99f32c	0.30068338
225	0x3e93a9c7	0.28840467
226	0x3ee04efc	0.4381026
227	0x3ea2dbf5	0.3180844
228	0x3e77a5e4	0.24184376
229	0x3ea9a859	0.33136252
230	0x3e4a653e	0.19765183
231	0x3eb4bef6	0.35301942
232	0x3eebd4c5	0.46060768
233	0x3f0707ca	0.5274626
234	0x3e192d9b	0.14958803
235	0x3e42eac3	0.19034867
236	0x3e8873b4	0.26650774
237	0x3e67a0b1	0.22619893
238	0x3e9f4659	0.31108359
239	0x3d90f960	0.070788145
240	0x3f04880f	0.5177011
241	0x3ea1e0ad	0.31616727
242	0x3ec39166	0.38196868
243	0x3e10bb57	0.14133964
244	0x3e2d3e17	0.16918217
245	0x3e45b9f3	0.19309215
246	0x3c8fc62e	0.017550554
247	0x3eaf61b6	0.34254235
248	0x3e95b742	0.29241377
249	0x3ef8969a	0.485524
250	0x3eaf0129	0.34180573
251	0x3e94acbd	0.2903804
252	0x3d192ec0	0.0373981
253	0x3e96e74c	0.2947334
254	0x3eaeb8af	0.34125277
255	0x3e94292f	0.2893767

lstm.bias_hh_l0 f4 [256]
0	0x3dccfe69	0.100094624
1	0x3de35471	0.1110009
2	0x3eb2977f	0.34881207
3	0x3e46bf50	0.19408917
4	0x3e7fdb11	0.24985911
5	0x3e2e6015	0.1702884
6	0x3e8f2bb3	0.27963027
7	0x3e241ddb	0.16027014
8	0x3ecde050	0.402102
9	0x3e922890	0.28546572
10	0xbe139659	-0.14412822
11	0x3eacaf5a	0.33727533
12	0x3e0019b4	0.12509805
13	0x3d507552	0.050893135
14	0x3e97d329	0.2965329
15	0x3eb78e66	0.3585083
16	0x3e74fd39	0.23924722
17	0x3d6248ee	0.055245332
18	0x3e991e04	0.29905713
19	0x3ec22601	0.3791962
20	0x3d4db8c4	0.050225034
21	0x3f3c3b25	0.7352775
22	0x3eb75d33	0.35813293
23	0xbd4fe545	-0.050755758
24	0xbe9d1441	-0.30679515
25	0x3e853aee	0.26021522
26	0x3ea0c827	0.31402704
27	0x3f07239c	0.5278871
28	0xbdbca0f1	-0.09210385
29	0x3e88a7a0	0.26690388
30	0x3ee2e3af	0.44314334
31	0x3e4f7a4f	0.20261501
32	0x3e33953c	0.17537397
33	0x3e982c0e	0.2972111
34	0x3e9b258c	0.30302083
35	0x3ef99514	0.4874655
36	0x3e6c2e63	0.2306457
37	0x3e87825c	0.26466644
38	0x3c7a5b62	0.015280576
39	0x3e9ffb2a	0.3124631
40	0x3e982be4	0.29720986
41	0x3cc00cd1	0.023443611
42	0x3de4ef71	0.11178482
43	0x3ed5dd8b	0.41770586
44	0x3e78ee0e	0.2430956
45	0x3d1d6070	0.038422048
46	0x3e9ec05c	0.31006134
47	0x3e21c263	0.15796809
48	0x3ed59fa0	0.41723347
49	0x3eab7efc	0.3349532
50	0x3e3fca6f	0.18729566
51	0x3f039250	0.5139513
52	0x3e128252	0.14307526
53	0x3e68123e	0.22663209
54	0x3be3fbdf	0.0069575156
55	0xbcab4635	-0.0209075
56	0x3edae361	0.427516
57	0x3e271d31	0.1631973
58	0x3e6509a4	0.22366959
59	0xbc7827be	-0.015146194
60	0x3e405375	0.18781836
61	0xbca4a07d	-0.020096058
62	0x3eff2baa	0.49838
63	0x3ee773ea	0.45205623
64	0x3e667dc3	0.22508912
65	0x3e45ee36	0.19329152
66	0x3e8624d0	0.2619996
67	0x3ec12d8d	0.37730065
68	0x3bd8bc02	0.006614209
69	0x3e87b5bd	0.26505843
70	0xbe424bec	-0.18974274
71	0x3d3afb00	0.04564953
72	0x3e2cb1b0	0.16864657
73	0x3d904f7e	0.07046412
74	0x3ebc8e48	0.36827302
75	0xbd5de4ac	-0.054173157
76	0xbd483135	-0.048875052
77	0x3ed23bc1	0.41061214
78	0xbde5d159	-0.112215705
79	0x3d3af45d	0.0456432
80	0x3cedb97d	0.029019112
81	0x3d440120	0.047852635
82	0xbe6c8b6b	-0.23100059
83	0x3e329b76	0.17442116
84	0x3de7cfa0	0.11318898
85	0xbc798d44	-0.015231434
86	0xbe0372ec	-0.12836808
87	0x3d91b1ab	0.071139656
88	0x3dafb5a7	0.08579569
89	0x3cc5d567	0.02414961
90	0x3c5b2f23	0.0133779375
91	0xbe1e9e78	-0.15490139
92	0x3c8472bb	0.016167989
93	0x3d9eb883	0.077500366
94	0x3ea66c1c	0.32504356
95	0x3e274e57	0.16338478
96	0x3e0125e9	0.12612118
97	0xbd078f27	-0.033095505
98	0x3de3ef1f	0.11129593
99	0x3d36062f	0.04443949
100	0x3ca8a2c5	0.020585427
101	0xbc0d6db8	-0.008632116
102	0xbd07a23e	-0.03311371
103	0xbd7bf5e3	-0.061513793
104	0x3e0b7ba1	0.1362138
105	0xbe99ce6d	-0.30040303
106	0x3e586aa0	0.21134424
107	0x3e146a16	0.14493594
108	0x3cf6c801	0.030124666
109	0x3ea376e6	0.3192665
110	0xbe467699	-0.19381179
111	0xbe2af62e	-0.16695473
112	0x3e792a00	0.24332428
113	0x3e9bfb6e	0.30465263
114	0x3d2aa4c5	0.041661043
115	0x3ec9f033	0.3944107
116	0x3eb81295	0.35951677
117	0x3d8919e4	0.06694391
118	0x3d2614bc	0.040547118
119	0xbe28526d	-0.16437693
120	0x3dd24979	0.1026792
121	0x3e64ede2	0.2235637
122	0x3c06a9c1	0.008219183
123	0xbe4f54e1	-0.20247222
124	0xbe9b55f9	-0.3033903
125	0x3dac4bf1	0.08412922
126	0xbe7a5230	-0.24445415
127	0x3e74f25b	0.23920576
128	0x3ce3a2d7	0.027787609
129	0xbe2f4695	-0.17116769
130	0xbdd7ec71	-0.105431445
131	0xbebe0156	-0.37110394
132	0xbde4d89d	-0.11174128
133	0xbe3e848c	-0.1860525
134	0xbe037029	-0.12835754
135	0xbd6c8df8	-0.05775258
136	0xbd154cab	-0.03645007
137	0x3e9d2466	0.30691832
138	0x3ccc6c25	0.024953911
139	0x3e95b014	0.292359
140	0x3e4a66c5	0.19765766
141	0x3d5f23c3	0.054477464
142	0x3da1d7bc	0.07902476
143	0xbccc4747	-0.024936331
144	0xbdc483ce	-0.09595452
145	0x3dc63bbe	0.09679364
146	0x3c76542e	0.015034718
147	0xbe410846	-0.18850812
148	0x3e931026	0.28723258
149	0x3d85ee1c	0.065395564
150	0x3e2734a5	0.16328676
151	0xbd90c314	-0.07068458
152	0xbe8f1308	-0.27944207
153	0x3a682734	0.00088559394
154	0x3e4f286f	0.20230268
155	0x3e365b0a	0.17808166
156	0x3e08c112	0.133549
157	0xbc8a5e53	-0.01689068
158	0xbdf09bf2	-0.11748494
159	0xbb35a0f0	-0.0027714334
160	0x3e156859	0.14590587
161	0x3dbad4bb	0.09122606
162	0xbdc86e45	-0.09786657
163	0x3e221f46	0.15832242
164	0x3e6a029c	0.22852558
165	0xbee57a85	-0.44820037
166	0x3dd3cb95	0.103415646
167	0x3d998602	0.07496263
168	0xbe10edfb	-0.14153282
169	0x3d64fd14	0.055905417
170	0xbeaa178f	-0.332211
171	0x3e33d615	0.17562135
172	0x3e25300f	0.16131614
173	0xbe4be7f3	-0.199127
174	0xbdb20f91	-0.08694375
175	0x3e5a37df	0.21310376
176	0x3da4b4d2	0.08042301
177	0xbe13c06e	-0.14428875
178	0x3d9ef407	0.07761388
179	0xbc911f7b	-0.017715206
180	0xbe3e4c54	-0.18583804
181	0x3d1c298a	0.038125552
182	0xbd90dde8	-0.07073575
183	0x3e2a4684	0.16628462
184	0x3d408998	0.04700622
185	0x3e7be098	0.24597394
186	0xbd7e4b95	-0.0620838
187	0x3c0e4a11	0.008684651
188	0xbde3cbef	-0.111228816
189	0xbd9c03d1	-0.076179154
190	0xbd9e5f93	-0.07733073
191	0x3e37ccc6	0.17949209
192	0x3ec1aaec	0.37825716
193	0x3e61adf0	0.22039008
194	0x3e8cd6c2	0.27507597
195	0x3e74354d	0.23848458
196	0x3e7f9fac	0.24963254
197	0x3ea4c784	0.32183468
198	0x3e463d0a	0.19359222
199	0x3e28e5bd	0.16493888
200	0x3ca11e70	0.019667834
201	0x3e453f02	0.19262317
202	0x3e905a3a	0.28193837
203	0x3e906d03	0.2820817
204	0x3e994071	0.29931977
205	0x3e583c09	0.21116652
206	0x3ede6bb8	0.43441558
207	0x3e900164	0.2812606
208	0x3e6af06d	0.22943278
209	0x3eb67cfb	0.35642228
210	0x3e6e0881	0.23245431
211	0x3e9ea186	0.30982608
212	0x3e9e07c0	0.30865288
213	0x3d9cb636	0.076519415
214	0x3ddd02a6	0.10791521
215	0x3d5db105	0.054123897
216	0x3e366183	0.17810635
217	0x3e9472dc	0.2899388
218	0x3dea3c54	0.11437288
219	0x3f06bb1d	0.5262926
220	0x3e678d4e	0.22612497
221	0x3eb0d8ef	0.34540507
222	0x3c095811	0.008382813
223	0x3d6d4730	0.057929218
224	0x3e3f2f56	0.18670401
225	0x3eb3ca12	0.35115105
226	0x3f01a783	0.5064623
227	0x3e7d7d79	0.24754895
228	0x3dbe1c82	0.09282781
229	0x3e78d7e2	0.24301103
230	0x3d219e25	0.03945746
231	0x3ed3e586	0.4138605
232	0x3eec4087	0.4614298
233	0x3ee6e24f	0.45094535
234	0x3e6cca94	0.23124152
235	0x3ddefad9	0.10887689
236	0x3eb5861a	0.35453874
237	0x3e62a2ef	0.22132467
238	0x3ed93946	0.4242651
239	0x3d2144e3	0.039372336
240	0x3efa3886	0.4887125
241	0x3f064c28	0.52459955
242	0x3e94a26c	0.29030168
243	0x3e75381e	0.23947188
244	0x3e82ad21	0.25522712
245	0x3e46e231	0.19422223
246	0xbc2a99e2	-0.010412665
247	0x3e540339	0.20704354
248	0x3e94a18c	0.290295
249	0x3ea131f6	0.3148343
250	0x3e38c170	0.1804254
251	0x3e85b250	0.26112604
252	0x3e28a95a	0.16470852
253	0x3e9b279d	0.3030366
254	0x3e4cac96	0.19987711
255	0x3eaa88b1	0.33307412

env_fc1.weight f4 [16, 9]
0	0x3e4b7acd	0.19871064
1	0xbf839da3	-1.0282482
2	0x3c471691	0.012151376
3	0xbf1e5060	-0.6184139
4	0xbd8b3b8c	-0.06798467
5	0x3f2a2e94	0.6647732
6	0xbe877ada	-0.26460916
7	0x3f9ecd99	1.2406493
8	0x3f067f3e	0.52537906
9	0xbd82f515	-0.06394402
10	0x3e20d97b	0.15707962
11	0x3eca9cdf	0.39572808
12	0xbd3e619a	-0.0464798
13	0xbe55d43b	-0.20881741
14	0xbf0c7280	-0.54862213
15	0x3f69ed04	0.9137728
16	0x3eafa695	0.3430678
17	0x3eccba61	0.39985946
18	0xbf3570c7	-0.7087521
19	0x3f898346	1.0743186
20	0xbf34f769	-0.7069002
21	0xbec171dc	-0.3778218
22	0xbe7ca9d6	-0.24674162
23	0xbf7b3e7e	-0.9814223
24	0xbf41bc7a	-0.7567822
25	0x3f211137	0.6291689
26	0x3f35622e	0.70852935
27	0xbec0fc32	-0.3769241
28	0x3f408ccc	0.7521484
29	0x3f199260	0.59988976
30	0xbfdac584	-1.7091527
31	0xbe8c0656	-0.27348584
32	0x3ecc259a	0.39872438
33	0xbf72a722	-0.94786274
34	0x3e9a71a3	0.30164823
35	0x3dd48710	0.10377324
36	0xbd1db5d9	-0.0385035
37	0xbf01f080	-0.507576
38	0xbf02b55a	-0.5105797
39	0xbe128a16	-0.14310488
40	0x3e0cfe5a	0.13768902
41	0x3f9e8b11	1.238619
42	0xbcf10b8a	-0.029424448
43	0xbd225c6c	-0.03963892
44	0x3e3be840	0.18350315
45	0xbf4ede70	-0.8080816
46	0x3ed66e86	0.41881198
47	0xbfa2062b	-1.2658132
48	0x3e040b82	0.12895015
49	0x3dbc60e4	0.09198168
50	0xbe25a955	-0.16177876
51	0x3f51cc51	0.8195239
52	0x3f0ee042	0.5581094
53	0xbd82d74c	-0.06388721
54	0x3e414760	0.18874884
55	0x3f8f6c6b	1.1204962
56	0xbf575886	-0.8411945
57	0xbee8ed37	-0.4549348
58	0x3e504016	0.20336947
59	0xbf7746d8	-0.96592474
60	0xbe2dc67d	-0.16970249
61	0xbe888a10	-0.26667833
62	0xbebca7ad	-0.36846676
63	0x3f6f7db9	0.9355121
64	0x3f74fe88	0.95700884
65	0xbeb4ebab	-0.3533605
66	0xbf28cdbb	-0.6593892
67	0x3cdc86d0	0.026919752
68	0xbe85fd28	-0.26169705
69	0xbe3008ac	-0.17190808
70	0xbea1d334	-0.31606448
71	0x3e78710e	0.24261877
72	0x3dba8afa	0.09108539
73	0xbf98e660	-1.1945305
74	0xbf69dfc5	-0.9135707
75	0x3dfc2f5d	0.12313721
76	0xbe5424c6	-0.20717153
77	0x3f4e5c2d	0.806094
78	0x3e9d6dd8	0.30747867
79	0x3ed00627	0.40629694
80	0xbf4a9967	-0.79140323
81	0xbe404ce5	-0.18779333
82	0x3f28dae0	0.65958977
83	0x3f0b40b6	0.54395616
84	0x3f23ea87	0.64029735
85	0x3e29a8ae	0.16568252
86	0xbfdde069	-1.733411
87	0xbc177cc0	-0.009246051
88	0x3f125f61	0.57176787
89	0xbf3b352c	-0.7312801
90	0xbeb3853c	-0.35062587
91	0xbfa10cae	-1.2581995
92	0x3e7a9fc5	0.2447501
93	0x3ee06787	0.43828985
94	0x3db81cec	0.089898914
95	0xbc80971e	-0.015697058
96	0x3ca98e07	0.020697607
97	0x3f24962a	0.6429163
98	0x3f094bd1	0.5363131
99	0xbedbe51f	-0.42948243
100	0x3f7cdab4	0.98771214
101	0x3ee15a91	0.4401441
102	0x3e5ed404	0.21760565
103	0x3d6cb620	0.057790875
104	0x3f8dbcb3	1.1073211
105	0xbe1824f0	-0.1485784
106	0xbeff7a42	-0.49897963
107	0xbe579a78	-0.21055019
108	0x3dfadeb1	0.12249506
109	0x3f0ed798	0.5579772
110	0x3ecaf268	0.39638066
111	0xbf813879	-1.0095359
112	0x3e9b2785	0.30303589
113	0x3e0f2d32	0.13982084
114	0x3ee00898	0.43756557
115	0x3e760d5d	0.24028535
116	0x3f117274	0.56815267
117	0xbefb7a96	-0.49116963
118	0xbe85b390	-0.26113558
119	0x3f8c6322	1.0967753
120	0xbea6d139	-0.325815
121	0xbdb4d1d6	-0.088290855
122	0xbf078bc3	-0.52947634
123	0xbf063392	-0.5242244
124	0x3e946936	0.2898652
125	0xbf236183	-0.63820666
126	0xbc7e4a81	-0.015520693
127	0xbe73cf5d	-0.23809572
128	0x3de5ee5c	0.11227104
129	0x3fb98e28	1.4496508
130	0xbe42693e	-0.18985459
131	0x3d848133	0.06469955
132	0xbf781153	-0.96901435
133	0xbdc75845	-0.09733633
134	0x3eea56ae	0.45769256
135	0x3e573bd7	0.21018921
136	0x3f52541d	0.82159597
137	0xbedd6489	-0.43240765
138	0xbed60b1d	-0.41805354
139	0x3cb243f0	0.02176091
140	0xbe207186	-0.15668306
141	0x3e4a8ae5	0.19779547
142	0xbdea767e	-0.11448382
143	0x3f070a15	0.5274976

env_fc1.bias f4 [16]
0	0x3f0dae67	0.5534424
1	0x3f201582	0.6253282
2	0x3ec4d0a2	0.38440424
3	0x3f4db5d9	0.803556
4	0x3e42dc40	0.19029331
5	0xbd0962f4	-0.033541635
6	0x3ee25e1e	0.4421243
7	0x3ea76f4c	0.327021
8	0x3f020bfd	0.5079954
9	0x3ea8ab27	0.3294308
10	0x3eaf3c6b	0.34225783
11	0xbde3d00e	-0.11123668
12	0x3f13e958	0.5777793
13	0x3f131554	0.5745442
14	0xbe182b62	-0.14860299
15	0x3ed8c050	0.42334223

env_fc2.weight f4 [8, 16]
0	0xbe2d9a22	-0.16953328
1	0xbe5265a5	-0.20546587
2	0xbe46fb3c	-0.19431776
3	0xb96acb20	-0.00022391649
4	0x3caa4e88	0.0207894
5	0xbe0c2ce0	-0.13688993
6	0x3e13cfc2	0.14434722
7	0xbe2848e7	-0.1643406
8	0xbe67bacf	-0.22629856
9	0xbe16cd05	-0.14726646
10	0xbe73cd36	-0.2380875
11	0xbd2f8545	-0.042851705
12	0xbd2f2120	-0.0427562
13	0x3c024e06	0.007953173
14	0x3e242ee9	0.1603352
15	0x3e2b04f8	0.16701114
16	0x3ef3b04d	0.47595444
17	0x3f1ed344	0.62041116
18	0xbf6c3faf	-0.92284673
19	0x3e9ae8d8	0.3025577
20	0xbe3742ef	-0.17896627
21	0x3e643e1e	0.22289321
22	0x3f629de9	0.885222
23	0x3e04b0bf	0.12958048
24	0xbea23f96	-0.31689137
25	0x3f0c31c9	0.54763466
26	0x3ed237a6	0.4105808
27	0xbfac9e94	-1.3485894
28	0x3f03a62c	0.51425433
29	0x3f558712	0.83409226
30	0xbf0478a2	-0.5174657
31	0xbe1bc142	-0.15210441
32	0xbdea1be8	-0.11431104
33	0xbd213b3c	-0.03936313
34	0x3de66b78	0.11250967
35	0xbe63f8ac	-0.2226283
36	0x3e0952d3	0.13410501
37	0xbc82ee30	-0.015982717
38	0x3e4b3d0d	0.19847508
39	0xbc6bd377	-0.014393679
40	0xbe6ac444	-0.22926432
41	0x3dec7487	0.11545663
42	0xbe297a99	-0.16550674
43	0x3e33f7e6	0.17575034
44	0xbe9e0287	-0.30861303
45	0xbd409097	-0.04701289
46	0x3d4ec00c	0.05047612
47	0xbe80d3b5	-0.2516152
48	0x3e5937e3	0.21212725
49	0x3ee693f6	0.4503476
50	0x3ee074ad	0.43839017
51	0x3da8a8a0	0.08235288
52	0xbc63cef1	-0.013904319
53	0x3f9db542	1.232094
54	0x3fbdef7f	1.4838713
55	0x3f7cdda3	0.9877569
56	0xbe57e3c5	-0.21082981
57	0x3eaea47a	0.3410986
58	0xbe6abb72	-0.22923067
59	0xbf4ccc09	-0.7999883
60	0x3f16d6a8	0.5892129
61	0xbe9fe5e9	-0.31230095
62	0xbe291b3c	-0.16514295
63	0x3f37737c	0.7166059
64	0xbeb99744	-0.3624822
65	0x3ee97e69	0.45604256
66	0x3f4f67fe	0.81018054
67	0x3fa9bae9	1.3260165
68	0x3cb5e70f	0.022204904
69	0x3f03b5e2	0.51449406
70	0xbf48578a	-0.78258574
71	0xbee53c70	-0.44772673
72	0x3f1c3f13	0.61033744
73	0xbe07837e	-0.13233754
74	0xbecd4cfb	-0.40097794
75	0x3fb87d79	1.4413291
76	0x3eac1823	0.33612165
77	0x3f499d2b	0.78755444
78	0xbf1e8a20	-0.6192951
79	0x3f26ebb3	0.652034
80	0x3f3de0db	0.7417123
81	0xbf09f3d3	-0.5388767
82	0x3ef4a624	0.47783005
83	0x3fac9939	1.348426
84	0x3f0976e5	0.53697044
85	0x3e2e0988	0.16995823
86	0x3e89fc55	0.26950327
87	0x3f376ae7	0.71647495
88	0x3f826916	1.018832
89	0xbe5af920	-0.21384096
90	0xbf352d38	-0.70772123
91	0x3eca80c9	0.3955138
92	0x3eaeda0f	0.3415074
93	0x3f08b3d3	0.5339939
94	0xc01b8ec7	-2.4305894
95	0x3e81c76c	0.2534746
96	0xbefb013e	-0.49024385
97	0x3e9316df	0.28728387
98	0x3f68ba61	0.9090939
99	0x3e82f9fd	0.2558135
100	0xbf92c32c	-1.1465812
101	0xbe82d174	-0.25550425
102	0x3fb1929c	1.3872867
103	0x3f428b87	0.7599415
104	0xbe6a999b	-0.22910158
105	0x3f8696f8	1.0514822
106	0xbb4053d8	-0.002934685
107	0xbf2f26d3	-0.68418616
108	0xbe809ccd	-0.2511963
109	0x3f8f318b	1.1186994
110	0x3f0be39d	0.54644185
111	0x3e8b4801	0.27203372
112	0x3f3ea75d	0.74474126
113	0x3d0ac308	0.033877403
114	0x3f85ced9	1.045375
115	0x3f102a9e	0.5631503
116	0xbe3b19eb	-0.18271606
117	0x3fc81ee1	1.5634423
118	0xbd04a5bf	-0.03238463
119	0xbf3cefaf	-0.7380323
120	0x3f00ba7d	0.5028456
121	0x3eacd7e9	0.33758476
122	0x3f5fbfdf	0.8740215
123	0xbebb013d	-0.36524382
124	0xbe47644b	-0.19471852
125	0x3ef46ca5	0.4773914
126	0xbf1e0834	-0.61731267
127	0xbdcb7aa2	-0.099355

env_fc2.bias f4 [8]
0	0xbe7fabc5	-0.24967869
1	0x3e8e3e2c	0.27781808
2	0xbe65c404	-0.22438055
3	0xbd2b524f	-0.041826542
4	0x3e43d2fb	0.19123451
5	0x3dc70327	0.09717398
6	0x3daae30a	0.083440855
7	0x3e15045a	0.14552441

fc_comb.weight f4 [32, 72]
0	0xbcf41fae	-0.029800262
1	0xbdf20574	-0.11817446
2	0xbca30ac5	-0.019902596
3	0x3edede24	0.43528855
4	0xbeacb08e	-0.3372845
5	0x3e27042f	0.1631019
6	0x3daa6ea7	0.083218865
7	0xbe00f882	-0.12594798
8	0xbd883e27	-0.066524796
9	0x3c446dc1	0.011989058
10	0x3bdcc0b4	0.006736839
11	0x3e31a1d8	0.17346895
12	0xbe0b52b8	-0.13605773
13	0xbecdfbc0	-0.40231133
14	0x3ed55cee	0.41672462
15	0x3e80f9ff	0.25190732
16	0xbc13cf2b	-0.009021561
17	0x3d99682e	0.07490574
18	0xbdc9f4bf	-0.09861135
19	0x3eb54308	0.35402703
20	0x3e8d83cb	0.27639613
21	0x3e32e442	0.17469886
22	0xbe14134f	-0.1446049
23	0xbf166037	-0.5874056
24	0xbedee934	-0.43537295
25	0xbd5b5744	-0.05355002
26	0x3e9aaf2f	0.3021178
27	0x3c6638ea	0.014051655
28	0xbea11e53	-0.31468448
29	0xbd7c8c36	-0.061657153
30	0xbdd058c7	-0.10173183
31	0xbc85f687	-0.016352905
32	0x3d0bb9dc	0.034112796
33	0xbeaac903	-0.33356485
34	0x3ddc1e12	0.10747923
35	0x3ebc8520	0.36820316
36	0xbd5fc84f	-0.05463439
37	0xbe268140	-0.16260242
38	0x3f21496d	0.63002664
39	0xbe4ab2d7	-0.19794784
40	0xbe8711f4	-0.26380885
41	0x3d7f1127	0.062272217
42	0xbe1d285f	-0.15347432
43	0xbd449770	-0.047995985
44	0x3e82ca7f	0.25545117
45	0xbe639511	-0.22224833
46	0xbe728534	-0.23683625
47	0xbbffb998	-0.007804107
48	0x3f0aca95	0.54215366
49	0xbe850413	-0.2597967
50	0x3e813348	0.25234437
51	0x3ea33034	0.31872714
52	0x3e35a6b5	0.17739375
53	0x3ebfb812	0.37445122
54	0xbe8c7976	-0.27436417
55	0x3e28cda0	0.1648469
56	0x3ebf1645	0.37321678
57	0x3e05e1ae	0.13074371
58	0x3ea96385	0.3308374
59	0xbd33702a	-0.04380814
60	0xbe82f85d	-0.2558011
61	0x3c789bbf	0.0151738515
62	0xbda01b73	-0.078177355
63	0xbd9129c3	-0.070880435
64	0xbdb7c5ce	-0.08973275
65	0x3f364223	0.71194667
66	0x3d8a8a8d	0.06764708
67	0xbe0e6af6	-0.1390799
68	0xbec125a3	-0.37724027
69	0x3e929e80	0.2863655
70	0xbe86e82d	-0.2634901
71	0x3ec41d74	0.3830372
72	0x3e64cd71	0.22343995
73	0x3d943c5d	0.07238076
74	0x3e5823c6	0.21107396
75	0xbf2db23d	-0.67850095
76	0x3f12bc98	0.5731902
77	0xbea5e786	-0.324032
78	0xbeaabf90	-0.33349276
79	0x3d317549	0.043324742
80	0x3f3b6f9b	0.7321717
81	0x3c0e9140	0.0087016225
82	0x3de7238e	0.112860784
83	0x3f11e7d0	0.5699434
84	0x3e390413	0.1806796
85	0x3eb60a0a	0.35554534
86	0xbc976837	-0.01848231
87	0xbe7d5bc9	-0.24742045
88	0xbea71bc6	-0.32638377
89	0x3e847a67	0.25874636
90	0xbef4b5fc	-0.47795093
91	0xbf00b6d9	-0.50279003
92	0x3d4a4722	0.049384244
93	0x3e1dd1d8	0.1541208
94	0x3e452c15	0.19255097
95	0x3e933cf1	0.28757432
96	0x3ec290af	0.3800101
97	0x3da65b50	0.08122885
98	0xbd1db1fe	-0.038499825
99	0x3efba455	0.49148813
100	0x3eae41e5	0.3403465
101	0xbe3b5154	-0.18292743
102	0xbe990277	-0.29884693
103	0x3ef80e68	0.4844849
104	0x3ea80f8f	0.3282437
105	0x3e00f675	0.12594016
106	0x3cdf6de9	0.027274089
107	0xbcef7de4	-0.029234834
108	0x3e50ae7e	0.20379063
109	0xbe0e4794	-0.13894492
110	0xbe9892f6	-0.29799622
111	0xbdae5c7e	-0.08513735
112	0xbdb87130	-0.09005964
113	0xbefbae0c	-0.49156225
114	0xbeac95f8	-0.33708167
115	0xbf12affa	-0.5729977
116	0x3c7a3826	0.015272176
117	0x3e59defd	0.2127647
118	0xbe531c3f	-0.20616244
119	0x3f5b0ae9	0.8556352
120	0xbee5f533	-0.44913635
121	0x3da42c8e	0.08016311
122	0xbee1a074	-0.4406773
123	0x3d43d2b6	0.04780837
124	0xbea83ab4	-0.32857287
125	0xbd6fa7ea	-0.058509745
126	0xbe934af8	-0.28768134
127	0x3e594bc2	0.21220306
128	0xbc7387ce	-0.014863921
129	0xbe0f9948	-0.14023316
130	0x3cfde475	0.030992726
131	0x3e202dc3	0.15642457
132	0xbdb333e4	-0.08750132
133	0xbe8148a4	-0.25250733
134	0x3e731308	0.23737729
135	0x3e947b53	0.2900034
136	0x3d11a3fc	0.03555678
137	0xbea05b28	-0.31319547
138	0xbd28da0b	-0.041223567
139	0xbd83275c	-0.064039916
140	0x3ede1758	0.43377185
141	0x3e44c04c	0.1921398
142	0xbe2361cc	-0.15955275
143	0xbea815f9	-0.32829264
144	0xbcc8841a	-0.024477053
145	0x3e1df36f	0.15424894
146	0xbdec383f	-0.115341656
147	0xbd7accca	-0.06123046
148	0x3c6038df	0.013685434
149	0x3c2a8726	0.010408198
150	0x3ddf1b13	0.10893836
151	0xbdbd1139	-0.092318006
152	0x3c0a1cc1	0.008429707
153	0x3d1d81ec	0.03845398
154	0xbe0b7e41	-0.13622381
155	0x3dd1448a	0.10218151
156	0xbd9e9c86	-0.07744698
157	0xbc7318a6	-0.01483742
158	0xbd9193f1	-0.07108296
159	0x3d4a1ecf	0.049345788
160	0xbd6a2d8e	-0.05717235
161	0xbe2563b2	-0.16151312
162	0xbc569f8d	-0.013099563
163	0x3d943b41	0.07237864
164	0xbb946c1f	-0.0045294906
165	0xbd8d4fa1	-0.06899954
166	0x3dad8a44	0.08473638
167	0x3c928007	0.017883314
168	0x3e02e091	0.12780978
169	0x3e01f918	0.12692678
170	0xbd859f8e	-0.06524573
171	0xbc65359c	-0.013989832
172	0x3dac0fad	0.084014274
173	0x3d23c884	0.03998615
174	0x3c90229b	0.017594626
175	0x3c7abde1	0.01530406
176	0xbd86d396	-0.065833256
177	0x3d43ec73	0.047832917
178	0x3c8c8196	0.017151635
179	0xbdfa0c86	-0.1220942
180	0xbd797935	-0.060906608
181	0x3db3623d	0.08758972
182	0x3ce52316	0.027970832
183	0xbe0e832b	-0.13917224
184	0x3d8b05fe	0.06788252
185	0xbd8c4e9b	-0.0685093
186	0x3d0414a8	0.03224626
187	0x3c6c9594	0.014439959
188	0xbda891df	-0.08230948
189	0xbc88bad5	-0.016690651
190	0x3d1c897b	0.03821705
191	0xbc7fdb0e	-0.015616192
192	0x3d4b7e0d	0.04968076
193	0x3dd00096	0.10156362
194	0x3d5c57d6	0.053794704
195	0xbdc3d3af	-0.0956186
196	0x3e092fd0	0.13397145
197	0x3aa82874	0.0012829439
198	0xbd1ec73f	-0.038764235
199	0x3d46870a	0.048468627
200	0xbd67829a	-0.056521036
201	0x3d3895b8	0.045064658
202	0x3c299d45	0.010352437
203	0x3ac24a4e	0.001482317
204	0xbd9d649e	-0.07685207
205	0x3dd3077a	0.103041604
206	0x3dd6a1b2	0.1048006
207	0xbc543e4c	-0.012954306
208	0x3ba91d70	0.00516098
209	0xbe065b8a	-0.13120857
210	0xbdc72e7c	-0.09725663
211	0xbc7a8bb9	-0.015292102
212	0xbcf683b2	-0.030092094
213	0x3c181893	0.009283203
214	0x3d536310	0.051608145
215	0xbd1c30e0	-0.03813255
216	0xbe637a10	-0.22214532
217	0xbe8d81dd	-0.2763814
218	0xbeb34a74	-0.3501774
219	0x3e6225a9	0.22084679
220	0xbbec7645	-0.0072162473
221	0x3e01eb9b	0.12687533
222	0x3f5e3c8c	0.8681114
223	0x3ebe2d60	0.37143993
224	0xbe8bbf4c	-0.27294385
225	0xbf1acaf8	-0.60465956
226	0xbe916b8a	-0.28402358
227	0x3f16393f	0.586811
228	0xbe863217	-0.2621009
229	0x3e35eac9	0.17765345
230	0xbe7bcdba	-0.24590197
231	0xbdcaf093	-0.09909167
232	0x3ef8f625	0.48625293
233	0xbe14b227	-0.14521085
234	0xbee340e7	-0.44385454
235	0xbb992b9a	-0.004674387
236	0x3de5564d	0.11198101
237	0xbe2db61c	-0.16964
238	0x3e9c785a	0.3056057
239	0xbe8206dc	-0.25395858
240	0x3eea4279	0.4575384
241	0xbef1fcdf	-0.47263238
242	0x3f30a488	0.69001055
243	0x3dafa446	0.085762545
244	0x3e867361	0.26259902
245	0x3de66061	0.112488516
246	0x3d2f4963	0.042794596
247	0x3e4e1064	0.2012344
248	0xbc8b509b	-0.01700621
249	0x3d87831f	0.06616806
250	0x3e3b10d5	0.1826814
251	0xbed8bb80	-0.4233055
252	0xbe2dda71	-0.1697786
253	0x3e022e39	0.12712945
254	0xbe465c4d	-0.19371147
255	0xbf443ddf	-0.7665691

fc_comb.bias f4 [32]
0	0x3dfb442a	0.12268861
1	0x3d601a50	0.054712594
2	0xbdffc77f	-0.12489223
3	0xbe9d96af	-0.30779025
4	0x3c3e0bc6	0.011599487
5	0xbe103cde	-0.14085719
6	0xbd579c5d	-0.052639354
7	0x3ed332b0	0.4124961
8	0x3e91a3cc	0.2844528
9	0x3e845c78	0.25851798
10	0x3e3a09e2	0.18167832
11	0x3d17908f	0.037003096
12	0xbe483c34	-0.19554216
13	0xbde1e1f6	-0.11029427
14	0xbd15de2b	-0.03658883
15	0xbdf3f6de	-0.119123206
16	0xbd8cd024	-0.06875637
17	0x3ee78e51	0.45225766
18	0x3da34ce0	0.07973647
19	0xbdae4857	-0.085098915
20	0xbe2a0c02	-0.16606143
21	0x3c37e17b	0.011223192
22	0xbd86d542	-0.065836444
23	0x3cd41ec2	0.025893573
24	0x3e1b593d	0.1517076
25	0x3e5a2ddd	0.21306558
26	0x3ead57f4	0.33856165
27	0xbdb9b539	-0.090677686
28	0xbdff2076	-0.12457363
29	0x3e9b4ed5	0.30333582
30	0xbc9b5df8	-0.018965706
31	0x3d600543	0.054692518

fc_out.weight f4 [6, 32]
0	0xbf1944c5	-0.5987056
1	0xbf161774	-0.58629537
2	0x3e03427d	0.12818332
3	0xbf4bddde	-0.7963542
4	0xc05ed797	-3.4819086
5	0xbefa3658	-0.48869586
6	0xbfa20ea0	-1.2660713
7	0xbe506160	-0.20349646
8	0xbe56aa4d	-0.20963402
9	0xbf256d02	-0.6461946
10	0xbf8f14e0	-1.1178246
11	0xbf13d8e8	-0.5775285
12	0xbe4f2e6d	-0.20232554
13	0xbe02b464	-0.12764126
14	0xbe91afbf	-0.28454396
15	0xbfaa7a7d	-1.331863
16	0xc088e794	-4.278269
17	0xbfa60c5d	-1.2972523
18	0xbf913398	-1.134387
19	0xc049122c	-3.1417341
20	0xbf0b0cbe	-0.5431632
21	0xbf9542e3	-1.1661037
22	0x3de0ef35	0.10983125
23	0xbf443a6a	-0.7665163
24	0xbee24bbd	-0.4419841
25	0xbf83774e	-1.0270784
26	0xbf227842	-0.6346475
27	0x3d783ee4	0.060606852
28	0xc04ae799	-3.1703856
29	0xbf60f4b7	-0.87873405
30	0x3e15b64c	0.14620322
31	0xbe6207bb	-0.22073261
32	0xbe218e5d	-0.15776964
33	0x3e13ade7	0.14421807
34	0xbdeb32e9	-0.1148432
35	0x3f0670c2	0.52515805
36	0xc00da64c	-2.213275
37	0xbd494ae0	-0.049143672
38	0xbf2365c1	-0.6382714
39	0x3eae638a	0.34060317
40	0x3ee1badb	0.44087872
41	0x3f1ef0c4	0.6208613
42	0xbf6fcc29	-0.936709
43	0x3ded2d42	0.11580898
44	0x3f299929	0.6624933
45	0xbe276ce4	-0.16350132
46	0xbfbc15e1	-1.4694177
47	0x3ec8e6d1	0.392386
48	0xbe45b3aa	-0.19306818
49	0xbf58e578	-0.8472514
50	0x3ed1d657	0.4098384
51	0xc0350be3	-2.8288505
52	0xbee37ba3	-0.44430265
53	0xbf32efad	-0.69896966
54	0x3d867539	0.06565327
55	0xbc1974a2	-0.009366186
56	0x3f2d9dad	0.6781872
57	0x3df1d70c	0.11808595
58	0xbd6c0d8c	-0.057630107
59	0xbe042d19	-0.12907828
60	0xbe9bc363	-0.30422506
61	0x3f2b6a6c	0.6695926
62	0x3d39ae9f	0.045332547
63	0x3f8b1355	1.0865275
64	0x3e61a630	0.22036052
65	0x3e68442b	0.22682254
66	0x3da31636	0.07963221
67	0x3dd30247	0.10303169
68	0x3ebba263	0.3664733
69	0x3ea8ac43	0.32943925
70	0x3ebce428	0.3689282
71	0x3d3cdd0f	0.046109255
72	0xbf117214	-0.56814694
73	0x3e95d75e	0.29265875
74	0x3f317269	0.693152
75	0xbf606944	-0.8766062
76	0x3e18ea26	0.1493307
77	0xbd47b72f	-0.048758682
78	0xbfb8eeb6	-1.4447849
79	0xbdc4883b	-0.095962964
80	0x3e48a48f	0.19594024
81	0xba804940	-0.0009787455
82	0xbd9fb8a0	-0.07798886
83	0xbdfe6af4	-0.124227434
84	0x3f8166aa	1.0109456
85	0x3e3feaac	0.18741864
86	0xbe42fa85	-0.19040878
87	0x3eca3917	0.3949668
88	0xc02a8d6c	-2.6648817
89	0xbf292961	-0.66078764
90	0xbff7fb20	-1.9373512
91	0x3e04c023	0.1296392
92	0xbe451e42	-0.19249824
93	0xbfc32b31	-1.5247556
94	0xbd485287	-0.04890683
95	0x3d1b96c3	0.037985574
96	0x3e9630cc	0.29334104
97	0xbe76c9c2	-0.24100402
98	0xbd1a7edc	-0.03771864
99	0xbe916aba	-0.28401738
100	0x3ebbbbd7	0.36666748
101	0xbf13d1e2	-0.5774213
102	0x3e0cb2db	0.13740103
103	0x3edc3536	0.43009347
104	0x3f06d114	0.5266278
105	0xbf9f0c3a	-1.2425606
106	0x3e7da087	0.24768268
107	0x3dcd776b	0.10032543
108	0xbf1bd71a	-0.60875094
109	0xbdaa7286	-0.08322625
110	0x3f57c45b	0.8428399
111	0x3ecd49a0	0.40095234
112	0x3d8a1ef6	0.067441866
113	0x3ecf5ecb	0.4050201
114	0xc01b588e	-2.42728
115	0x3fa808c1	1.3127671
116	0x3f924f71	1.1430494
117	0xbd733e4a	-0.059385575
118	0x3c1e4b10	0.009661451
119	0xbe72250e	-0.23646948
120	0x3ce4edf4	0.027945496
121	0xbe86c0ff	-0.2631912
122	0x3ec4487b	0.38336548
123	0x3e0d8600	0.13820648
124	0xbf0c10e5	-0.5471328
125	0xbe0c12cd	-0.13679047
126	0x3b5972de	0.0033180038
127	0x3cbaa1f0	0.022782296
128	0x3e9bfb5e	0.30465215
129	0xbf103e1c	-0.5634477
130	0xbd803a21	-0.06261087
131	0x3eaaa208	0.33326745
132	0x3e314910	0.17313027
133	0x3e8c83aa	0.27444202
134	0x3ed3fe17	0.41404793
135	0xbfe84a5e	-1.8147695
136	0xc0749d69	-3.8221076
137	0xbea9e445	-0.33181968
138	0x3f061af8	0.523849
139	0x3ed75858	0.42059588
140	0xbf8983ff	-1.0743407
141	0xbdfa7874	-0.12230006
142	0x3e6001f6	0.21875748
143	0xbfa9e10b	-1.3271803
144	0x3e943306	0.28945178
145	0xbeef160a	-0.46696502
146	0xbdb9eb30	-0.090780616
147	0xbd700502	-0.058598526
148	0x3f66d191	0.9016352
149	0xbd9f549e	-0.07779811
150	0xbc6417e9	-0.013921716
151	0x3e06cc92	0.13163975
152	0x3f147353	0.5798847
153	0x3eb55f83	0.35424432
154	0x3e9fef81	0.31237414
155	0xbce8bf86	-0.028411638
156	0x3ed0d6e1	0.4078894
157	0x3e3cab41	0.18424703
158	0xbdb52258	-0.08844441
159	0xbfa39f0c	-1.2782912
160	0xbf0afa14	-0.5428784
161	0x3dc11e19	0.09429569
162	0x3dcf0f68	0.101103604
163	0xc013fbb9	-2.312239
164	0x3f5dbf4c	0.8662002
165	0x3e36481b	0.17800944
166	0xbe8701b8	-0.263685
167	0x3cd4b680	0.025965929
168	0x3cc526ff	0.024066446
169	0xbdbc6450	-0.091988206
170	0xbe84acce	-0.2591309
171	0x3e152108	0.14563382
172	0xbe45e52f	-0.19325708
173	0x3de25d14	0.110529095
174	0x3e43275f	0.19057988
175	0xbe3cfc35	-0.18455584
176	0xbf0ec0de	-0.5576304
177	0x3f559965	0.83437186
178	0x3d9dc7d4	0.0770413
179	0x3decfe6a	0.11571963
180	0xc00e4b9b	-2.2233646
181	0x3f4d3f58	0.8017478
182	0x3dd193ee	0.102332935
183	0xbde1fec3	-0.1103492
184	0xbfb00003	-1.3750004
185	0x3ddf60f7	0.109071665
186	0x3e8f042d	0.27932873
187	0xbdba57c6	-0.09098773
188	0x3ee996ea	0.4562295
189	0x3ebeeb98	0.3728912
190	0xbda9cc7e	-0.08290957
191	0xbe3e6c2f	-0.18595956

fc_out.bias f4 [6]
0	0xbecea65b	-0.40361294
1	0xbe02af85	-0.12762268
2	0x3e0dc710	0.13845468
3	0x3d1e719f	0.038682576
4	0xbd6b32a9	-0.05742136
5	0xbd9dfd6f	-0.07714354
