grporange/models/classifier/weights/vip_movement_small_predictor.pth (torch, 91678 bytes, 13 tensors)

move_embedding.weight f4 [6, 8]
000000 cc 95 49 be d5 31 3c c0 c6 a9 48 3f 23 43 9b bf
       -0.19686049 -2.9405415 0.78384054 -1.2129864
000010 99 16 90 be 18 66 c1 bd 48 3b 2c bf 56 c7 b4 3e
       -0.2814224 -0.09443301 -0.67277956 0.3530833
000020 10 9a 58 bf 4e 7e e8 3f ab 42 bd bf bd 8b d3 be
       -0.8461008 1.8163545 -1.478597 -0.4131755
000030 fe ae f3 3f 8b e4 e4 3c 73 39 00 40 ab 13 87 bf
       1.9037778 0.027941009 2.0035064 -1.0552877
000040 68 ae 85 bf b1 25 e5 3f 5b f1 4f 40 f9 37 af bf
       -1.044385 1.7902128 3.2491062 -1.3688956
000050 9a 31 fc 3e d9 19 c9 3f ef 6f cb bf 8a 0d 09 40
       0.49256593 1.5711013 -1.5893534 2.1414514
000060 94 90 24 3f e6 31 18 be aa 7f 2a 40 8a 7d 4b 40
       0.6428311 -0.14862785 2.664042 3.1795373
000070 0a 0e d0 3f 4a 5d d2 bf 67 53 a0 3e 5f 18 8f bf
       1.6254284 -1.643472 0.3131363 -1.1179312
000080 f8 2e 33 40 82 f2 a5 3e 4e 56 62 3e 93 13 d6 be
       2.7997417 0.3241158 0.22103235 -0.4181181
000090 e4 48 96 bf cd 99 3f 3f 88 f0 18 3f 55 26 f5 3f
       -1.1740994 0.74844056 0.5974202 1.9152323
0000a0 c1 6c a8 bf 7b 10 08 3f 8a db 83 3f 2e 78 df bf
       -1.3158189 0.5315015 1.0301373 -1.7458551
0000b0 ce 49 b5 bf 36 df 8b c0 6a f5 8c 3f fc 81 f1 3f
       -1.4163148 -4.3709974 1.1012394 1.8867793

lstm.weight_ih_l0 f4 [256, 8]
000000 64 27 aa 3e 22 1b 70 3d 52 91 9a 3e cf f4 2a 3e
       0.33233178 0.058619626 0.30188996 0.1669495
000010 00 f9 97 3e 07 79 05 3e 42 33 1f bd 38 8e 97 3d
       0.2968216 0.1303445 -0.038867243 0.07400173
000020 af 8a 02 3e 57 55 c4 3e f3 95 95 3e 8e 4f 24 3d
       0.12748216 0.3834636 0.29215965 0.04011493
000030 63 13 d8 3d 3e 76 4c be 0b 0d 8a 3e 4d bc 83 3e
       0.10550573 -0.19966981 0.26963076 0.257296
000040 84 7c 49 be 6f d9 d6 3e 8c 02 a1 3e 5a 2e 38 3e
       -0.19676405 0.41962764 0.31447256 0.17986432
000050 e5 4f c9 3e f0 52 cd bd 9e e2 88 3b 2c 38 83 3d
       0.39318767 -0.10025585 0.0041774055 0.06407198
000060 72 0f cb bc b6 67 e8 3d 78 9f a4 3e 6f e9 0b be
       -0.024787638 0.11347906 0.32152915 -0.13663267
000070 07 7e 9f 3d c6 f8 23 bf f2 6f 1c 3e 80 c6 80 3e
       0.0778771 -0.64051473 0.15277079 0.25151443
000080 e7 16 8d 3e a6 f3 9e bc e2 34 bb 3e ee 9e 20 be
       0.27556536 -0.01940329 0.36563784 -0.15685627
000090 bc 5d 3f be 89 18 47 be 29 22 02 3e 12 3b c2 3e
       -0.186881 -0.19442953 0.12708344 0.37935692
0000a0 01 af 61 be ed 8e 0d 3b 9a b4 f8 3e bd 3d 1c be
       -0.22039415 0.0021600083 0.48575288 -0.15257926
0000b0 79 4d 90 bd 8a df fc be 52 39 b4 bd 11 08 24 3e
       -0.07046027 -0.49389297 -0.087999955 0.16018702
0000c0 53 37 2d be 0c 40 38 3e 85 08 bb bd 94 a6 26 bf
       -0.16915636 0.17993182 -0.09132484 -0.6509793
0000d0 3f 44 84 bb c6 a2 68 3e d3 ea 94 3c 9e 02 e7 3e
       -0.004036456 0.22718343 0.01817838 0.45119184
0000e0 d4 b7 c1 be f3 c5 61 3e 42 9b bb 3e 8d 9e fd 3d
       -0.37835562 0.22048168 0.3664189 0.12383757
0000f0 12 51 bd 3e 02 5d 80 be 70 01 d5 3d 2a 22 05 3d
       0.36975914 -0.2507096 0.10400665 0.032503285
000100 b1 24 58 be a5 c3 6a 3f 26 6f 34 3e bf ca d1 bc
       -0.21107747 0.9170478 0.17620525 -0.025609372
000110 4c fd be 3e a0 53 40 3c 73 13 ac 3e 22 d5 8f 3d
       0.37302625 0.011738688 0.3360859 0.07023074
000120 1c 02 8e 3e 31 ad 07 3f ff 74 9f bd 9d 9d a1 bc
       0.27735984 0.52998644 -0.07785987 -0.019728476
000130 4a 44 c8 3c 5b d4 08 be 31 61 01 3f de d2 32 3e
       0.024446625 -0.13362257 0.5053893 0.17463252
000140 42 a4 0a 3e 31 06 cd 3e 0e 27 d7 3e 81 ec 5e bd
       0.13539222 0.40043786 0.42021984 -0.054424766
000150 35 6d 56 bd a3 21 02 3f c4 db 90 3c 3c 0d ef 3e
       -0.05235024 0.50832576 0.017682917 0.46689785
000160 02 2d 2a 3f 3e 97 5f 3c c2 8b 89 3e c6 0e c3 3e
       0.66474926 0.013646899 0.2686444 0.3809721
000170 a8 08 ac 3e 8b f5 f0 3d 15 e0 46 3e 2c 60 b1 bd
       0.33600354 0.117655836 0.19421418 -0.086609215
000180 84 47 da bc ed 32 b7 3e 2e 19 5c 3e e7 5a 72 be
       -0.02664543 0.3578104 0.2149398 -0.23667489
000190 52 44 05 be b7 42 5b 3d 07 e0 5e 3e f6 e8 ce 3e
       -0.13014343 0.05353042 0.21765147 0.4041211
0001a0 2e ee 25 3d 40 f7 21 be 01 9f 80 3e 0e 7b 05 3e
       0.04051035 -0.15816975 0.2512131 0.13035223
0001b0 06 c2 50 3e ba 43 88 be 8e 11 6d 3d 1d d9 43 3c
       0.20386514 -0.2661417 0.05787807 0.011953619
0001c0 dd e7 ea 3d 74 38 e6 3c ec bf ba 3d d7 3d ad be
       0.11470006 0.02810309 0.091186374 -0.33836243
0001d0 8f bc cb be 72 25 9d 3b c5 f6 83 3d fe 49 f7 3e
       -0.39792296 0.0047957236 0.06443552 0.4829864
0001e0 e2 fd 53 3c bd 16 a9 bb 97 c1 f7 3d 97 7e 70 3e
       0.012938948 -0.0051601813 0.12097471 0.2348579
0001f0 24 7c 3c 3e 65 6b 18 bd 73 53 c8 3d 10 50 a2 bc
       0.18406731 -0.037211794 0.09781542 -0.019813567
000200 30 c4 0b 3e 38 57 08 be c8 df dd 3c c1 4f 76 3e
       0.13649058 -0.13314521 0.027084246 0.24053861
000210 f4 cf 13 be 76 10 ce be 64 50 d1 3d dc 2f a5 3b
       -0.14434797 -0.40246934 0.102204114 0.0050411057
000220 1d 8c cd 3e 19 2d af bc 45 95 eb 3e f8 85 88 3e
       0.4014596 -0.021383809 0.4601232 0.2666471
000230 f1 ca bb 3d e4 1b 99 be 9f ed af bd 45 23 4a 3e
       0.091695674 -0.2990409 -0.085902445 0.19740017
000240 fb ff b8 3d 8e 05 ae bc cf 93 93 3e 50 5e d2 3d
       0.090331994 -0.021242883 0.28823707 0.10271895
000250 98 9a ae bd f7 c3 a5 be d6 e4 63 bd 66 5a 74 3d
       -0.0852558 -0.32376072 -0.055638157 0.059656523
000260 48 a8 86 3e a7 2b 74 bd 84 6f b9 3d c3 79 69 be
       0.26300263 -0.059611943 0.09054473 -0.22800355
000270 ca a3 6f 3e d7 ab 25 3e 0c 77 1b 3e 33 c3 97 3e
       0.23402324 0.16178833 0.15182132 0.29641113
000280 92 14 11 be b5 2a 8e 3e 24 04 10 3d 25 b4 a5 3c
       -0.14168003 0.27766958 0.0351602 0.020227501
000290 e5 e3 de 3e 95 4c 4f 3e 4b cd 66 3c e7 18 2f bd
       0.43533245 0.20244057 0.014087032 -0.042748358
0002a0 7e ea 9b 3e 9d f6 4d 3d e7 11 5a bd 9f b1 63 3d
       0.3045234 0.050284017 -0.05323973 0.055589315
0002b0 65 2f 53 be 04 e7 61 3e 9b 1f 86 3e 04 67 5a 3e
       -0.20623548 0.22060782 0.26195988 0.2132836
0002c0 4e 39 00 bd 75 f3 f1 3e b4 cb 70 be f7 1d 33 3c
       -0.03130465 0.47256055 -0.23515207 0.010932437
0002d0 d1 e4 c6 3e 92 ff 97 b9 0a d9 d9 3e f6 3b 6d 3d
       0.38846448 -0.0002899138 0.425484 0.05791851
0002e0 a6 94 d9 3e 6f d0 de 3e 8e 19 3a 3e b2 e4 1e 3e
       0.42496222 0.43518397 0.18173811 0.15516928
0002f0 54 9a 12 3e 1a f1 5a 3e f4 00 ab 3d 10 f4 d0 3d
       0.14316684 0.21381035 0.08349791 0.10202801
000300 83 e1 41 be d7 40 8c bd ad 16 8d 3e a9 9c 4d 3d
       -0.18933682 -0.06848305 0.27556363 0.05019823
000310 a2 1a 81 3e 09 6c c7 be 5d e3 bb bc 04 19 38 3d
       0.25215632 -0.38949612 -0.022935564 0.04494573
000320 5a 44 ab 3d fd d1 b4 bd 5e e2 bf 3c 4a 16 ef 3d
       0.083626464 -0.088291146 0.02342337 0.11674173
000330 ed 3c 37 bc b3 26 7f bc 03 15 cc 3d 05 02 3a 3d
       -0.011183959 -0.015573191 0.09964945 0.045412082
000340 1c 8a 2f be 52 54 8f 3d da 58 15 3f b4 33 29 be
       -0.17142528 0.06998505 0.583387 -0.1652363
000350 ae 43 d5 3d 8d e9 d0 be 5b 15 11 be 47 34 21 3e
       0.104132995 -0.40803185 -0.14168303 0.15742598
000360 b6 a8 1c be cb 9d c1 3e e8 1e c5 3d ce b8 8e be
       -0.15298733 0.378157 0.096250355 -0.2787537
000370 5d 73 08 3e 40 40 3d bb 92 55 30 3e 46 f3 51 3e
       0.13325258 -0.0028877407 0.17220142 0.20502958
000380 53 f7 f1 3e a0 8f 3e 3e a8 d6 ad 3d 98 6e 99 3e
       0.47259006 0.18609476 0.08488208 0.2996719
000390 c1 fd df 3d 45 9a d4 bd f6 de a4 3e 5d 74 0b 3e
       0.109370716 -0.10380987 0.32201356 0.13618608
0003a0 09 2a 88 3e 99 e3 9a 3e 71 5f 35 3e 6a 0d 5b 3e
       0.2659457 0.30251768 0.1771219 0.21391836
0003b0 07 07 65 3e 0c d2 f8 3b 4a f8 4a 3e 18 6f cb 3a
       0.22365962 0.007593399 0.19821277 0.0015520779
0003c0 2c 69 8c 3d ae c9 e2 3c 92 fd 5c 3e 26 c8 35 bc
       0.068559974 0.027684059 0.21581104 -0.011095082
0003d0 6c 06 dd bd 3c 9a c0 be e0 6d 86 3e 2d 76 05 3e
       -0.107922405 -0.3761767 0.26255703 0.13033362
0003e0 79 c4 36 3e 58 ac f3 3e 11 0b f7 3e a0 6a ab 3e
       0.17848386 0.47592425 0.4825063 0.33479786
0003f0 30 e3 60 3e b8 0e 1e bd 3e d5 80 3d 0a 94 88 3d
       0.21961665 -0.038588256 0.06290673 0.06668861

lstm.weight_hh_l0 f4 [256, 64]
000000 d5 15 d4 bd 8e dd aa 3e 4a 7b 18 bf c3 3e ec bd
       -0.10355727 0.33372158 -0.59563124 -0.11535408
000010 72 c0 5a 3e 8f 3f 9b be 1f d2 d8 3e 30 cf 0c 3d
       0.21362475 -0.3032193 0.4234781 0.034377277
000020 67 37 e2 be 44 c3 50 be 4b 99 2c 3d 42 8a 42 3e
       -0.44182894 -0.20386988 0.04213838 0.18998054
000030 27 f2 0b be 1b 26 2d bd 07 6d 4a bf 9e 99 a0 3e
       -0.13666593 -0.04227267 -0.7907261 0.313672
000040 f8 fd 00 bf fe 73 bc 3d de 19 62 3e 12 35 9f bd
       -0.50387526 0.09201811 0.2208018 -0.07773794
000050 48 74 99 be d4 42 95 3d 1b 6f 00 bf ec 41 1d be
       -0.29971528 0.07288137 -0.50169533 -0.15357178
000060 35 66 a1 3e 1e 17 fc be 0c 85 a7 bf ca 6d 83 be
       0.3152329 -0.49236387 -1.3087478 -0.256697
000070 a7 8c 8f 3e f2 05 7e be a6 ae 50 be 20 e9 b1 bd
       0.28036997 -0.24806955 -0.20379123 -0.08687043
000080 dc 45 01 bf 1d 55 7a bd e4 15 26 3f 86 c3 48 3e
       -0.5049722 -0.061116327 0.6487715 0.19605836
000090 80 e3 92 bc 8c ba fb 3e c3 70 a6 3e 67 64 06 bf
       -0.017930746 0.4916576 0.32507905 -0.5249695
0000a0 06 72 99 3d 12 8b 1f be ed 2a b7 3e 19 bb d1 3e
       0.07492451 -0.15580395 0.35774937 0.40963057
0000b0 22 85 ec be c1 29 45 3e ad e0 2d 3f 60 ac cd bd
       -0.46195322 0.19254209 0.67920953 -0.100426435
0000c0 8e 3f b7 3e 6a 94 20 3f 86 b8 8b be 99 1e ef bc
       0.35790676 0.6272646 -0.27289218 -0.029189395
0000d0 bd 6a 31 3e 68 3e 76 be 8c b7 57 bd 11 e7 29 3f
       0.17325874 -0.24047244 -0.05266528 0.66368204
0000e0 a1 6b 19 be 3c ec 07 be 6e 24 57 be 86 94 c1 3d
       -0.14982463 -0.1327371 -0.2100999 0.09452157
0000f0 2f 4f 1c 3f e0 35 f5 3e 00 8e 4f 3e df 9f 8b 3d
       0.61058325 0.47892666 0.20269012 0.06817602
000100 57 96 f1 bd 27 10 10 bf 49 8a fe be b5 8c 09 bf
       -0.11796253 -0.56274647 -0.49714878 -0.53730327
000110 f0 a3 02 3f 23 80 15 bd 9f d7 5a 3e 8e 54 19 3f
       0.510314 -0.036499154 0.21371315 0.59894645
000120 a8 54 7b 3c 15 6d dd be 40 33 17 be 3d 8c 73 3d
       0.015340008 -0.43247285 -0.14765644 0.059459914
000130 bc c0 ff be bc 26 9a be 58 a1 e5 3c 32 10 39 3e
       -0.49951732 -0.30107677 0.028031036 0.18072584
000140 c4 18 28 bf b3 80 2a 3e ba f8 da 3e aa d2 c3 be
       -0.6566279 0.16650657 0.42767888 -0.3824666
000150 f1 dd 27 bf a7 c5 9d be aa ec 32 bf a4 6b 74 bd
       -0.6557303 -0.3081486 -0.6989237 -0.059672967
000160 51 a2 6f 3e 3e ab 32 bf b7 59 16 bf ce 10 e4 be
       0.23401763 -0.69792545 -0.58730644 -0.4454407
000170 76 34 5a 3d ad be 3c be 54 38 fa be 86 08 f0 be
       0.053272687 -0.18432112 -0.488711 -0.46881503
000180 95 0d c5 be fb 85 3c bd b6 6a 22 3d c1 f1 ca be
       -0.38486925 -0.04602621 0.03965255 -0.3963757
000190 9a 90 8b 3e 6a 5c 21 3f 10 b3 e8 3d bd 39 a7 be
       0.2725876 0.6303164 0.113622785 -0.32661238
0001a0 14 48 d8 bd 9f a5 b6 3d ce d9 48 be eb 9a 2f 3e
       -0.10560623 0.089183085 -0.19614336 0.1714894
0001b0 25 8c 2d be e1 0d cb bd 64 c2 85 bd 8b 7d 9d 3e
       -0.16947992 -0.099147566 -0.06531218 0.30759844
0001c0 7a 8d f6 3d 16 96 e5 3e 33 a0 e2 3a 48 d4 ce 3c
       0.12038703 0.4484107 0.0017290175 0.025247708
0001d0 97 06 a5 be 46 73 2f bf 2f 29 d4 be 2f 93 51 3f
       -0.3223159 -0.6853527 -0.4143767 0.8186521
0001e0 99 65 81 3d 19 83 d3 3e d9 3d 7d be a8 0e e2 be
       0.06318206 0.41310957 -0.24730624 -0.44151807
0001f0 7f 1c 91 3c 4c 89 cb 3e 14 65 67 3e fd dc 54 be
       0.017713783 0.39753187 0.22597152 -0.20787425
000200 df 25 67 bd db 42 9a 3d 77 04 f0 be 0f 7e 2f be
       -0.0564326 0.07532283 -0.46878406 -0.17137931
000210 df 65 54 3c d3 31 4a bc 34 05 92 be 1e bb 33 3e
       0.012963741 -0.012340981 -0.28519595 0.17551848
000220 d4 50 b6 3d 8b e9 55 bf af 3a 62 be a6 02 82 3e
       0.089021355 -0.83559483 -0.22092699 0.25392646
000230 a9 53 0f be 18 d2 90 bd a6 a5 92 be a4 eb b5 3e
       -0.13996758 -0.07071322 -0.28642005 0.35531342
000240 3a 15 33 be 26 62 65 bd 68 a8 a5 3e 44 28 27 be
       -0.17488566 -0.056001805 0.32355046 -0.16323954
000250 82 81 d8 3d 8c 49 af 3d 32 8d e1 bc b9 02 da bc
       0.10571577 0.0855895 -0.027533147 -0.026612626
000260 d8 93 b7 bd 73 5c ef 3d 8c 70 c2 3d 91 d4 3c bf
       -0.08963746 0.11687555 0.09494123 -0.7376185
000270 17 a3 8a be 4e 57 51 bd f0 5f 52 3e 34 da 61 3e
       -0.27077553 -0.05110865 0.2054441 0.22055894
000280 1d c9 da 3d 3c f7 0f 3e a1 9d d8 be af 8b 19 bd
       0.106828906 0.14059156 -0.4230776 -0.03748673
000290 36 a5 9e be 01 ed 35 3c ee 30 a3 3e f3 2b 72 bd
       -0.3098542 0.011103869 0.31873268 -0.059123944
0002a0 da 70 40 be 3e 7e be bd 97 f6 3c 3e 5f 30 11 3e
       -0.1879305 -0.093014225 0.18453442 0.14178608
0002b0 b7 97 c1 be c1 32 a2 be b4 cb c8 bb bc 82 bd 3e
       -0.37811062 -0.31679347 -0.006127799 0.37013805
0002c0 68 19 a0 3e 99 16 1c 3e f9 9d 45 3e 42 1f cd be
       0.31269383 0.15242995 0.19298543 -0.4006291
0002d0 9c 9a 2f 3f 11 70 cb be 7b 56 2b 3e 1d f1 1e be
       0.6859529 -0.39733937 0.16732208 -0.15521665
0002e0 97 5b 63 3e 8d 65 39 be 6e 29 5c be 64 ca 09 bf
       0.22202908 -0.18105145 -0.21500179 -0.5382445
0002f0 97 2b d9 3e e5 7d bf 3e 2e 96 0d 3d 15 91 0e 3e
       0.4241607 0.37400737 0.03456705 0.13922532
000300 bb 9e 3e 3f 7a 12 d2 be 2c 0f c2 be b8 5b 5a be
       0.74460953 -0.41029721 -0.379022 -0.2132405
000310 40 64 94 3d 82 8e d7 be 99 30 09 be af 47 1d 3f
       0.07245684 -0.42100912 -0.13397445 0.61437505
000320 b6 9b c2 bc 06 9b 4c be 57 e8 39 3d 96 1b 0d 3e
       -0.02375589 -0.19981012 0.045387592 0.13780054
000330 4a 74 14 bf 62 d2 94 3d 2c 50 33 3e 63 53 40 3d
       -0.57989943 0.0726669 0.17511052 0.046954524
000340 16 e9 20 bf 83 08 14 bf d2 71 f9 bd 6a 41 8b 3e
       -0.6285566 -0.5782549 -0.121799126 0.27198344
000350 3e e1 b1 be ed ba 2b be f6 1e 6e bf ab c2 34 3f
       -0.3474216 -0.16770525 -0.9301599 0.7060954
000360 bf 90 a8 be b5 12 44 bf f8 62 8e be 42 b6 a1 bd
       -0.32922933 -0.76591045 -0.27809882 -0.07896091
000370 89 a5 bb 3e 6c 2a 36 3e c1 4d e8 be 11 6b 4a bf
       0.3664973 0.1778962 -0.45371822 -0.7906962
000380 32 47 62 be 3b 24 bc be 35 85 d8 3e f9 ca 96 be
       -0.22097471 -0.36746392 0.4228913 -0.2945173
000390 09 fa e1 3d 91 69 64 3f 0e e4 56 3e 75 c7 a4 3c
       0.110340185 0.8922358 0.20985433 0.02011464
0003a0 cd f2 02 3f 63 fa 4a 3b 53 91 06 bf 74 8d d5 be
       0.51151735 0.0030971996 -0.525655 -0.41709483
0003b0 3f 97 88 be 28 89 78 be aa 3f 2a be 23 04 a9 3d
       -0.26677892 -0.24271071 -0.16625848 0.08252742
0003c0 c8 75 50 3e 70 7c 6c 3e 60 c0 78 3e 2c 4a 69 3f
       0.2035743 0.23094344 0.24292135 0.911288
0003d0 62 df 5a bf 26 e5 43 bf 6c 13 1b bf d6 41 16 3f
       -0.85497105 -0.7652153 -0.6057651 0.5869421
0003e0 a5 9d 64 be d5 04 23 3e c6 d3 71 3e 7e ae 51 bd
       -0.22325762 0.15919812 0.23615941 -0.0511918
0003f0 0c 4f 23 3e ef 3b 05 be 12 38 54 bf 63 8d 1a 3f
       0.15948123 -0.13011144 -0.82898057 0.6037199

lstm.bias_ih_l0 f4 [256]
000000 92 7a d0 3e 49 83 30 3f 9d 08 54 3e 1f b6 ac 3e
       0.40718514 0.68950325 0.2070641 0.33732697
000010 92 38 d8 3e 13 7d b4 3e 1c f5 88 3e 83 f0 69 3d
       0.4223066 0.35251674 0.26749504 0.057114135
000020 79 4a 8c 3e 68 40 dc 3d 6b 0b 42 3e 4c 4e 27 3e
       0.27400568 0.10754472 0.18949668 0.16338462
000030 c4 af 46 3e c1 2e 64 3e a7 3c df 3d b5 e5 a3 3e
       0.19402987 0.2228346 0.109002404 0.3201119
000040 6d 70 c8 3c 03 1f 7b 3e 1e 82 28 3e 12 84 1f 3f
       0.024467671 0.24523549 0.16455886 0.623109
000050 b6 11 47 3e 39 15 64 3e 07 b1 20 bd bd c1 a7 3e
       0.1944035 0.22273721 -0.039231326 0.32764998
000060 2f a6 4d 3e 4c f2 44 3d 57 41 88 3e 8b 3e 13 bd
       0.20082925 0.048082635 0.2661235 -0.035948317
000070 a0 b2 be 3e 38 e3 c5 3e 5a 8d 81 3e d0 9d 7a 3e
       0.37245655 0.38649917 0.25303155 0.24474263
000080 67 05 e2 3e ab 36 c6 bc 64 d0 dc 3e 3e f1 b5 3e
       0.44144747 -0.02419599 0.4312774 0.35535616
000090 ba a4 55 3e 44 0c 26 bc 75 d7 42 3e b8 8f 61 be
       0.2086362 -0.01013476 0.19027503 -0.2202748
0000a0 b0 04 1e 3e c6 ca b4 be 42 3b c6 3d 2c 64 60 3e
       0.15431476 -0.35310954 0.09679271 0.21913213
0000b0 dc 73 a5 3e b7 23 d3 3e 48 6a 29 3e c9 da 75 3e
       0.32314956 0.41238186 0.1654445 0.24009241
0000c0 9c 8a 5d 3e 69 fc de 3e d7 49 2a 3e fc 6c e1 bc
       0.21634907 0.4355195 0.1662973 -0.027517788
0000d0 bb 8c 3c 3e 8a 81 07 bd 25 30 e6 3e 95 ac aa 3e
       0.1841306 -0.033082522 0.44958606 0.33334795
0000e0 db 2f 87 3e c2 43 fe 3e 17 a5 bb bc db ad fc 3e
       0.26403698 0.4966107 -0.02290587 0.4935139
0000f0 36 16 94 3e 41 60 cf 3e 31 a6 ea 3e d0 d2 c7 3e
       0.28923196 0.40503123 0.4582992 0.39028025
000100 69 04 a9 3e 73 1a 93 3d 84 e6 11 be 97 98 40 3e
       0.33011177 0.07182779 -0.14248091 0.18808208
000110 52 09 b0 3e a0 b7 57 bc af b9 e3 3d 91 35 96 3e
       0.3438211 -0.013166338 0.11119401 0.29337743
000120 05 98 0f be 45 1f b2 3e 51 0a 13 3e af f9 1d 3e
       -0.14022835 0.34789482 0.14359404 0.15427278
000130 26 9c c6 3d 4f c4 12 bd 54 cd 96 be 5b 19 8b bd
       0.09697752 -0.035831746 -0.29453528 -0.067919455
000140 b4 f5 4e 3c df 2c 2f bd e5 fa c5 bc 9d bb bb 3e
       0.012631822 -0.0427674 -0.024167487 0.36666575
000150 3b 35 93 3e 93 51 13 bd c6 5b d9 3d a4 8b 48 3d
       0.2875155 -0.035966467 0.106132075 0.048961297
000160 94 9f 2d 3e 03 61 89 3e 14 18 f2 3d bf bc 5f 3e
       0.16955405 0.26831827 0.11820999 0.21849345
000170 bb 9b a4 be 09 41 8f 3e 6d c0 9d 3e 8b f8 3e be
       -0.32150063 0.27979305 0.30810872 -0.18649499
000180 54 28 6b 3d 16 af f7 3c 40 3f 25 be b1 95 5c be
       0.057411507 0.030234855 -0.16137409 -0.21541478
000190 51 62 16 bc 23 bf 60 3e 67 00 92 bc 9b b3 97 bd
       -0.009178714 0.21947913 -0.017822457 -0.07407304
0001a0 a8 2d c2 3d 3f ec e5 bd 41 02 31 3d 27 8d ba 3d
       0.094813645 -0.11226701 0.04321504 0.09108954
0001b0 b4 74 98 bd c6 f6 9b 3d 39 c8 cd bd 9c 02 88 3d
       -0.07444134 0.07615428 -0.10047955 0.06641123
0001c0 78 4f d5 bd 06 a4 af 3d ea 36 83 3e 84 7e a8 3e
       -0.10415548 0.08576207 0.25627834 0.32909024
0001d0 05 ea 00 be 0a b2 82 bd 6c f6 1d 3d ee a3 90 3e
       -0.12589271 -0.063816145 0.038565084 0.28250068
0001e0 1c e4 45 be 82 fc ba 3d 88 7e 27 3e 39 7d 18 3f
       -0.19325298 0.09130193 0.16356862 0.59566075
0001f0 12 12 38 bd 2e f3 45 3e cd 8e 5a bd 01 bb 22 be
       -0.04493911 0.19331047 -0.05335884 -0.15891649
000200 3c a5 cd bd d1 c4 3b be 71 06 30 be 92 9c 18 be
       -0.100412816 -0.18336798 -0.17189957 -0.14903477
000210 5c fa 1a 3e 62 4a b1 3d 37 77 11 3e c3 77 3e 3e
       0.15134567 0.086567655 0.14205633 0.18600373
000220 05 ce ac 3d 0e 73 06 be ff ed 1a be 68 ce 28 3e
       0.084377326 -0.13129827 -0.15129851 0.16484988
000230 d7 5a c2 bd 32 84 2b bd ff 15 5a bd 9e 5b c0 3d
       -0.094899826 -0.04187412 -0.053243633 0.093924746
000240 d7 55 ef 3c aa 9b 14 3e d5 85 d9 3d c8 df 0d be
       0.029215736 0.14512506 0.106212296 -0.13854897
000250 a5 a6 67 be d0 11 62 be 1f 3f b9 bd 1b 2d 58 bd
       -0.22622164 -0.22077107 -0.090452425 -0.05277739
000260 bd b5 a3 3e 01 dc 31 be 2b fe 91 be 9a 8a cd be
       0.31974593 -0.17369081 -0.28514227 -0.40144807
000270 73 35 57 be 9f fc 62 be 95 52 be bd 71 0d c5 bb
       -0.21016483 -0.2216668 -0.09293095 -0.006013565
000280 81 0e 70 be b4 9e b6 bc 9b cf 13 be 08 24 e0 bd
       -0.23443033 -0.022292472 -0.14434664 -0.109443724
000290 8f 3e ec 3c 9c ef 75 3d 52 08 3c 3e 12 fd 93 be
       0.028838424 0.060042962 0.18362549 -0.28904015
0002a0 35 02 22 bd 7a 56 a5 3d ab f8 89 3d ce 9c 9c 3a
       -0.039552886 0.08073135 0.06736883 0.0011948587
0002b0 76 7d 53 be be 2b 55 3e 68 c6 63 3d 85 aa 15 3e
       -0.20653328 0.20817468 0.055609137 0.1461583
0002c0 f4 33 04 3e 9a ac a4 3e 5d a6 30 3d 6f 53 84 be
       0.12910444 0.32162935 0.043127406 -0.25844905
0002d0 b3 56 32 bc ef 6a 81 be 9c 6c d3 bd 2e 6c d2 3e
       -0.0108849285 -0.25276896 -0.1032345 0.4109816
0002e0 98 01 b7 3d e1 7e cb bc 6f 05 a7 bd 03 df 26 be
       0.08935851 -0.024840774 -0.08155333 -0.1629601
0002f0 40 5e 9e 3d 30 3d aa 3c 86 a4 35 3e 2d 07 de bc
       0.077328205 0.02078113 0.17738542 -0.027103031
000300 e5 83 c0 3e e2 11 ac 3e 38 c6 85 3e 69 c3 52 3e
       0.37600628 0.33607394 0.2612779 0.20582356
000310 b2 77 b3 3e ae ff b2 3e 74 e1 a0 3e ac 24 e5 bd
       0.35052258 0.34960693 0.31422007 -0.11188635
000320 64 cf c7 3e 48 bf 41 3c 51 12 8e 3d e5 bb 19 3e
       0.39025414 0.01182539 0.06937087 0.15013082
000330 80 49 e8 3d f3 0d 41 3e 50 17 a3 3e f1 ed 70 3e
       0.11342144 0.18852977 0.31853724 0.23528267
000340 3d 37 38 be ba 1c d8 3e 16 cb a1 3e 77 93 a8 3d
       -0.17989822 0.42209417 0.31600255 0.08231252
000350 40 ed 01 3e d8 2e bb 3e 73 31 20 3e 28 5b 90 3e
       0.1268816 0.36559176 0.15643863 0.28194547
000360 ca 7f 81 3e e8 59 be bc b5 fd 72 3e 32 40 0e bd
       0.25292808 -0.02323623 0.23729594 -0.03472919
000370 4a b9 6b 3e 87 c2 e7 3e ce f3 11 3e 79 7a bd 3e
       0.23019901 0.452656 0.1425316 0.37007502
000380 d4 08 cc 3e 70 d6 6f 3d 19 1f 03 3e e5 62 6c 3e
       0.39850485 0.058554113 0.12804832 0.230846
000390 06 ce 12 3f 4c 76 15 be b2 a3 41 3e 70 0e 9a 3e
       0.57345617 -0.14595908 0.18910101 0.3008914
0003a0 14 d4 b7 3e 60 95 c6 bc 42 6d 54 3b 73 0e 33 3e
       0.3590399 -0.02424115 0.0032413756 0.1748598
0003b0 10 1c c0 3e 15 ff 31 3e ef c2 97 3e a1 ae 54 3d
       0.3752141 0.17382462 0.2964091 0.05192435
0003c0 3a 17 1e 3e 0e 55 46 3e e3 97 70 3e 38 a0 15 3e
       0.15438548 0.19368383 0.2349544 0.146119
0003d0 ea a6 87 3e f6 10 f3 3c bc 3a 73 3e 25 5f 14 be
       0.26494533 0.029671174 0.23752874 -0.1448942
0003e0 e3 6a 8e 3e 8f a9 82 3d 92 0e 02 3e 6f 3d c8 3d
       0.27815923 0.06379997 0.1270087 0.097773425
0003f0 3f 90 dc 3e 3c 1a d7 3e 32 9e 3c 3e d2 f7 a9 3e
       0.430788 0.42012203 0.18419722 0.33196884

lstm.bias_hh_l0 f4 [256]
000000 44 93 98 3e 7d 6a 38 3f 82 00 0a 3e cb 80 be 3e
       0.29799855 0.7203749 0.13476756 0.37207636
000010 5d 64 15 3f c2 58 ac 3e 75 34 8b 3d c1 74 71 3d
       0.5835627 0.33661467 0.06797115 0.058949236
000020 30 c6 c4 3e a4 c4 19 bd b1 9a 4c 3d 55 bd 1b 3e
       0.38432455 -0.037541047 0.049952213 0.15208943
000030 af 32 72 3e 39 02 45 3e 41 00 19 3e d2 6a 80 3e
       0.23652147 0.19239129 0.14941503 0.25081497
000040 d1 72 d8 bd 29 24 83 3e 13 f1 94 3c 58 a5 22 3f
       -0.105687745 0.25613526 0.01818136 0.63533545
000050 91 3e 53 3e 54 da 84 3e 73 d4 96 bd ea 0e a1 3e
       0.20629336 0.2594782 -0.0736474 0.3145669
000060 bb b8 9d 3e 2a 40 ad 3d 18 76 c7 3e 1a da ff 3d
       0.30805 0.08459504 0.38957286 0.124927714
000070 ee f1 ea 3e a3 4f bc 3e 44 4d a3 3e a2 59 94 3e
       0.45887703 0.36779508 0.31894886 0.28974634
000080 6c 16 b6 3e 63 ed 40 3e d7 91 c5 3e d9 4e 94 3e
       0.35563982 0.18840556 0.3858783 0.28966406
000090 98 1c b2 3e 0d 69 8c 3c e7 62 b6 3e 7c 0a 30 be
       0.3478744 0.017139936 0.35622332 -0.171915
0000a0 34 c7 25 3e 47 59 a5 be 1c 31 90 3c f5 15 0a 3e
       0.16189271 -0.32294676 0.017601542 0.13484938
0000b0 a0 a9 27 3e 21 df bf 3e d4 60 9c 3e 7e 7c 3c 3e
       0.163733 0.3747492 0.30542624 0.18406865
0000c0 d0 51 89 3e 36 ee 03 3f 3e 5a 3f 3d bf fb 3b 3e
       0.2682023 0.51535356 0.04671692 0.18357752
0000d0 d0 2b b7 3e fd f0 52 bd 7f 17 05 3f 81 6f c3 3e
       0.35775614 -0.051499356 0.5198898 0.38171008
0000e0 ae a1 b7 3e 33 77 01 3f bb 85 c9 3c 09 47 b2 3e
       0.3586554 0.5057251 0.0245999 0.3481982
0000f0 10 0c a5 3e 23 51 a4 3e df 4e b0 3e e6 ae 60 3e
       0.32235765 0.32093152 0.34435174 0.21941718
000100 f8 86 9e 3e 07 1d 02 3e 89 09 91 bd 1c 56 3e 3e
       0.30962348 0.12706386 -0.07081897 0.18587536
000110 8f 3a b1 3e 44 1b 59 be 98 9e 22 3e c0 30 07 3f
       0.3461499 -0.21201807 0.15880811 0.5280876
000120 7b 71 85 be 2d 46 b1 3e 9e 5f 8d 3e fb 97 d8 3d
       -0.2606314 0.34623852 0.27612013 0.10575863
000130 47 37 8a 3d 5c 1e 55 3e b3 22 87 be 11 4b 31 bd
       0.067488246 0.20812362 -0.2639366 -0.04328448
000140 dd 04 47 be a9 6a 76 bd 26 54 f7 3d 2c ac da 3e
       -0.19435449 -0.060160313 0.12076597 0.42709482
000150 76 d0 6f 3e 71 d6 2e 3d f8 96 03 3e 33 29 5d 3c
       0.23419365 0.042684976 0.12850559 0.013498592
000160 69 ef 68 3e 19 e9 d8 3d f8 07 a2 3d 61 5c 31 3e
       0.22747578 0.10591335 0.07911676 0.17320396
000170 75 da 04 be 22 28 6d 3e 4b 79 b2 3e 13 21 42 bd
       -0.1297396 0.2315984 0.34858164 -0.047394823
000180 f0 ed 5f 3e 01 39 5e bd e3 59 93 bc 9a 59 a1 be
       0.2186811 -0.054253582 -0.017987197 -0.31513673
000190 e1 11 b4 bd cd cb 24 3e cb b0 e3 bd fe 3a 46 bd
       -0.08792473 0.16093369 -0.11117705 -0.048396103
0001a0 41 95 5f bd d7 9a 4e bd a5 3c 39 3e e5 7c 77 3d
       -0.0545857 -0.050440636 0.1808954 0.060421843
0001b0 49 30 1e 3e 78 f4 e7 3b f2 de 86 bd ea 06 e5 3d
       0.15448107 0.0070787035 -0.06585492 0.111829594
0001c0 62 4d 0a bd 99 44 20 bd a7 08 2c 3e 23 37 a9 3e
       -0.033765204 -0.03912792 0.16800176 0.33049878
0001d0 72 0e de 3c 0a f7 13 be 34 9f b6 3d f3 94 e7 3e
       0.027106497 -0.14449707 0.08917084 0.45230827
0001e0 07 af 75 be 7c 91 c5 bd 46 8e 2d 3e 25 fe ee 3e
       -0.23992549 -0.096468896 0.16948804 0.46678272
0001f0 ee 30 ce 3d 54 10 7d 3e df 9d cc bd 77 7b 7b be
       0.10067926 0.2471326 -0.09991049 -0.24558817
000200 77 b4 b7 bd f3 e9 b2 be 8a b1 5a be ac 22 3d be
       -0.08969968 -0.34944114 -0.21356788 -0.18470258
000210 6e 3f aa 3d 91 7f 1a be f5 ba 11 3d 91 05 7c 3e
       0.083128795 -0.15087725 0.035578687 0.24611498
000220 09 15 04 3e 9f 16 bf be 7d b6 aa bc bf 17 88 3d
       0.1289865 -0.37321946 -0.02083897 0.06645154
000230 01 2f 1e bd 6e 2d 9a bd f0 e5 53 bc 14 d2 4f 3e
       -0.038619045 -0.07528196 -0.012933239 0.20294982
000240 de f2 d9 bc eb 9e 30 3e c1 cc e4 3d bd 6d 1b be
       -0.026605066 0.17248122 0.11171866 -0.1517858
000250 4c d0 27 be be 20 24 be ff 3f 85 be 29 52 2e bd
       -0.16388053 -0.16028115 -0.26025388 -0.042558823
000260 b9 fa 99 3e a8 4f 98 be da 61 62 be 77 26 d3 be
       0.300741 -0.29748273 -0.2210764 -0.41240284
000270 21 17 25 bb fe 4d 03 bd 12 da 68 bd bb 53 92 bd
       -0.0025190788 -0.0320568 -0.056848593 -0.071448766
000280 df 33 41 be f4 ad fe bd 92 f1 af 3d 4f fa 56 bd
       -0.18867444 -0.12435523 0.08590998 -0.052484807
000290 e8 8b 78 bd 28 4e 17 3e 3e dd 71 3e db 07 28 be
       -0.0606803 0.14775908 0.23619553 -0.16409247
0002a0 c6 e0 13 bd 96 1e 53 3e 9f 8e 1b be 73 6f 7c 3e
       -0.036103033 0.20617136 -0.15191124 0.2465189
0002b0 b1 bf 0b be 42 c5 df 3d 10 f0 6a 3d 98 5d 65 3e
       -0.13647343 0.10926296 0.057357848 0.22398984
0002c0 0e 46 a5 3d f7 8c 87 3e 19 f3 36 3e 27 96 80 bd
       0.080700025 0.26474735 0.17866172 -0.06278639
0002d0 87 54 b5 bc 4e 40 a5 bd 27 d2 00 be fd 26 d4 3e
       -0.022135032 -0.08068906 -0.12580167 0.41435996
0002e0 57 4e 72 3d e8 5a e0 3c a1 24 32 be ee 3f 4d be
       0.059156742 0.027387097 -0.17396785 -0.20043918
0002f0 ed af 92 3c 51 f2 7e 3e 00 a9 2e 3e 4e fa 0f 3e
       0.017906154 0.24897124 0.17056656 0.14060327
000300 f5 c6 83 3e f4 5d b8 3e b7 d2 2e 3e 17 5c 6a 3e
       0.2573773 0.3600918 0.17072569 0.22886692
000310 09 58 bd 3e 36 6f ca 3e a8 59 ad 3e aa 31 2a bd
       0.36981228 0.39537972 0.33857465 -0.04155127
000320 db ee 8c 3e de 93 d2 3d cb 8d 54 3b e1 87 3a 3e
       0.27525982 0.1028211 0.0032433148 0.18215896
000330 af be 1e 3e de 9f 48 3e 38 91 9d 3e 3d 84 a1 3e
       0.15502428 0.19592234 0.30774856 0.31546202
000340 90 cc 42 be 5b b6 d1 3e fe ac a3 3e f4 86 12 3e
       -0.19023347 0.4095944 0.3196792 0.14309293
000350 ba 2d 14 3e 86 ad af 3e b1 e9 4b 3e f2 93 ab 3e
       0.14470568 0.34312075 0.19913365 0.3351131
000360 0a 74 85 3d 79 83 f0 bd 61 18 31 3e de 12 fe bc
       0.06516273 -0.117438264 0.17294456 -0.031014856
000370 53 d8 8d 3e 26 4e c4 3e 8a 56 76 3e 85 a2 a5 3e
       0.27704105 0.38340873 0.2405645 0.32350555
000380 08 03 83 3e 87 1e 4f 3d 3f 94 f3 3d 86 ff 8a 3e
       0.2558825 0.050566223 0.1189351 0.27148074
000390 14 c4 11 3f d0 ba 0c be 83 2a b2 3e 1c f1 80 3e
       0.56939816 -0.13743138 0.3479806 0.25183952
0003a0 7b 1c ad 3e 15 da 05 3e dc 7e 70 3e 56 69 7f 3e
       0.3381079 0.13071473 0.23485893 0.24942526
0003b0 b0 56 dd 3e ac f7 9a 3e 06 59 31 3e 2e 7c da 3c
       0.432302 0.30267084 0.17319116 0.026670542
0003c0 86 ce 3c 3e 32 af 16 3e 63 a2 5a 3c 91 05 a3 3e
       0.18438157 0.14715269 0.01334438 0.31840184
0003d0 9e ff b8 3e 75 c8 83 bc 82 7a 7a 3e a1 46 1d 3c
       0.3613252 -0.016086796 0.24460796 0.009599359
0003e0 15 35 aa 3e 3d 42 4c 3e 64 e9 29 3e ac d0 76 3e
       0.33243623 0.19947143 0.16592938 0.2410304
0003f0 bc c5 07 3f 23 71 c5 3e e3 1e af 3d 18 11 c1 3e
       0.53036094 0.3856288 0.08550813 0.37708354

env_fc1.weight f4 [16, 9]
000000 ef 47 2e be 1b a0 4b 3f a9 dd ed bd 6e 21 57 be
       -0.17019628 0.79541177 -0.11614544 -0.21008846
000010 52 d2 7e 3e bd 7d 91 3f f1 0b cf 3d 86 94 32 bf
       0.24884918 1.1366497 0.101096995 -0.6975788
000020 44 e9 89 3d 1e cc a1 3e 93 4e 2d 3f 40 e5 bd 3d
       0.06733945 0.31601042 0.6769802 0.092722416
000030 a3 25 08 3f 3b d3 72 be 93 d6 49 bf 8e b2 65 3d
       0.5318243 -0.2371339 -0.7884304 0.056078486
000040 7a a3 ed 3e 3b 15 9d be 02 c7 ac 3e 99 2b b9 3e
       0.46413785 -0.3068026 0.3374558 0.36166075
000050 bf 0f ca be 27 34 c7 bf 30 80 92 be ea ec 78 3f
       -0.39465138 -1.5562791 -0.28613424 0.972365
000060 40 c8 f8 bd 10 7c 24 3f 8d 3d 98 be f5 ab ee 3e
       -0.1214757 0.64251804 -0.2973446 0.46615568
000070 12 03 41 3f 2c ab b0 be 74 f3 6e bf 8a 00 0c 3e
       0.7539531 -0.34505594 -0.9334023 0.1367208
000080 e0 f9 a4 bd 01 39 ef 3d 72 ae 2a be 54 95 ad 3e
       -0.080554724 0.116807945 -0.16668108 0.3390299
000090 44 4e 20 3f 9f 31 0a be 96 a5 5e 3e d6 e1 eb be
       0.62619424 -0.13495491 0.21742854 -0.46070737
0000a0 fc fd 83 be da 37 ff 3e 14 32 2a 3f 4b 28 17 3f
       -0.25779712 0.498473 0.66482663 0.5904586
0000b0 41 75 58 3f d7 0e 9a 3e a3 1e c3 bd 29 fb ab be
       0.84553915 0.30089447 -0.09527328 -0.33590057
0000c0 21 74 45 bf a0 d2 00 3d 5e d3 16 3f 3a 45 97 be
       -0.77130324 0.031450868 0.5891627 -0.29545003
0000d0 0b 09 86 be 5d 80 5d be e1 5f 5d 3e d1 d7 9e 3f
       -0.26178774 -0.21630998 0.21618606 1.2409612
0000e0 55 4e f2 3e 02 26 8e be a8 37 41 be 80 4e 2a 3e
       0.47325388 -0.27763373 -0.18868887 0.16631508
0000f0 26 ec c1 3e 62 4b 4b bf f4 8a 0b 3f ac c6 10 bf
       0.3787548 -0.794119 0.545089 -0.5655315
000100 9a 55 26 3f ce df 4b bf bc 2c 74 bf 1b c1 3f be
       0.6497437 -0.79638374 -0.9538076 -0.18726008
000110 dc fb 3a bf ae 53 e5 be 07 b7 97 3f 34 8c a6 be
       -0.73040557 -0.44790405 1.185273 -0.32528841
000120 b6 7e 1c 3e 20 58 9b 3f cc 6b 52 bc 69 e2 1c bf
       0.15282711 1.2136269 -0.012843084 -0.61282974
000130 25 60 95 3e 31 6c e6 bd 30 76 92 3d 21 41 41 be
       0.29174915 -0.112511046 0.07151449 -0.18872501
000140 ef 24 6e 3e 70 c2 e0 3e f2 7d e0 3e e6 9d 05 bf
       0.23256277 0.43898344 0.4384609 -0.5219406
000150 e1 97 cd 3e 2b 24 93 3e 95 bc bc 3f cd ff e7 be
       0.40154937 0.2873853 1.4745051 -0.45312348
000160 a3 cf 13 bf 60 5c 98 3e 6f 4a 8c 3e d0 c7 64 be
       -0.57738703 0.29757977 0.27400538 -0.22341847
000170 21 25 92 be 4e 2a 8b be 98 ec 11 3e f0 32 ae be
       -0.28543952 -0.27180713 0.1425041 -0.34023237
000180 73 bb f4 bc 3b fd 41 3e 45 bf c0 3d 52 9c 9f 3e
       -0.029874539 0.18944256 0.09411482 0.3117395
000190 55 5a bc 3f 29 f4 0b 3f c3 f7 24 be 4b f7 5c be
       1.4715067 0.54669434 -0.16110139 -0.2157871
0001a0 42 4d 14 bb b5 38 2f 3d a9 30 f5 be e4 f2 ae 3d
       -0.0022629057 0.04277869 -0.47888687 0.085424215
0001b0 20 25 7d 3d b6 68 40 be 17 c1 90 be 36 6b f1 bd
       0.061802983 -0.18789944 -0.28272316 -0.11788027
0001c0 c8 56 2d be c0 d6 97 be 5e 27 4b be 4c 5d 8b bd
       -0.16927636 -0.2965603 -0.19839236 -0.06804904
0001d0 58 c9 53 3d bb 23 1c bf a9 af 6c 3f c8 6b 93 be
       0.05170569 -0.6099202 0.92455536 -0.28793168
0001e0 67 0a 9e be 93 df 10 be 6f fb 8b bd 93 1a 9a 3e
       -0.3086731 -0.14147787 -0.068350665 0.300984
0001f0 bb 58 a0 3e 24 c1 5c 3e e0 0c d1 3e bd e6 d2 be
       0.31317696 0.21558052 0.40830135 -0.41191664
000200 85 a5 41 3f 5f b9 26 bf 36 a8 2d be 83 d5 80 3e
       0.7564319 -0.65126604 -0.16958699 0.25162897
000210 ac 80 c0 3e 44 75 47 3f 56 25 c6 3e 3d 15 3a 3f
       0.3759817 0.7791331 0.3870036 0.7268866
000220 73 7a 35 3f 35 67 c0 be c4 0b 7a 3f 98 d8 33 be
       0.7088997 -0.3757874 0.976742 -0.17563093
000230 f0 35 41 be dc 9a 19 bd 48 d0 54 be 2b 69 bf bd
       -0.18868232 -0.0375012 -0.20782578 -0.09346231

env_fc1.bias f4 [16]
000000 c0 02 40 3e b8 74 25 3e 36 d4 ad 3e 31 64 bc 3c
       0.18751049 0.16157806 0.33950967 0.022996994
000010 ad 42 b4 3e 8e 96 15 3f da d0 f7 bd d2 8b 6d 3f
       0.3520712 0.58432853 -0.12100382 0.92791474
000020 35 ed 80 3e 9c 08 60 3e 49 19 94 be c1 d1 21 3e
       0.25180975 0.21878284 -0.2892554 0.15802671
000030 90 64 02 3e 19 78 73 3d d0 9f 26 be b4 c8 8a bd
       0.12733674 0.059440706 -0.16271901 -0.06776562

env_fc2.weight f4 [8, 16]
000000 1c e5 9d bd 9b c2 02 bd 46 ee 48 3f 25 6c 19 3f
       -0.07709715 -0.03192387 0.78488576 0.5993064
000010 3f 44 5c 3e 83 c3 f1 3e 7e 4e 78 3e d6 65 e8 3a
       0.21510409 0.47219476 0.24248692 0.0017730545
000020 5f db a0 3e a8 83 2c bf 81 14 55 be bd 3f 01 3f
       0.31417367 -0.6738839 -0.20808603 0.5048788
000030 f4 5c c6 3d e5 7a e5 3e 47 5f 1a 3f 03 98 1c bf
       0.09685698 0.44820324 0.6030163 -0.6116945
000040 cc f5 54 3f 65 e5 78 be 61 85 0e bf fc 0e 9d 3e
       0.83187556 -0.24306257 -0.5567227 0.30675495
000050 ac 70 e9 bc da f2 32 bf 1f 62 5f 3f 59 65 71 bf
       -0.028496109 -0.6990181 0.87259096 -0.9429527
000060 8d c4 ca 3e 4a 43 46 3f 26 f2 2b bc 21 95 38 3f
       0.3960308 0.77446425 -0.010494744 0.7210255
000070 62 d3 10 be 66 09 b1 be 1a a4 d2 be 1b c5 91 3d
       -0.14143136 -0.34577483 -0.41140825 0.07117673
000080 ea 5a ec 3e 8c 43 d4 be f8 8f d4 3e 73 07 52 3e
       0.46163112 -0.41457784 0.4151609 0.20510654
000090 01 7d 1b 3f f7 31 36 3f 17 5b 40 bd 09 f5 61 bf
       0.60737616 0.7116999 -0.04696187 -0.8826452
0000a0 1e 8f 08 3d 6c ee 60 3f 1e 13 10 be 83 b5 67 be
       0.033339612 0.878638 -0.14069793 -0.22627835
0000b0 c2 bf 07 be 63 8f d5 bd 0e 1b 3b 3f 6d d3 a7 bf
       -0.13256744 -0.104277395 0.7308816 -1.3111397
0000c0 7a 91 28 3e f8 97 13 3f 05 67 3c 3f 2d b3 6f 3f
       0.16461745 0.5765376 0.73594695 0.93632776
0000d0 74 bf 10 3e 1c f9 2f 3f 79 da 6e 3f 4a 16 2b 3c
       0.14135534 0.68739486 0.9330211 0.010442326
0000e0 65 4f 4e 3f 52 07 17 bf 7e cf a9 3c f0 2c 55 3f
       0.80589896 -0.58995545 0.020728823 0.83271694
0000f0 de fd 1a 3e ca b0 d5 3e 9f 56 03 3e 76 5f ef bc
       0.15135905 0.41736442 0.12826012 -0.029220324
000100 9a b8 b1 be 9c 01 bd 3e 1a f7 cc 3e 53 4e 07 3d
       -0.34711152 0.3691529 0.40032274 0.03303368
000110 c6 29 8d 3e 1b c7 00 bb bb ef 04 3e 21 23 1b 40
       0.27570933 -0.0019649926 0.12982075 2.424019
000120 a6 21 41 3e a1 f2 0b bf 5b 2c b5 bd b7 e3 49 be
       0.18860492 -0.546671 -0.08846351 -0.19715773
000130 28 b6 15 be 22 5f ac 3f c0 95 d4 bd 71 7f a3 3e
       -0.14620268 1.3466532 -0.10380125 0.31933168
000140 c1 16 f0 3e b8 e4 45 3e 6a 2b 56 bf 51 96 62 be
       0.4689236 0.1932553 -0.83659995 -0.22127654
000150 a7 f4 19 3e b8 8e 2b bf f7 68 c2 3e d4 b2 e4 be
       0.15034734 -0.67014647 0.37970707 -0.44667685
000160 36 fa 6b 3d 27 71 66 3f a3 0d 92 3c 1f bc be 3e
       0.057611667 0.90016407 0.017828768 0.372529
000170 58 63 20 bd 7b 3c be be cd ad c7 be eb 32 1c 3f
       -0.03915724 -0.37155518 -0.38999787 0.61015195
000180 de 51 60 be a8 fc 7e be d9 1a f5 bd 2c 19 16 be
       -0.2190623 -0.24901068 -0.119680114 -0.1465804
000190 5f 14 00 be 62 35 69 3e 40 a6 1b be 7b 72 2b 3e
       -0.12507771 0.2277427 -0.15200138 0.1674289
0001a0 db b7 35 3e 4a a5 1d be d6 e7 18 be c8 22 99 3c
       0.17745917 -0.15395084 -0.14932188 0.018693343
0001b0 5a 60 1e be 0e d9 e3 3b 58 f0 9c 3d bf e8 7a bc
       -0.15466443 0.006953365 0.076630294 -0.01531428
0001c0 c2 d0 48 bf ae 7b b3 3e 65 92 9d 3e 3f d5 28 3e
       -0.7844354 0.35055298 0.30775753 0.16487597
0001d0 c2 be 1d 3f 76 c0 e9 bd 27 7b cc be ef f5 8b 3e
       0.616192 -0.11413662 -0.39937708 0.2733607
0001e0 0f 94 31 be d2 ed b9 be 8e c8 29 be e6 71 f1 be
       -0.17341636 -0.36314255 -0.16580412 -0.4715721
0001f0 d0 99 38 3d e4 6d 72 bd 98 bc 1e 3f 17 91 9a bd
       0.045068562 -0.05918683 0.6200652 -0.07547205

env_fc2.bias f4 [8]
000000 bb 36 77 be 5a a3 3e 3c 36 66 c7 3e 04 10 4e be
       -0.24141972 0.011635626 0.38945168 -0.20123297
000010 7d 93 84 3e 95 60 85 3e c9 4a e7 bc 70 ad c6 3e
       0.25893775 0.2605025 -0.028233903 0.38804197

fc_comb.weight f4 [32, 72]
000000 92 e2 66 3e b2 d9 4e be 7a 26 15 bf c0 08 69 3b
       0.22547367 -0.20200232 -0.58261836 0.0035558194
000010 d9 da 9e 3d 58 c9 04 3e 98 24 0e 3e 67 73 98 3e
       0.07756586 0.12967432 0.13881147 0.29775545
000020 e1 87 a3 3e 77 0f 46 be 31 b6 ac 3e 75 9c e8 3b
       0.31939605 -0.19341837 0.3373275 0.0070987293
000030 a2 5a c9 3c 6b 10 70 3e 42 b9 ff bd 8f 4e 0b 3f
       0.02457935 0.23443763 -0.12486507 0.54416746
000040 fa fb b0 be 40 ff 3a be d1 c7 9c 3e 0c 49 a9 bc
       -0.34567243 -0.18261433 0.30621198 -0.020664714
000050 72 18 98 be eb 2e 8b 3c de a4 a4 be f9 2f 07 be
       -0.2970615 0.016990146 -0.32157034 -0.13201894
000060 c9 2d ce 3d f9 ef be be b8 a0 67 bf 98 fa d6 bd
       0.100673266 -0.3729246 -0.9047961 -0.10497016
000070 87 75 f2 be 7b 03 a6 3e e9 24 4a 3d eb 29 cb 3d
       -0.4735529 0.3242453 0.049351607 0.099201046
000080 8a b1 0d bf 6f 3f 88 3e 5b 11 89 bd e9 9c f7 3d
       -0.5534903 0.26610896 -0.066927634 0.12090475
000090 04 0a d6 bd 97 1b 5d 3e e7 cd 07 3e 0f ea 77 bd
       -0.10451129 0.21592556 0.1326214 -0.06052595
0000a0 bf 0d 2d be cd 37 a3 bd ac 48 39 3c ec 27 96 3d
       -0.16899775 -0.079696275 0.01130883 0.07331833
0000b0 f0 f8 6b be 66 93 e5 bd bb 63 fd 3e b4 e6 82 3f
       -0.23044181 -0.11209755 0.4949015 1.0226655
0000c0 9b a6 d4 3e 1b 12 a1 3e 84 79 2d 3e 50 34 71 be
       0.4153336 0.31459126 0.16940886 -0.23555112
0000d0 21 78 eb 3e 14 c4 8e be 8d 39 4f be c8 34 88 3d
       0.4599009 -0.2788397 -0.20236798 0.06650692
0000e0 59 85 83 3e 33 25 4e 3e 08 88 8f 3d 34 d6 51 bd
       0.25687674 0.20131378 0.07008368 -0.05122967
0000f0 96 2d a0 3e 27 df 2e 3e 75 ad c9 3e e2 53 42 3d
       0.3128478 0.17077313 0.3939015 0.047443278
000100 87 70 df be 43 5d a6 3e d9 ec 98 3e b4 19 dc be
       -0.4364054 0.32493028 0.298682 -0.4298836
000110 c2 97 04 bf 91 19 32 3f f7 20 aa 3d 1f ac fe 3e
       -0.51794064 0.6957026 0.08307069 0.49740693
000120 32 7c 16 3c e4 39 ae 3e 8c 8c 97 3e e2 bd 63 be
       0.009184884 0.34028542 0.29599416 -0.22240403
000130 d8 7c 13 bd 89 b1 05 3e 11 7c 0b bd 3e 49 c3 bf
       -0.036007732 0.13056006 -0.034053866 -1.5256727
000140 f9 9b 46 be a4 a3 03 3e 94 04 73 bd 92 3a b2 3e
       -0.19395436 0.12855393 -0.059330538 0.3481031
000150 dc cc a0 3c 85 1a f3 3e d8 02 18 3b 2c 9f 17 bc
       0.019628935 0.4748117 0.0023195054 -0.009254258
000160 c5 e5 33 3e 74 65 b2 be 88 42 aa bd 80 57 9c 3d
       0.17568119 -0.34843028 -0.08313471 0.07633877
000170 59 b5 0b 3e 3f 1a 05 3d 81 2b 25 3e 97 e0 b1 be
       0.13643397 0.032495733 0.16129877 -0.3474166
000180 cc ec b1 3e 83 4f 41 be 44 c6 19 3d dd c9 ee bc
       0.34750974 -0.18877988 0.037542596 -0.02914899
000190 85 e2 9f 3e f5 53 9f bd 15 f2 0a 3f 42 01 ab 3e
       0.31227508 -0.077796854 0.5427564 0.33399397
0001a0 a1 57 7a bd 79 e8 af 3e e4 65 8b 3e 01 ad 96 3e
       -0.061118726 0.3435705 0.27226174 0.29428867
0001b0 03 99 4c be 93 c5 04 be 8a be 94 be 98 94 fc be
       -0.19980244 -0.12965994 -0.2905162 -0.49332118
0001c0 2a c3 f7 be b8 0e 3d 3f 93 29 6e be f6 1e fc bd
       -0.48391086 0.73850584 -0.23258047 -0.12310593
0001d0 73 ab 07 be 1e e5 c7 3e 4a f7 cf 3e 32 43 2c bd
       -0.13248996 0.3904199 0.40618354 -0.04205627
0001e0 7f 00 84 be da 8f 24 bc 44 64 17 3f f8 39 90 be
       -0.25781628 -0.0100440625 0.5913737 -0.28169227
0001f0 6c 79 1d bd fb a3 9c bd c0 a5 b9 3e 6a 36 45 3e
       -0.038445875 -0.07648464 0.3625927 0.19259039
000200 72 6b 18 be 99 42 b1 3e 36 80 85 3d 01 9a eb 3d
       -0.14884737 0.34621122 0.06518595 0.11503983
000210 7f fa e7 bd 11 b4 de 3d d6 c9 8f be a5 83 df be
       -0.11327075 0.10874189 -0.28083676 -0.43655124
000220 83 2d ed be 10 17 36 bc a0 7e 40 be 51 f4 4a 3e
       -0.46323785 -0.011113897 -0.18798304 0.19819762
000230 e8 5d 12 bf bf 49 0e 3e 1f 72 b8 3d 70 ef b1 be
       -0.5717454 0.1389532 0.09006142 -0.3475299
000240 3b bb 5b 3e 9c 5f e1 3d 63 53 ee be 62 63 1f 3e
       0.21458142 0.11004564 -0.46547994 0.15565255
000250 86 49 4d 3e a7 3f b0 3e c2 40 e4 be 00 f8 97 bd
       0.20047578 0.34423563 -0.44580656 -0.07420349
000260 a8 f2 7b be 00 d4 95 bb 18 54 d8 3e b7 eb 9a be
       -0.24604285 -0.0045723915 0.42251658 -0.3025796
000270 78 97 7d be b2 bc 8e bc a7 f0 1c bd e6 ec 3c bd
       -0.24764812 -0.017423961 -0.03831544 -0.04612436
000280 9a ee 1a 3e a0 6e 47 bd f2 68 c2 be 6b a8 35 bd
       0.15130082 -0.048689485 -0.37970692 -0.04435007
000290 ae 9d 96 bd 7f ef ab 3e 97 6e 20 be ae 38 f3 bd
       -0.07354294 0.3358116 -0.15667187 -0.11876045
0002a0 52 a4 1b bf fa 6b ae 3c 82 84 af 3d 07 63 35 3d
       -0.6079761 0.021291722 0.08570196 0.044283893
0002b0 71 8b 7b 3e 34 10 28 bd ad 81 af bd 5b 87 b5 bd
       0.24564911 -0.041031078 -0.085696556 -0.08863708
0002c0 09 f1 55 be 0b f8 eb 3d 1e 48 a0 3e 9d ec 38 bd
       -0.20892729 0.1152192 0.3130502 -0.045147527
0002d0 08 f4 f9 3e de 81 a4 3e b6 49 bf bd b2 2f 21 3b
       0.48818994 0.3213033 -0.09340231 0.002459508
0002e0 0f fa b6 3e 4c 52 c7 bd e2 aa 35 be 12 2e 91 be
       0.35737655 -0.09732494 -0.17740968 -0.2835546
0002f0 70 ad bd 3e 7d 11 6a bd 73 26 38 3e 60 59 bd be
       0.37046385 -0.057145584 0.17983417 -0.3698225
000300 de 19 e8 3d c2 1f 4c 3e 06 f0 cc 3d 5c ca d7 bd
       0.11333059 0.1993399 0.10006718 -0.10536644
000310 67 bd c9 3e ee 7c 56 3e ea a4 06 bf 91 a0 2b be
       0.39402315 0.20946094 -0.5259539 -0.1676047
000320 10 61 85 3e 4b ca 51 bc 04 a3 f0 3e 09 62 ef 3d
       0.26050615 -0.012804578 0.4699937 0.116886206
000330 8c 3e 87 be 8b a2 be be 11 6c db be bd 79 b2 3e
       -0.26414907 -0.37233385 -0.42855886 0.34858504
000340 b2 e0 2f 3b 49 66 eb bd 27 89 1c bf 1e f9 7b 3d
       0.002683681 -0.11494119 -0.6114678 0.061516874
000350 eb 84 a0 3d 63 13 b0 be 1a d4 2c bd 2d c5 12 bd
       0.07837852 -0.3438979 -0.042194463 -0.035832573
000360 b7 8b f9 bd b1 0b 32 bf 73 01 d6 3e 28 1d 8a be
       -0.121848516 -0.6954909 0.4179798 -0.2697537
000370 c7 bb 4d 3e 72 b8 f5 3e e1 ee 0f bf e8 92 d4 3e
       0.20091163 0.47992283 -0.56223875 0.4151833
000380 72 7a d1 3e 69 fc e6 bd bb 71 c4 3d 5c a8 d6 3e
       0.4091373 -0.11278612 0.09592005 0.41925323
000390 3f 6a e3 3e 4a b7 4d 3e 0d 99 02 3f 5c 90 f3 3e
       0.44416997 0.2008945 0.51014787 0.47571075
0003a0 b3 05 5a be e4 88 53 bd be ef ca bd 35 22 58 bd
       -0.21291237 -0.05164422 -0.099090084 -0.052766997
0003b0 b7 8a 2b 3e f6 02 f6 bc 0f 8f e1 3c 09 a2 2c 3e
       0.16752134 -0.030030709 0.027534036 0.16858687
0003c0 2b b2 87 be 37 99 50 3d 4b 9b d4 3e 0a b6 54 38
       -0.2650312 0.050927367 0.4152473 5.0714276e-05
0003d0 35 75 c9 be ad ec 7d bd 81 26 c7 3d d1 22 8c be
       -0.39347234 -0.06199329 0.09724141 -0.27370313
0003e0 23 30 f3 bd 97 6b 27 3f b6 72 31 bf 95 a8 5f bf
       -0.11874416 0.65398544 -0.6931566 -0.8736661
0003f0 13 39 09 bf 8b 64 64 3d 88 92 25 3e 26 fd 83 3c
       -0.53602713 0.055759948 0.16169178 0.016111922

fc_comb.bias f4 [32]
000000 9f 34 3c 3e 62 b2 98 bd 18 50 c3 3d 25 e5 5e be
       0.18379448 -0.07455899 0.09536761 -0.21767099
000010 13 e8 8d bd 3c f3 86 3e 37 e3 27 3e 71 5a e1 3b
       -0.0692903 0.26357448 0.1639527 0.0068772365
000020 d9 ab 33 3e b5 6e 99 3e fc 99 0c bc f2 32 b0 3d
       0.17546023 0.29967275 -0.008581635 0.08603467
000030 87 e1 4b bd 51 2f 35 bc ad c1 f7 bd 76 0d 3f 3e
       -0.049775627 -0.011058644 -0.120974876 0.18657479
000040 7b c1 46 bd 89 2d d9 3c 5c d4 04 3e 29 fd 6c bc
       -0.04852436 0.02651097 0.12971634 -0.014464655
000050 94 63 0e be 71 eb 87 3e 2f de cc bd 9c a8 31 3d
       -0.13905174 0.26546815 -0.10003316 0.04337369
000060 61 04 1b 3c f3 9d a7 3d ba c7 d8 3d 56 97 a1 3d
       0.009461493 0.08184423 0.1058497 0.07890193
000070 f4 de 8c bc a3 73 06 bc 27 ec b4 3c 69 0b 6f 3e
       -0.017196156 -0.008206281 0.022085262 0.23344196

fc_out.weight f4 [6, 32]
000000 ce 68 99 be 2d 6e 35 bf ad f8 8e bd b4 8a ac be
       -0.29962772 -0.7087124 -0.06981025 -0.33699572
000010 77 81 b1 bb 77 ed 94 be b7 fa dd bf 95 7c f6 bc
       -0.0054170447 -0.2908742 -1.7342137 -0.030088702
000020 82 0a 61 bd 71 bf d7 bf e7 ae 3d be c9 27 22 bf
       -0.05494166 -1.6855298 -0.18523751 -0.6334196
000030 4d 5c 66 be 7b 23 52 be 2d c8 be bf 95 a1 9e bf
       -0.22496147 -0.20521347 -1.4904839 -1.2393061
000040 57 58 3c bf b3 4e 78 bf 70 3c e1 be ae e7 89 3d
       -0.73572296 -0.96995085 -0.43991423 0.067336425
000050 49 c7 a7 bd d0 8d bb be f3 e8 8e bf 76 77 7d bf
       -0.081923075 -0.36631632 -1.116484 -0.9901041
000060 d1 d0 ea bf ee 53 1d bf 5c a9 3a bf 5d b7 a9 be
       -1.8344976 -0.6145619 -0.7291467 -0.33147708
000070 66 84 3d be 1c 98 ab bd c7 a1 d4 bc 51 0e 4a bf
       -0.18507537 -0.08378622 -0.025956048 -0.78928095
000080 c2 ec 02 3f af a6 0b c0 75 38 6f 3e 9e f8 44 3e
       0.51142514 -2.1820486 0.2336138 0.19235465
000090 32 e9 0f be c3 75 f3 3e fb 3c 8f bf 77 5a a7 bd
       -0.140538 0.47550783 -1.1190485 -0.08171552
0000a0 16 af 99 3e ae 7f 81 3f 4c bf e9 be ac a2 4d 3e
       0.30016392 1.011709 -0.4565376 0.20081586
0000b0 a0 f9 d1 bd c3 d4 b6 3e 60 a7 38 bf 8d 6d 9b bf
       -0.1025269 0.357092 -0.72130394 -1.2142807
0000c0 db ad 08 bf 52 93 9c be 26 9f 88 bd 55 1f 0e 3d
       -0.5339028 -0.30581146 -0.0667098 0.03469785
0000d0 1b 6f 36 bf a5 1d 2b 3d cd 3b 4f 3f d8 e1 59 be
       -0.71263283 0.041776318 0.80950624 -0.21277559
0000e0 65 34 ce bf f7 11 89 3e 2e 51 59 be f8 8b 0e be
       -1.610974 0.2677152 -0.21222374 -0.13920581
0000f0 22 a4 bb 3e c5 36 40 3f bb 53 2e bd 5d 58 9c 3d
       0.3664866 0.7508357 -0.04256032 0.076340415
000100 0b 31 0a c0 c5 da 28 3d 64 c8 c3 3e a0 0a 36 3e
       -2.1592433 0.04122426 0.38238823 0.1777749
000110 67 a7 58 3d ee a3 7a be bc 9a bb 3e 31 3e 8b be
       0.052894022 -0.24476597 0.3664149 -0.27195886
000120 eb 5b 0c 3d 45 ce b6 be d3 c5 a6 3e d9 b8 d0 bc
       0.034267347 -0.35704246 0.32572803 -0.025478767
000130 c5 2b 0e 3e 50 f3 7c 3d 9e 02 bc 3e 1c cf cc 3e
       0.13883884 0.06175548 0.36720747 0.40001762
000140 35 0a 86 3f 0f b0 36 3e 4c 42 49 3e 70 83 df 3c
       1.0471865 0.17840599 0.19654197 0.027284354
000150 32 57 9b 3e 1c 19 4e be 11 b5 88 be 6d 7b 94 3d
       0.30339962 -0.20126766 -0.26700643 0.07250104
000160 ba 43 f7 bf c0 7a af be 66 4b 0f 3d 02 6e 53 3e
       -1.9317544 -0.34273338 0.034984015 0.20647433
000170 c5 8e 74 3e 63 fd 4b 3e e2 2d 7c bd cf 74 88 bf
       0.23882587 0.19920878 -0.061567195 -1.0660647
000180 36 1b 57 3e 19 a3 5a bf 70 18 c4 be ec 5a 46 3e
       0.21006474 -0.8540512 -0.38299894 0.19370621
000190 db 42 db 3b d2 4f 26 3e 83 09 32 be c1 97 2e 3f
       0.0066913194 0.16241387 -0.17386441 0.6820031
0001a0 36 48 9d 3e f7 14 cf bf 17 61 a1 be a5 5f ce bf
       0.30719155 -1.6178273 -0.31519386 -1.6122938
0001b0 15 c1 4d bf 3f 08 ef 3d 8a d2 ad bf 08 c2 bd bb
       -0.80372745 0.11671495 -1.3579876 -0.0057909526
0001c0 4b b8 19 3e 08 f6 00 3f 6f 25 49 be b3 ca 49 bc
       0.15011708 0.50375414 -0.19643186 -0.012316394
0001d0 12 af 79 3f d4 0d 60 be 26 bc 8a be 75 bf 73 3c
       0.9753276 -0.21880275 -0.2709667 0.01487719
0001e0 a1 47 f5 3e 3d 6f 0f 3f d7 f6 cc 3e d3 cf 93 be
       0.4790621 0.5602911 0.40032074 -0.28869495
0001f0 82 54 15 bf c3 eb 05 bf 04 5b 07 be ed ce 6e 3b
       -0.58332074 -0.5231287 -0.13218313 0.0036439255
000200 2d 03 01 3f f2 9d f5 3d d6 a4 14 bf 38 cf 64 c0
       0.5039547 0.11993016 -0.5806402 -3.5751476
000210 88 d7 c1 bd 2e 2c 92 bf 42 b5 b1 3e f9 08 b9 bf
       -0.094649374 -1.1419733 0.347086 -1.4455863
000220 ea 74 29 3e 04 ea 83 be 10 eb 52 3e e8 61 ca bc
       0.16548505 -0.25764477 0.20597482 -0.024704888
000230 2d 6a f3 3d 01 2b 7a 3c 5e 07 04 3f d5 f0 03 3f
       0.11885486 0.015269042 0.5157374 0.51539356
000240 bb e7 cd bf 64 9a 14 3e 62 06 9c 3e bc 07 91 bd
       -1.6086344 0.1451202 0.3047362 -0.07081553
000250 93 58 c4 bd 4f e2 96 3e 15 d8 1a bd c1 c2 a5 3e
       -0.09587207 0.29469535 -0.037803728 0.32375148
000260 b0 6a ac bf f2 7c 66 bc d6 9d 9b bf b9 f8 85 be
       -1.3470058 -0.014067875 -1.2157543 -0.26166323
000270 e5 e6 0c be 57 a4 86 bf 91 cc 2e 3d fa 49 1d 3f
       -0.13759954 -1.0518903 0.04267556 0.61441004
000280 4b ec 11 be 3f ee dd 3e 6d 79 8e 3d b0 e5 46 3e
       -0.14250295 0.4334583 0.06956754 0.19423556
000290 0a 86 c0 bd 45 45 e1 bd c0 0a ce 3c 74 64 82 be
       -0.09400566 -0.1099954 0.02515161 -0.25467265
0002a0 65 c5 15 c0 41 a2 c6 3f b9 4c 5c bc 88 ea 01 3f
       -2.340173 1.5518266 -0.0134460265 0.5074849
0002b0 54 92 e0 3e df b7 0a c0 3c 65 9c 3f 99 f0 bc bf
       0.4386164 -2.1674726 1.2218394 -1.4760925
0002c0 f0 bb d9 3e b1 ae 53 3f 48 d8 ee 3d 1c 9f 9d 3c
       0.42526197 0.8268843 0.11662346 0.019240908
0002d0 e3 f2 7b 3e 07 b8 5d 3e 71 59 bb bf 97 ce 1a bf
       0.24604373 0.21652232 -1.463667 -0.6047148
0002e0 14 5c 2b 3f b1 e7 81 bf da b6 b9 3e 48 9f af 3e
       0.66937375 -1.0148832 0.36272317 0.3430121
0002f0 75 76 a8 3d b3 b9 44 be 21 40 22 3d 89 ac b1 bd
       0.08225719 -0.19211464 0.03961194 -0.086754866

fc_out.bias f4 [6]
000000 09 25 8b be 9f 0a 66 3d 83 42 23 bd a3 f2 e9 3d
       -0.27176693 0.056162473 -0.039858352 0.114232324
000010 a3 a3 13 3e 4f 52 90 3e
       0.14417891 0.28187796
